model/model.pth (torch, 687784 bytes, 8 tensors)

linear1.weight f4 [512, 12]
000000 5f 3d e9 ba 73 a9 62 3e 86 16 a2 3d 11 68 e8 3d
       -0.0017794779 0.22134952 0.07914452 0.11347974
000010 cb 17 82 3d d4 e1 f7 bd ba b0 73 3d 66 7c c3 bd
       0.063521944 -0.1210362 0.05949471 -0.095452115
000020 06 c1 a4 3c e4 b2 00 be 00 8e e9 bd 55 36 4c 3e
       0.020111572 -0.12568241 -0.114040375 0.19942601
000030 46 ae d4 3c cc 4b 3d bd ec a9 03 bf cd 51 1c bd
       0.025962006 -0.046214864 -0.51431155 -0.03816395
000040 0f 05 e5 3d 01 f1 b3 3c da 35 b5 bd c4 d6 5e 3d
       0.111826055 0.021965506 -0.08848162 0.054404035
000050 59 a0 2b 3e fd 3b 0d 3e 1d ec d4 be 0e 63 f3 3d
       0.16760387 0.13792415 -0.4158639 0.118841276
000060 48 81 97 3e 47 44 de 3d 24 f4 a2 be 54 97 92 3d
       0.2959082 0.108528666 -0.3182689 0.0715777
000070 59 49 03 be 03 12 60 3e 57 48 66 3e f1 51 ae bd
       -0.12820949 0.21881871 0.22488533 -0.08511723
000080 35 97 31 3e 8f d7 a4 be 45 4a 09 bd c2 cc 90 3e
       0.17342837 -0.32195708 -0.033518095 0.28281218
000090 f5 7c 68 be 57 62 cc 3e 0b 10 67 be 37 d4 a8 bd
       -0.22703917 0.39918777 -0.22564714 -0.08243602
0000a0 bb 78 2a bc 22 af 05 be 08 67 34 3e e3 17 d7 3d
       -0.010404761 -0.13055089 0.17617428 0.10502603
0000b0 2f 42 92 3d 06 82 8b 3e fb 8c 8a be de 11 df bd
       0.0714153 0.27247638 -0.27060685 -0.1089208
0000c0 bc 8a 33 3e 2e f3 95 bd c1 ee 5e be 40 84 2c be
       0.17533392 -0.073217735 -0.21770765 -0.16847324
0000d0 13 a7 5f 3e 11 b4 66 3d 2d 22 23 3e 7c c4 90 be
       0.21841078 0.05632407 0.15931006 -0.28274906
0000e0 da bc 2d bd 58 6d 0b be 4c 9a 9a 3e 5c de 97 3e
       -0.04241643 -0.1361593 0.30195844 0.29661834
0000f0 8c 7d bb be 95 5f dc 3d 69 b8 70 bd dd e1 9b bd
       -0.36619222 0.10760418 -0.058769617 -0.076114394
000100 ba fc 5f 3e 8c 6f 01 bd 36 76 0e 3e e7 06 2a be
       0.21873751 -0.03160052 0.13912281 -0.16604196
000110 3c 99 1f 3e b2 68 93 be d7 c3 bc bd b6 a1 83 3e
       0.15585798 -0.28790814 -0.09217041 0.25709313
000120 c0 bd ad bc 48 58 fc bd fe a9 45 be d0 70 a1 bc
       -0.021208644 -0.12321526 -0.19303128 -0.019707114
000130 50 c3 fa bc 20 12 3c 3c 10 a7 bb bd 24 15 03 be
       -0.03061071 0.011478931 -0.09162724 -0.12801033
000140 18 01 97 3d 58 8f 3b 3d c0 42 5b bc e0 89 17 3e
       0.073732555 0.045791 -0.013382614 0.14798689
000150 1d f0 91 3e f3 7c 62 be a0 ba 18 3e 6c 7a 1f 3d
       0.28503504 -0.22117977 0.14914942 0.03893511
000160 e3 42 03 3e fb 58 ba be 8a 03 7e 3c 59 e4 7e 3d
       0.12818484 -0.36396012 0.0155037735 0.062229488
000170 59 cd 08 3d 30 e7 90 bc c0 ef d2 bd 8d f8 f8 3d
       0.03339896 -0.017688364 -0.10299635 0.12156782
000180 3c 9c 2b 3e d3 41 56 be 20 40 18 3d f4 84 cf bd
       0.16758817 -0.20923547 0.03717053 -0.10132781
000190 6a 06 a2 bd 12 ca 4a be bf 75 80 3d 83 29 13 3d
       -0.0791138 -0.19803646 0.06272458 0.03592826
0001a0 bd ef 0d be 36 79 c3 3e 2f 86 e9 3d c8 0f 94 3d
       -0.13860984 0.38178414 0.114025466 0.072295725
0001b0 52 b7 c5 bd 1a de aa be 11 96 ae 3d 49 cf 8b 3e
       -0.09654106 -0.33372575 0.08524717 0.27306584
0001c0 26 2f a6 3b 6c c6 bb bd 81 a6 66 3e 78 93 a5 3c
       0.0050715385 -0.09168705 0.22524454 0.02021192
0001d0 7b 86 e3 bd e0 1b 45 be a8 9b 26 bd 54 37 84 3c
       -0.111096345 -0.19248915 -0.04067579 0.016139664
0001e0 90 9d 75 3d ae fb 07 be 72 d3 88 3e c0 c5 42 3e
       0.059964716 -0.13279602 0.2672382 0.19020748
0001f0 59 84 c6 3c 01 ff 06 be 84 3d e8 3c 56 7e af 3d
       0.02423303 -0.13183214 0.028349645 0.085690185
000200 c3 a1 2b be 4d 51 20 bc 84 53 71 3e 47 15 43 bd
       -0.16760926 -0.009785009 0.23567015 -0.047627714
000210 88 78 1a be d3 c7 c5 3e 82 98 52 bd 0f eb be 3e
       -0.15085042 0.38629016 -0.051414974 0.3728871
000220 1e 05 b6 3c 39 e8 19 3e 88 77 12 bd c3 90 9c bd
       0.022219237 0.15029992 -0.035758525 -0.076447986
000230 b4 d4 d4 be 76 64 3b 3e 1c a8 cc be 87 0e fe 3d
       -0.4156853 0.18300042 -0.39972007 0.124051146
000240 87 5b a8 bd 01 23 6d 3e dd dd ae bd 94 c5 67 be
       -0.082205825 0.23157884 -0.08538411 -0.22633964
000250 2d 27 8e 3e de e6 64 3d 3d 23 e5 bb cf 29 ce bc
       0.27764264 0.055884235 -0.006992726 -0.02516642
000260 7c 87 b9 be 6d d3 38 3d 4e 67 88 bd 17 08 95 be
       -0.3623618 0.045123506 -0.06660329 -0.29107735
000270 4c b0 94 3d 4f c0 2f 3e 07 4c 3b be d3 f7 56 3e
       0.072601885 0.17163204 -0.18290721 0.20992975
000280 0c b0 96 3d f6 9d 41 3e 84 3d 4a 3e 22 12 34 be
       0.07357797 0.18907914 0.19750029 -0.17585042
000290 d1 58 86 3e 52 89 5b be af 9f 08 bd f8 11 e6 3d
       0.26239637 -0.21439102 -0.03335541 0.11233896
0002a0 5b 8e e5 bd 09 60 a1 bd 31 a5 15 3e 7f 58 14 3e
       -0.11208793 -0.078796454 0.14613797 0.14486884
0002b0 68 07 44 be 01 e6 34 3d 38 40 71 be 29 c0 08 3b
       -0.1914345 0.04416466 -0.23559654 0.002086649
0002c0 6d 9e df bd c5 48 2e 3e 14 0b f2 3d 72 6d 92 3d
       -0.10918889 0.17019947 0.11818519 0.07149781
0002d0 61 d1 8b be 86 ec 8a be bf 53 17 3e c2 1b 94 bd
       -0.2730818 -0.27133578 0.1477804 -0.07231857
0002e0 be 9e 0b be e1 51 06 3e 6f 33 49 3c 20 c2 b3 3d
       -0.13634774 0.13117172 0.012280329 0.08777261
0002f0 73 ea e4 3d f1 6b 15 3e 4f 56 66 be 13 d6 df 3d
       0.1117753 0.14591958 -0.22493862 0.10929503
000300 3b 4b 84 3e 60 99 72 be d8 ff 2d bd 5d 47 db bd
       0.25838646 -0.2369132 -0.04248032 -0.10706971
000310 5b b0 ce bd 36 aa c6 be be 29 0d be b0 3a 96 39
       -0.10092231 -0.38801736 -0.13785455 0.00028653955
000320 b4 65 fb 3d 0c 28 91 3e 8c 7c b5 be d2 2c d4 bd
       0.12275258 0.28350866 -0.35446584 -0.10360111
000330 6e c3 80 3d b2 82 05 3e 0d 62 45 3d 78 fa e9 be
       0.06287275 0.13038138 0.04818921 -0.45698905
000340 48 be 48 3e 11 77 26 bb 6e f8 ab 3d 56 65 7f 3d
       0.19603837 -0.002540056 0.083969936 0.0623525
000350 03 83 0a be d0 ad 84 3e d0 e6 bb 3e 08 f5 13 be
       -0.1352654 0.25913858 0.36699533 -0.14448941
000360 a9 c6 27 be c3 7e ca 3d 24 00 26 be 22 1c a7 3e
       -0.16384377 0.09887459 -0.16210991 0.3263865
000370 7e dd 8b 3d 37 92 42 be df 9d 60 3e 7a b4 76 be
       0.06829356 -0.19001089 0.21935223 -0.24092284
000380 42 5f a7 3e ef c5 91 3d 38 2b ae b9 aa 1e 15 be
       0.32689863 0.07117831 -0.00033220067 -0.14562479
000390 d3 b3 92 3d a3 e6 64 3e c6 41 f9 be ad 24 81 be
       0.07163205 0.22353606 -0.48682994 -0.25223294
0003a0 9d d3 12 3c df c2 84 3d 90 a9 ba bc e5 44 37 3d
       0.008961585 0.06482481 -0.022785932 0.044743437
0003b0 92 bf b0 be 7a b1 76 3e 8e 67 ea 3c a3 90 bf be
       -0.34521157 0.2409114 0.028613832 -0.37415037
0003c0 37 06 ad 3e 0d 2c 39 be 59 54 90 be 68 90 ba be
       0.33793804 -0.1808321 -0.28189352 -0.36438298
0003d0 ec fa 0a 3e fb 99 1c 3e 14 b4 1e bd 78 af 94 3d
       0.13572282 0.15293114 -0.038745955 0.072600305
0003e0 42 cd 15 be 91 b3 ba 3d 19 5f 80 3c 35 3b ce bd
       -0.14629081 0.09116281 0.015670346 -0.100698866
0003f0 0f d5 5f bd 76 46 24 bc 69 95 ef bd 2a 50 c3 bd
       -0.054646548 -0.010026565 -0.116984196 -0.095367745

linear1.bias f4 [512]
000000 d7 99 90 be 16 1a 83 3e ec 47 d7 bd 69 42 5c be
       -0.2824237 0.2560584 -0.10511765 -0.21509708
000010 03 d0 1f 3e c6 4c 90 3e ae 38 82 be 04 b7 27 be
       0.15606694 0.28183573 -0.25433868 -0.16378409
000020 79 5a 16 be c0 7c b7 3e 7d 51 7d be 40 1e 31 be
       -0.1468295 0.35837364 -0.24738117 -0.17296696
000030 40 32 5e 3c b4 89 0e be cf 27 72 bd c6 82 20 3c
       0.013561785 -0.13919717 -0.059119996 0.009796804
000040 2c a5 47 3e b3 b6 37 be a5 43 f0 bd 51 14 ec 3b
       0.19496602 -0.17940788 -0.11731652 0.0072045703
000050 cf ad 5a 3e 77 6d ad 3d b1 b3 18 3e 74 14 13 3d
       0.21355365 0.084681444 0.14912297 0.035908177
000060 63 9d 88 3e 61 e9 b6 3e f9 81 7c 3e 1e 90 d5 bd
       0.26682577 0.3572493 0.24658956 -0.10427879
000070 29 72 f0 bd ea 6a 61 be 05 3e 86 3e 10 21 7e 3e
       -0.11740524 -0.2201344 0.26219192 0.248173
000080 02 bc 38 3e e0 6b 72 bc 6d ba 6c be e3 e3 9b be
       0.1804047 -0.014796227 -0.23117991 -0.304473
000090 f2 b0 9e 3b 16 b1 b0 3e 3b ac 84 3d 5c 79 e3 bd
       0.004842871 0.34510106 0.06478163 -0.11107132
0000a0 23 d5 c9 3d 65 07 81 bb 91 dc b1 bd 42 75 a3 3b
       0.09855106 -0.003937649 -0.08684648 0.0049883435
0000b0 c7 a9 8d 3d dc 2c 0e bd 1e e4 9b 3e 52 c3 96 3e
       0.06917148 -0.03471075 0.30447477 0.29445893
0000c0 9d 96 03 3e ad 88 77 3e 6f e6 b5 bc 60 a4 b1 be
       0.12850423 0.24173231 -0.022204606 -0.3469572
0000d0 15 f5 96 bc 40 66 34 3e 5a e7 35 3e 11 86 ca bd
       -0.018427411 0.1761713 0.17764035 -0.098888524
0000e0 f2 3c 11 be 17 86 64 bd aa 7f 22 be 88 e5 c3 3b
       -0.14183405 -0.05579194 -0.15869012 0.00597829
0000f0 3a 9f ac 3e e8 86 ec bd 4f 8e 4d 3e e8 10 f1 3d
       0.3371523 -0.11549169 0.20073818 0.11770803
000100 b0 c4 9d be e0 c3 d9 3d 91 83 1b bd ee ba 5d 3e
       -0.30814123 0.10633063 -0.03796727 0.2165334
000110 72 23 0d be 26 51 67 3d d0 26 99 be ac ee b2 3e
       -0.13783053 0.056473874 -0.29912424 0.34947717
000120 69 06 14 be 6d 40 76 3e 82 cd 61 3e 96 5f 72 bd
       -0.1445557 0.24048014 0.22051051 -0.05917319
000130 14 eb 03 3b d1 ed 66 3d e8 bf 4d 3e 2c 7b a9 be
       0.002012913 0.056379143 0.20092738 -0.33101785
000140 3c 1a 06 3e e9 f1 30 3e e8 36 3c 3e ba bb 61 3e
       0.13095945 0.17279781 0.1838032 0.22044268
000150 1d 6e 34 3e fe 64 67 3e 65 35 99 ba 3a ce 48 bd
       0.1762013 0.22597119 -0.0011688886 -0.049024798
000160 f7 5f ad 3e e0 01 f8 bd 8a 9e c7 bd 4e f8 24 3e
       0.33862278 -0.12109733 -0.09747036 0.16110346
000170 1a 71 62 bd a7 71 3e be 7a db 77 be 86 81 67 3e
       -0.055283643 -0.18598042 -0.24204817 0.22608003
000180 85 15 81 be 66 91 a0 be c4 d9 b2 be c1 3b 72 bd
       -0.2521173 -0.3136093 -0.34931767 -0.059139017
000190 df 29 46 3e f9 46 83 be 73 0e 90 bd 6c 10 00 bd
       0.1935191 -0.25640085 -0.07034006 -0.03126566
0001a0 b8 48 9c 3c fc b2 82 3e 9c 67 61 3d e4 d5 f2 3b
       0.019077644 0.2552718 0.05503045 0.0074107517
0001b0 aa 38 d0 bd f8 1c 94 3d 22 fa 87 3e 6b 2e 10 be
       -0.10167058 0.07232088 0.26558024 -0.14080207
0001c0 26 eb fa 3b e9 38 96 3e 68 7e 24 3e ed 35 c0 bd
       0.0076574264 0.29340294 0.16063845 -0.093852855
0001d0 cb 0d 6d 3d 54 56 cc 3d 36 ad 54 3d fd 2b 95 be
       0.057874482 0.09977403 0.051923 -0.29135123
0001e0 1d d7 a6 3d 83 a1 2b bd c8 b9 fc 3d 4b c1 33 be
       0.08146498 -0.041902076 0.123401225 -0.17554204
0001f0 2f 56 ae 3d 9d 42 8c 3e 62 02 14 bd a0 9b 10 be
       0.08512532 0.27394572 -0.036135085 -0.14121866
000200 11 7e 7c 3d 84 72 85 3e 8d 14 f9 bb 03 06 69 3e
       0.061643664 0.2606393 -0.007601327 0.227562
000210 71 89 7f 3e af 20 4f 3d f3 ef 06 be 4f ad fe 3d
       0.24954773 0.05056828 -0.13177471 0.124354
000220 1e c0 d8 3e 08 39 cb 3d 37 c1 ba 3d 86 f0 06 3e
       0.42334074 0.09922987 0.09118884 0.1317769
000230 5c 22 d9 bd 81 16 1c 3e cc c7 3a be be 52 98 3e
       -0.10602257 0.1524296 -0.18240279 0.29750627
000240 09 6a fb bd 64 46 05 bd 5d 81 b8 bd 19 70 80 be
       -0.12276084 -0.032537833 -0.09009049 -0.25085524
000250 8d 2f 83 3e 34 05 25 be e0 d2 0c be 5e a1 b1 3e
       0.25622216 -0.16115266 -0.13752317 0.34693426
000260 a1 e4 81 3e 5b 41 93 be f9 3e 96 be f1 78 1b bc
       0.25369743 -0.287608 -0.2934492 -0.009489284
000270 b4 3b 97 3d b4 3d c9 3c 43 9c 06 3d 2d 4f 35 bd
       0.07384434 0.024565555 0.032863867 -0.04426496
000280 39 3f df 3d ff af 07 3d 25 8a 17 3e b9 44 84 bd
       0.10900731 0.033126827 0.14798792 -0.0645842
000290 ae 01 98 3c 89 d8 11 3e f9 c0 e7 3d 48 12 2c 3e
       0.018555488 0.14242758 0.113161035 0.16803849
0002a0 4a 10 85 3e 03 d2 88 bb 97 cf ab 3c cd fb 31 be
       0.2598899 -0.004175426 0.02097301 -0.1738121
0002b0 1d 3e 49 3d b5 17 c8 bd d4 46 e2 bd 4f 62 09 3e
       0.0491315 -0.09770147 -0.11048666 0.13416408
0002c0 36 24 5e 3e 15 a2 94 3e cb 61 16 be dc be 58 3e
       0.21693501 0.2902991 -0.14685743 0.21166557
0002d0 5b 96 3a 3e 32 65 91 3e a6 63 38 3e 6b 18 92 3a
       0.18221419 0.28397518 0.18006763 0.0011146193
0002e0 2a c8 b9 3c 93 d9 83 bd 05 02 40 3e 79 88 bb 3d
       0.022678453 -0.06437983 0.1875077 0.091568895
0002f0 da c6 15 be f1 e1 4f 3e 1b fa dc 3d ca 0d e2 bd
       -0.14626637 0.20301034 0.10789891 -0.11037786
000300 09 ea 9a bd e4 aa 7b be be ca 25 be 05 58 71 3e
       -0.0756417 -0.24576908 -0.16190621 0.23568733
000310 38 d4 85 be 86 08 7c be 58 ad d3 bd 84 01 24 be
       -0.26138473 -0.24612626 -0.10335797 -0.16016203
000320 a8 4e 76 3d 1f 3b 86 3d 5d 00 bb 3d 56 01 92 3c
       0.060133606 0.06554245 0.09130929 0.017822903
000330 05 b1 1e be 35 53 2a 3d cf 6d bf bd 32 e5 05 be
       -0.15497215 0.04158326 -0.09347116 -0.13075712
000340 18 a6 b9 be c7 a8 9b bd 6f ce 81 3d 80 df 6b 3d
       -0.36259532 -0.07600551 0.06338202 0.057586193
000350 e5 a3 08 3e 73 98 7f be cb c2 db 3e 7f e1 df 3d
       0.13343771 -0.24960499 0.42922053 0.10931682
000360 3c d1 aa bd ad 0b 5d bd 23 16 94 3e f8 97 9d 3d
       -0.083406895 -0.053966213 0.2892314 0.07695001
000370 1f 68 a1 3d ee d7 01 be fe 02 51 3d 4c c4 7f be
       0.07881188 -0.12680027 0.051028244 -0.24977225
000380 8d ed db 3d 2d 6d 20 3e 45 f9 4f be 5c 0f 8b 3c
       0.107386686 0.15666647 -0.20309933 0.016975097
000390 61 eb 36 be 87 ec 4b be e6 2f 53 ba 9e 75 8e 3e
       -0.17863227 -0.19914447 -0.00080561487 0.2782411
0003a0 eb c9 1d 3e b7 f6 aa be 79 7a b9 bc 3f 85 93 3d
       0.15409057 -0.33391353 -0.022641407 0.07203149
0003b0 ac 8c 8c 3d d6 1e 26 3e 08 c5 98 bd 9b dc 2e 3e
       0.068627685 0.162227 -0.07459456 0.17076342
0003c0 59 29 66 bd 4d c0 e8 bc e1 e4 0b be ad a4 ac bd
       -0.056191776 -0.028412009 -0.13661529 -0.08429847
0003d0 50 c6 30 be 12 26 69 bd ab 78 7f 3d 24 cf 96 bd
       -0.1726315 -0.056921072 0.062370937 -0.07363728
0003e0 90 11 22 be e7 e6 d4 3d ff c0 17 be 7b d2 6a be
       -0.15827012 0.103956036 -0.14819716 -0.22931854
0003f0 d5 8c b7 3e 04 67 0e 3e bf f6 db 3d 3e 69 a0 bd
       0.35849634 0.13906485 0.107404225 -0.07832573

linear2.weight f4 [256, 512]
000000 19 16 0e bd 5e 22 f2 3d 08 2f 0a 3e de 2b a1 3d
       -0.034689043 0.11822961 0.13494503 0.07869695
000010 f6 1b 91 3d 3c ce 8f 3d 8a 5d a8 bc 64 3b c1 bd
       0.07085411 0.07021758 -0.020552415 -0.09435156
000020 e9 f1 f7 bd 79 73 06 be 48 85 5c bd 8d 27 25 be
       -0.121066876 -0.13129987 -0.053838044 -0.16128369
000030 fd de 40 bd 05 52 c6 3c 8e 5f 95 bd ab 02 9e bd
       -0.04708766 0.024209032 -0.07293616 -0.077153526
000040 d6 d8 48 be fd fa 2b be 00 c4 cd 3d 67 f2 32 be
       -0.19613966 -0.16794963 0.1004715 -0.17475282
000050 df 39 b3 3d b5 67 00 3d 1e 60 6f 3d d0 a1 95 3c
       0.087512724 0.031348903 0.058441274 0.018265635
000060 65 fd 83 bd d9 7b 95 3d 3f 48 74 3d 50 5c a9 3d
       -0.064448155 0.07299013 0.05963921 0.0826956
000070 26 ba d2 3d ef a3 8e bc 33 00 03 be 86 92 e0 3c
       0.10289411 -0.017412154 -0.12793045 0.027413618
000080 12 9f 12 3d d6 23 c8 3d 62 73 dd 3c 0c 44 d1 bd
       0.035796233 0.0977246 0.027032558 -0.10218057
000090 86 08 25 3d 5c dc b8 3d da c0 52 be 4e 7e 69 3e
       0.04029133 0.09026405 -0.2058138 0.22802088
0000a0 f0 3e 0b 3e 5c 80 fe bd 59 ae d9 bd 63 da 2f be
       0.13598228 -0.12426826 -0.10628957 -0.17173152
0000b0 b2 da 72 3d 7f ad 72 bd 57 c9 ae bd 2e ab 73 be
       0.059290595 -0.05924749 -0.08534496 -0.23795769
0000c0 ff 35 ec 3b aa 7e c9 3c 96 c9 67 be 29 db d0 bc
       0.0072085853 0.024596531 -0.22635493 -0.025495129
0000d0 2a be 2e 3c 6b 7b bb bd 76 80 21 bc 64 ad ef 3d
       0.010665456 -0.091543995 -0.009857288 0.117029935
0000e0 91 21 eb bd b2 24 ae bd 0a d4 02 3e 43 26 c5 bd
       -0.11481012 -0.08503093 0.12776199 -0.096264385
0000f0 b2 5e c2 bc 17 4f 24 3d fc 02 9f 3c e8 2f 81 bd
       -0.023726795 0.04011449 0.019410603 -0.063079655
000100 c1 36 3a bd ac 16 28 3e 6d 6b 5f 3e ec 99 bb 3d
       -0.045462374 0.16414899 0.21818323 0.09160218
000110 72 ca 45 be 88 4f e5 bd f3 1d 0b bd 8c 49 ae 3c
       -0.19315508 -0.1119681 -0.03396411 0.021275304
000120 cd 43 47 3e 82 9e 16 3e 64 2f 21 bd 2d 04 29 3d
       0.19459458 0.14708903 -0.039351836 0.041263748
000130 1b 54 1b be a0 05 f2 3c 04 bb af 3d c6 57 8f bd
       -0.15168802 0.029543698 0.08580592 -0.06999163
000140 98 29 9e bd 90 29 3c 3e 37 93 93 3c a7 3c 6a 3c
       -0.07722777 0.1837523 0.018014533 0.014296687
000150 90 77 ee 3d b6 87 24 3c 12 4c 34 3d 00 82 63 3d
       0.116438985 0.010042122 0.04401786 0.0555439
000160 ca c3 85 3d f8 fb 82 be 1a 7f 11 bd 53 34 32 3c
       0.065314844 -0.25582862 -0.035521604 0.010876733
000170 44 62 54 be ce 5c 2b bd c0 78 93 be fc 1c 3a 3e
       -0.2074061 -0.041836552 -0.28803062 0.18175119
000180 b6 fc 80 3d d6 e5 0e be e2 4e 25 bd 65 04 ae 3d
       0.06298201 -0.13954863 -0.04035843 0.08496932
000190 42 98 6c 3c 5c e2 84 3d 63 ef 8e bd 90 70 32 3e
       0.014440598 0.06488487 -0.06979253 0.17425752
0001a0 a3 a4 17 3d 63 c4 b0 bc 34 e0 4b bc 84 cb 04 be
       0.037022244 -0.02157802 -0.012443591 -0.1296826
0001b0 a0 52 16 bd 8a 4c 84 3c 49 8e 01 3e 3e 1e f9 bc
       -0.03669989 0.016149778 0.12651934 -0.030409928
0001c0 3c 2a be bd 3c 52 94 be 09 a0 1a 3c 4a 20 a4 bd
       -0.09285399 -0.2896899 0.009437569 -0.08013971
0001d0 9c e4 5b 3a 1b d8 29 3e ad 8d 57 bd a7 23 02 be
       0.00083882525 0.16586344 -0.052625347 -0.12708913
0001e0 9b 3d 9a 3d f3 28 3c be ca 95 4a bd 8d df 05 3e
       0.075312816 -0.18374996 -0.049459256 0.13073559
0001f0 24 a8 c1 bd 17 2a b7 bd d4 40 82 bd 80 11 96 bd
       -0.094558984 -0.08943575 -0.06360021 -0.073275566
000200 91 67 df bc da 25 18 3d f9 6e c5 bc fe fd 2f bd
       -0.027271064 0.037145473 -0.024100767 -0.042966835
000210 97 5a 3c be a9 20 07 3e 3b 1d a0 3d 69 1d 64 3d
       -0.18393932 0.13196053 0.07818075 0.05569211
000220 fd da c5 3d 54 b0 a0 3b b8 2e 83 bd 2d 10 32 3e
       0.09660909 0.0049038325 -0.06405395 0.17388983
000230 a7 53 05 be 50 f2 4b 3d e3 da ea bc 2d 19 69 bc
       -0.13020192 0.049791634 -0.028668826 -0.014227194
000240 e4 28 81 bd f6 34 44 be 48 05 0a 3d 78 92 d9 3d
       -0.063066274 -0.19160828 0.033696443 0.1062364
000250 ba 7e c7 3c 42 9d 68 be 59 80 72 be 31 9c de bd
       0.02435242 -0.22716239 -0.23681773 -0.10869635
000260 f5 8d c3 bd 4e 3f 62 bd 9e b8 9e bd f5 61 be bd
       -0.095485605 -0.055236153 -0.07750057 -0.092960276
000270 b1 96 32 3c 1e 12 b3 3c 87 86 00 bd cd 92 58 bd
       0.010900185 0.021859225 -0.031378295 -0.052874375
000280 af 4b ca 3c 91 37 39 be 62 e7 50 3c a5 78 12 be
       0.024694292 -0.18087603 0.012750478 -0.14303835
000290 0e c0 6d bc f9 d5 63 3d 08 94 21 3d fa 9e ff 3c
       -0.014511121 0.055623982 0.039447814 0.031203736
0002a0 8c 41 38 bd 23 ab ef 3d a4 f6 09 3e 0b 3d 10 be
       -0.044984385 0.117025636 0.13472992 -0.14085786
0002b0 e1 c0 8c bd 44 a5 90 3d 5d d7 fd 3d a2 09 11 be
       -0.06872726 0.07062772 0.12394593 -0.14163831
0002c0 3e 8d d2 3d 1f c7 cc bd 91 dc 93 be b4 62 d9 bd
       0.10280846 -0.09998917 -0.28879216 -0.10614529
0002d0 bb b6 fd bb af 4f 85 3d 72 72 74 3d 27 96 30 3e
       -0.0077427304 0.06509339 0.059679456 0.17244779
0002e0 eb b1 9e bd 46 08 1d 3d 17 3b f4 3c 4a c0 81 bd
       -0.07748779 0.03833797 0.029813332 -0.06335504
0002f0 e9 f8 72 3d 30 47 97 bd 08 21 e0 3d a9 92 55 be
       0.05931941 -0.07386625 0.109438 -0.20856728
000300 c0 82 00 3d ea ac de bc b5 79 ed bd eb 4e 56 be
       0.031374693 -0.027182061 -0.115954794 -0.20928542
000310 97 7e 70 bd aa e2 b8 bd b6 d7 01 3c ad 65 9c 3b
       -0.058714475 -0.09027608 0.007924965 0.004772863
000320 94 dc d9 3d 12 82 31 be f4 dd 1d 3d 02 53 20 3d
       0.10637775 -0.17334774 0.03854175 0.039141662
000330 c9 a4 e5 bd 05 7c 8e bd 21 76 59 3c 94 82 9e bc
       -0.11213071 -0.069572486 0.013272793 -0.019349374
000340 be 76 7a bc 44 66 58 3c 5d e2 b4 3d 89 a1 24 3c
       -0.015287099 0.013207976 0.08832238 0.010048279
000350 40 4d 8c bd 23 9e 9d 3d 00 50 3a be 22 12 8b bd
       -0.06850672 0.07696178 -0.1819458 -0.06790568
000360 8a ad 44 be 6c bd 05 be 35 55 90 bd 8a a3 45 bc
       -0.19206825 -0.1306054 -0.07047502 -0.0120629165
000370 b9 ef e4 bd c3 de 0d 3e 31 ce 12 3e 34 34 1d 3d
       -0.11178536 0.13854508 0.14336468 0.038379863
000380 28 08 42 be 03 48 cb 3d 04 d5 86 3e 3d eb cf 3c
       -0.18948424 0.099258445 0.26334393 0.025380725
000390 ad 5b 4c bd 18 05 12 bd 2b c8 9b 3d b6 50 85 3d
       -0.049892116 -0.03564939 0.076065384 0.06509535
0003a0 20 2c f3 3d 55 1e be 3d 3e 61 7b 3d 7a 69 ef 3b
       0.118736506 0.09283129 0.061372034 0.007306275
0003b0 0f 6f a8 3d 27 fa 5d be d9 2a 3d bd 16 41 62 be
       0.08224308 -0.21677457 -0.04618344 -0.22095141
0003c0 17 c8 3e be df 6c 90 bd db c6 be 3c 04 46 a6 be
       -0.18631016 -0.070520155 0.023288181 -0.32475293
0003d0 0b 46 20 bd f0 97 13 3e d8 2e 16 3e e1 91 bd 3d
       -0.0391293 0.14413428 0.14666307 0.0925634
0003e0 3f e4 1e 3d 07 16 a3 3d e8 86 88 bb 57 d0 94 bd
       0.03879189 0.07963186 -0.0041664727 -0.072663
0003f0 88 c9 8a bd 4d c1 00 bd db ac c5 3d ba 39 ab 3d
       -0.0677672 -0.031434346 0.0965211 0.0836062

linear2.bias f4 [256]
000000 4d 73 95 3b a4 eb 8c 3c 33 d4 74 3d 91 18 82 3e
       0.004560864 0.017202206 0.05977268 0.25409368
000010 58 bc 2d bd ef 9b ce 3d a7 8e 9b 39 49 93 bd 3c
       -0.042415947 0.10088336 0.00029670188 0.02314152
000020 82 b4 12 3d 4b 8f 26 bd 26 c0 42 3d 77 ab 81 3c
       0.035816677 -0.040664 0.04754653 0.015828831
000030 00 4e 92 3d 4c 23 ad 3c 14 29 f4 bc 35 d9 a2 3e
       0.071437836 0.021134995 -0.029804744 0.3180634
000040 f9 b1 89 bd 63 bd ac 3c d2 57 ad 3e c4 03 5a bc
       -0.06723399 0.0210864 0.33856064 -0.013306562
000050 3d 95 01 bd 2b bd c9 3c 77 e3 a9 3c dc 4b 05 bc
       -0.031636465 0.024626335 0.020738347 -0.008135762
000060 50 85 61 3a cc f3 20 3c f2 f2 14 bd a7 3f 6d bd
       0.0008602934 0.009823751 -0.036364503 -0.05792203
000070 c1 1d 1d bd 4b 0e f5 3d 64 34 25 bd 1a df b8 ba
       -0.038358454 0.11965617 -0.040333167 -0.0014104575
000080 d0 9c 06 3e cc d3 94 bc c7 d1 b5 3d 18 c0 9c ba
       0.13145757 -0.018167399 0.088779025 -0.0011959104
000090 e8 2e 8f 3d 6a 45 3a bd ef 57 44 3d 11 7e 07 3d
       0.069913685 -0.045476355 0.047935423 0.03307921
0000a0 61 fe a9 3a ff d3 13 3d 52 a1 ec bc 88 13 68 3d
       0.0012969488 0.036090847 -0.028885517 0.05665925
0000b0 ae 05 b0 3b 08 1a 41 39 fd 55 42 3e a0 ba 84 3b
       0.005371771 0.00018415612 0.18978114 0.0040505677
0000c0 c4 6f 35 3c ed 84 17 3c 24 74 ee 3e 1b 6e 26 bd
       0.01107401 0.009248001 0.46572983 -0.04063235
0000d0 dc fb b7 bd ea ad 3f 3d bf 18 ed 3a 34 84 a9 bc
       -0.08983585 0.046796717 0.001808904 -0.020692922
0000e0 14 32 ac bc 7a 71 b8 3c 20 1c a5 3d a2 b8 b5 bc
       -0.021019973 0.022515047 0.08062005 -0.022182766
0000f0 f9 4b d9 bc 19 a9 66 3e 91 94 13 3d ee 00 a0 3e
       -0.026525484 0.22525443 0.036030356 0.3125071
000100 04 fb 82 3d b8 69 82 3c 90 4d 4e 3d 0c e7 d9 bc
       0.06395534 0.015919551 0.050366938 -0.02659943
000110 9b f1 fb bc 7d c1 06 bd fd 03 7a 3d 8e 17 ee 3c
       -0.030754855 -0.03289937 0.06103896 0.029063966
000120 49 f2 8d 3c 64 e3 8f 3b 2a 65 85 3d de 46 44 bb
       0.017327445 0.0043911207 0.06513436 -0.0029949467
000130 1c 77 85 3e e7 4f ab 3d 02 57 a4 bc 2d ec 2c 3c
       0.26067436 0.083648495 -0.02006102 0.010554356
000140 c6 46 04 3d 73 18 21 3c 67 d4 9d 3e da c0 39 bc
       0.032294057 0.009832489 0.30826113 -0.011337483
000150 96 36 39 bd b6 f7 4e 3c 5b 4a 30 3e 16 3e 7f 3e
       -0.045218073 0.012632301 0.17215864 0.24926028
000160 a0 98 25 bd 66 d9 e0 3d f3 43 31 bd a1 ae 2c bc
       -0.040428758 0.109789655 -0.043277692 -0.010539682
000170 4f 11 c1 bb a4 64 38 3d 93 58 b3 3c c5 1b ef 3d
       -0.005891956 0.045017853 0.021892821 0.116752185
000180 42 55 1e 3d 0f 79 95 bb b5 98 cf 3a e4 3c 52 3c
       0.038655527 -0.0045615504 0.0015838357 0.0128319
000190 2f f9 8b 3e 4d 8c e3 3d 09 56 0e ba 3c 70 8b 37
       0.2733855 0.111107446 -0.00054296904 1.6622354e-05
0001a0 72 6b 11 bc 5b d6 67 bd 44 d4 37 3d 4c 3f cc 3c
       -0.008875715 -0.05660091 0.044880167 0.024932526
0001b0 96 08 cf 3e cf d1 25 3b b4 53 ee bc 54 ce ba 3e
       0.40436238 0.0025302058 -0.029092647 0.3648554
0001c0 4c 1f 3f 3d cc 38 12 bd 3d 5c 7c 3d 72 0e 84 3d
       0.046660706 -0.035698697 0.061611403 0.06448068
0001d0 e7 7d e1 3c 18 4f 42 3e cc 7a 2f 3d 14 d4 03 bd
       0.027525855 0.18975484 0.042841718 -0.032184675
0001e0 a4 80 84 3d 0d 3c 66 3d 34 f5 31 3c 12 e0 d1 3e
       0.06469849 0.056209613 0.010861684 0.40991265
0001f0 67 0c 2d 3b 9a c1 e5 3e 70 20 55 bd cf d1 3b bd
       0.0026405097 0.4487427 -0.052032888 -0.045854386
000200 c3 d9 96 bd 4a 40 d8 bc 97 97 47 bc 3d 26 95 3d
       -0.073657535 -0.026397843 -0.012182138 0.07282684
000210 e5 1c 48 bc f8 69 9d 3c a3 9e 62 bc 5e 43 f2 bc
       -0.01221392 0.019215569 -0.013831767 -0.029573139
000220 20 3d a2 3c e4 43 31 3d ad 4c 66 bc be c5 03 3b
       0.019804537 0.043277636 -0.014056367 0.0020106877
000230 79 97 93 3d 9c 03 49 ba 5b 9e 04 bc 91 21 18 3b
       0.072066255 -0.00076680793 -0.0080943955 0.0023213367
000240 18 7e 54 3c c2 f6 1a 3d 8f e4 d5 ba 5b 11 9b bb
       0.012969516 0.037832983 -0.0016318726 -0.0047322935
000250 d8 35 6a bd a0 9b 92 3c 79 f1 7d 3e e8 41 09 bd
       -0.057180256 0.017896473 0.24799146 -0.03351012
000260 f0 2a 37 3c 41 88 d3 bb b0 0a 7c bd 5d 7b 6c bd
       0.011179671 -0.0064554517 -0.06153363 -0.057734836
000270 cd 65 6e 3b 1e 5c a9 3c 27 50 62 3d f0 d3 e6 bc
       0.0036376596 0.020673808 0.05525222 -0.028177232
000280 93 6c 17 3d 40 6d 9c 3b f8 c5 8f 3b cd d0 4e 3b
       0.03696878 0.004773766 0.0043876134 0.003155756
000290 0d 22 02 3c 52 a3 88 3c 94 11 a2 3d b2 4d 6f 3c
       0.007942689 0.01667944 0.07913509 0.014605926
0002a0 8e 88 67 3e 9a 55 9f 3c d6 e1 af 3e f1 41 5e 3b
       0.22610685 0.019449998 0.34351987 0.0033913816
0002b0 86 48 13 3d e7 90 0f 3c d3 b0 5d 3d 80 3e 76 3e
       0.035957836 0.008762575 0.05412371 0.2404728
0002c0 f2 b3 dc 3c 4d 48 1b 3d c2 e6 95 3c ac 65 35 3e
       0.026941273 0.03791075 0.01829851 0.17714566
0002d0 b4 23 37 bd 91 cf a9 bc d9 05 44 bd 17 d0 89 3d
       -0.044711784 -0.020728858 -0.04785714 0.06729143
0002e0 61 d0 9d 3d 14 16 71 3c 79 6f 7a bd f0 aa 16 bd
       0.07705761 0.0147147365 -0.061141465 -0.036784112
0002f0 5e cf a1 3c 2f db 2d 3d 54 3e 49 3d 6b 76 77 3d
       0.0197522 0.042445358 0.049131706 0.060415667
000300 70 f9 04 bb d5 0f 3f bd 04 2d f5 3d 64 c6 20 3e
       -0.0020290278 -0.046645958 0.11971477 0.1570068
000310 b8 2f 92 39 50 2e 47 3c 7f 9a 9e bc bb 4c 1d bd
       0.00027882843 0.012157038 -0.019360779 -0.038403254
000320 d1 25 15 3b fa 95 3b 3d 6f f0 fb ba 53 5f 91 3c
       0.0022758136 0.045797326 -0.0019221435 0.01774565
000330 f3 90 97 bd ce 42 cc 3b a0 81 e4 b9 6a bc 1f 3c
       -0.07400694 0.0062335497 -0.00043584127 0.009749511
000340 c3 89 04 bd 8f af 0d bc 37 ae 90 3d e0 fb d9 3d
       -0.032357942 -0.008647813 0.07064479 0.106437445
000350 0c ad 6f bb 45 8e 76 bb 87 66 7a 3d 6d 33 90 3c
       -0.003657165 -0.003762142 0.061132934 0.017602647
000360 49 fc d0 bb 5b 9d 84 3d d8 75 3e 3d 74 3d 42 3d
       -0.006377731 0.06475326 0.046499103 0.047421888
000370 41 e4 f1 3c d8 7e 14 3d ee 28 ac 3d b7 70 73 3d
       0.029527785 0.03625378 0.08406244 0.059433665
000380 44 18 7c bb 03 bd 33 bc 4b f6 9c 3b 90 e3 d1 bc
       -0.0038466612 -0.010970357 0.0047901026 -0.025621206
000390 9b e9 de 3c e7 7c 59 3b da d7 0e 3b 0c 23 e3 3c
       0.027211001 0.003318602 0.0021796138 0.027726673
0003a0 ee b8 23 bd b8 fc 1e ba 0c 92 0c bd 95 f2 81 3b
       -0.039971285 -0.00060648797 -0.03431897 0.0039656856
0003b0 81 3c d8 3c ea 18 5b 3e b6 0a 4b bd f9 ee ea bc
       0.026396038 0.21396223 -0.04957076 -0.028678404
0003c0 99 bc 80 bd 1a d0 06 bd 32 21 01 bb df 7d b7 3c
       -0.06285972 -0.032913305 -0.0019703624 0.022398887
0003d0 4c cc 87 bc 2b f2 f5 3b 18 2b 4c bd 66 78 84 bd
       -0.016576909 0.0075056753 -0.049845785 -0.06468277
0003e0 f4 17 9d bd cf 19 79 3e 34 3d 0d 3d 7f 3d ab bd
       -0.07670584 0.24326251 0.034482196 -0.08361339
0003f0 d5 e0 9a 3e 34 b4 0e 3b a7 2c 13 3e e0 6c 54 bd
       0.30249658 0.002177489 0.14372502 -0.051861644

linear3.weight f4 [128, 256]
000000 04 03 09 3e 61 40 7c be ee cd b7 3c cf 76 91 bc
       0.13380057 -0.24633934 0.022437062 -0.017756848
000010 37 fe 05 3d 04 7e 3c be 40 eb 11 3c c7 0c 4c 3e
       0.03271314 -0.18407446 0.008906186 0.19926749
000020 07 75 7d bd f3 00 5f 3d 0b 76 01 bd 4b c9 db ba
       -0.061879184 0.054444265 -0.031606715 -0.0016768364
000030 e1 40 50 be 2a 9a d1 3b cc 07 5e 3d ac 1f bd 3d
       -0.2033725 0.0063965516 0.054206654 0.092345566
000040 f2 ea 33 bc 28 df f2 3d 2d ba 04 3d f1 e5 2d 3d
       -0.010981308 0.1185897 0.032404114 0.042455617
000050 7d b5 23 3d 68 49 02 3e b9 61 a1 3d b6 7a 17 bd
       0.039968003 0.12723315 0.07879967 -0.03698226
000060 8c 2e 1b 3d 93 93 fe 3d dd 39 28 bd 7f 0a 0d 3d
       0.037886187 0.12430491 -0.041070808 0.034433838
000070 ca 76 47 bd a1 3b 2e 3d 50 bf e5 bc 29 0d 30 3d
       -0.04869727 0.042537335 -0.028045326 0.0429813
000080 d2 3a ac 3c 80 85 bc bd b8 d6 24 3b ff c9 05 3e
       0.021024141 -0.092051506 0.0025152396 0.13065337
000090 dc 9b f9 3c f0 db ae bc 8b 5a 44 3c dd 1a 2c 3d
       0.030469827 -0.021345109 0.011984478 0.042017806
0000a0 10 67 1e 3d 19 7a 24 3e b0 f3 b1 bb 82 e1 d7 3d
       0.038672507 0.16062202 -0.005430661 0.10541059
0000b0 9f 2c 64 be 8e 53 86 bd 37 b8 bd bc 10 f1 1f 3d
       -0.22282647 -0.065589055 -0.02315913 0.039048254
0000c0 80 c1 95 3c a7 46 88 3c a9 32 a5 3d c8 4b ff 3d
       0.018280745 0.016635252 0.08066303 0.12465626
0000d0 45 2d b1 3c d7 a1 15 bd 62 38 e9 bd c2 f6 32 3d
       0.021628032 -0.036531296 -0.11387707 0.043692358
0000e0 c5 da 88 3d 3a 8c d0 3d eb 03 9b bc 82 36 fd bc
       0.06682352 0.10182996 -0.018922767 -0.03090978
0000f0 36 2d 41 3e 2f 0f 20 3d cf 7e 9b bd 39 71 64 bd
       0.18864903 0.03907698 -0.07592546 -0.05577204
000100 94 c4 7c 3c 7b e9 60 3d 92 65 8f bd 05 c8 07 3d
       0.015427727 0.054910164 -0.07001795 0.033149738
000110 db cf 1d 3d d0 cf 39 bc 09 fb ca bd 21 4a 47 bd
       0.038528305 -0.01134105 -0.099111624 -0.04865468
000120 36 3b 1a 3d 1c 33 26 3d c4 9f 48 3d 32 cc 09 3d
       0.037654124 0.040576085 0.04898049 0.033642
000130 c1 32 84 3c d1 a9 1a bd 90 85 1a bd c2 7c 79 bd
       0.016137483 -0.037759606 -0.03772503 -0.060909994
000140 51 15 d4 bb bf 95 6c 3d e8 c4 9b 3c e8 93 9d 3b
       -0.0064722677 0.057759997 0.01901479 0.0048088916
000150 79 5a 05 be ae 93 62 be 08 3f 4b 3d 96 b7 7a bb
       -0.13022794 -0.22126648 0.04962066 -0.0038256398
000160 ca 48 19 3e a0 2a 93 3d e4 6b 6c 3d 72 9b 98 3d
       0.14969173 0.071858644 0.05772008 0.07451524
000170 fa 72 6d 3d e5 2b 7f 3d 84 4d 11 bd 0c dc a7 bb
       0.05797098 0.06229772 -0.035474315 -0.005122667
000180 a0 10 2f 3d 12 78 3d 3e e5 c4 ec 3d 7e 45 3d bd
       0.042740464 0.18502834 0.11560992 -0.04620885
000190 09 5b 42 bd 28 48 00 3e 9f c8 d5 3c 27 af 91 3d
       -0.0474501 0.12527525 0.02609664 0.07113486
0001a0 e0 65 6b bc 6a 3e 83 bc b8 09 9a 3d b0 ff a1 3b
       -0.014367551 -0.016020972 0.07521385 0.0049438104
0001b0 29 7e 9a 3d f7 70 cd bd c5 7d 95 3c bf 27 11 bd
       0.075435944 -0.10031312 0.018248448 -0.035438295
0001c0 22 26 03 3d 74 5a ec 3c 87 fe f0 bd 40 9d f5 3c
       0.03201879 0.028851725 -0.11767297 0.02998221
0001d0 d7 23 8a 3d 7c d9 af 3d 3e f9 5c bd 28 a9 0f 3e
       0.06745117 0.08586404 -0.053948633 0.14029372
0001e0 01 20 ef 3a ab 35 fa bd 6f 10 74 bd 47 07 be bc
       0.0018243791 -0.122172676 -0.059585985 -0.02319683
0001f0 7d 4e 21 bd 6b 4b 87 3d df e8 c6 bd 10 57 37 3d
       -0.039381493 0.06606182 -0.097123854 0.044760764
000200 66 69 28 3c 03 97 ce bd 67 d9 ac 39 be a0 0b 3c
       0.010279035 -0.10087397 0.00032968374 0.008522211
000210 e7 de d7 bc fa d2 03 3c c0 92 47 be b5 06 85 3d
       -0.026351405 0.008045906 -0.19489574 0.0649542
000220 43 50 07 be 54 b8 2d 3e c0 b0 3a 3c d6 87 b8 ba
       -0.13214211 0.16964847 0.01139468 -0.0014078568
000230 6f dd 4e bc c0 f2 2f 3b fb 1b b9 bc f4 ee cf 3d
       -0.012626036 0.002684757 -0.02259635 0.101529986
000240 be 3d 0a 3c 45 1c 9d 3d 90 91 c2 3b 48 bf 78 3d
       0.008437572 0.076714076 0.0059377626 0.060729295
000250 d8 54 66 3c 07 89 d1 3c cf a4 94 3d 35 7e 05 be
       0.014058314 0.025578035 0.07257997 -0.13036425
000260 ec 4f 00 3c 85 32 85 bc fa 9a c5 bc 8f 58 14 bd
       0.007831555 -0.016259441 -0.02412175 -0.03621727
000270 4c 2d 3e bd b5 06 46 3d 7c d5 5d 3d 7e 7b 59 bc
       -0.046429917 0.04834624 0.054158673 -0.013274072
000280 60 bf 53 bc 0a d8 49 3d 62 e3 0a bd bf 5f d2 3d
       -0.012924045 0.049278297 -0.033908255 0.10272168
000290 dc f7 40 be 7d b6 d7 3c ac a3 30 bd a6 fe f6 3b
       -0.18844551 0.026332134 -0.04312484 0.0075376807
0002a0 90 ec 31 3a d6 97 26 3d c9 84 7e 3d 99 f8 a9 bc
       0.0006787265 0.040672146 0.062138353 -0.020748423
0002b0 99 6e 42 3d e1 dc de 3d 2a 84 a2 3d 4a 71 66 bd
       0.047468755 0.10881973 0.079353645 -0.056260385
0002c0 58 98 6c 3d 83 24 eb 3d 12 fe 38 be e5 e6 9f 3b
       0.057762474 0.114815734 -0.1806567 0.0048798197
0002d0 6a a4 6f bd 52 01 70 3d 37 13 d3 bc 9d d3 01 bd
       -0.058506407 0.05859501 -0.025765998 -0.03169595
0002e0 d8 9b 13 bd 04 e6 04 3c 51 3d f8 bc eb 04 33 3d
       -0.036037296 0.008111481 -0.030302675 0.043705862
0002f0 21 10 bd bd f4 16 3a bd 04 e8 2a be 38 b7 77 be
       -0.09231592 -0.045432046 -0.1669007 -0.24190986
000300 a7 94 b4 3b 9d 52 46 bd b9 5d 9f 3d d7 01 45 bd
       0.005510885 -0.04841863 0.07781548 -0.048097458
000310 b1 dc 4d 3c bd 76 40 be 44 df 79 3d df aa df 3c
       0.012564824 -0.18795295 0.06100394 0.027303157
000320 8e 88 18 3e c5 63 71 3d 8d 37 70 3e c8 10 48 be
       0.14895841 0.05893304 0.23458691 -0.19537652
000330 28 91 80 bc 21 89 c8 3c 85 9a 18 3d 5d 69 b4 bc
       -0.015694216 0.02447945 0.037256736 -0.022022897
000340 fb 9c 54 bd 23 fb 2e bd d6 77 0f 3e 62 3b 80 bc
       -0.05190752 -0.04271997 0.14010558 -0.015653316
000350 38 c1 68 3d 5f d5 45 bc c9 64 b9 3d 1d 82 62 bc
       0.056824893 -0.012074797 0.09052426 -0.013824967
000360 29 86 11 3d 33 51 07 be 4e 7f 49 be 0c d5 1c be
       0.035528336 -0.13214569 -0.19677469 -0.15315646
000370 d7 ad 93 3d b5 9e d3 bd e5 d5 3d bc d9 61 67 bd
       0.07210892 -0.10333005 -0.011586641 -0.0564898
000380 af 98 52 bd 39 d3 24 be be 62 28 3d 08 c4 ea bc
       -0.05141514 -0.160962 0.041109793 -0.028657928
000390 b1 84 8b 3d a9 7f cd bc 24 45 87 bd 2c 19 28 3d
       0.06812418 -0.025085287 -0.066049844 0.04103963
0003a0 5c 37 16 bd d9 2e 69 3d 89 f7 82 3d 40 d5 c7 3d
       -0.03667389 0.056929443 0.0639487 0.09757471
0003b0 72 32 00 bd a7 c2 a3 bd 8b e3 44 bc dc 54 09 3d
       -0.03129811 -0.07996111 -0.012017141 0.033528194
0003c0 26 4e ca 3c 85 c8 09 3d cc 67 62 3d 9b 85 2c 3d
       0.024695467 0.033638496 0.05527477 0.042119604
0003d0 14 75 c5 ba 50 c1 8f 3c e6 fa cf bd 0b 8d d4 3d
       -0.0015064799 0.017548233 -0.10155277 0.10378464
0003e0 61 ba 5a 3d c8 b2 a5 bd e0 6d f8 3c 87 7c 21 3d
       0.0534004 -0.080907404 0.03032583 0.0394254
0003f0 4e 50 8e 3b 80 0f c5 bc 36 42 9d 3c d3 55 05 bc
       0.004343069 -0.024055243 0.01919661 -0.008138138

linear3.bias f4 [128]
000000 bd 53 3c 3d e6 aa 4a 3e c8 af 87 bd 8d 69 5c 3d
       0.045978297 0.19791755 -0.066253245 0.0538116
000010 28 9c 89 bd 18 1b 0e 3e ef a2 74 bd 2f da c9 3d
       -0.067192376 0.13877523 -0.059725698 0.09856068
000020 d3 99 3d bd 8b 83 13 3d ec 70 11 3e e7 77 ff 3c
       -0.046289276 0.03601412 0.14203233 0.031185104
000030 46 56 25 bb 04 78 4e 3e b5 b7 9c 3c c3 1e 87 bc
       -0.0025228425 0.2016297 0.019130567 -0.01649416
000040 63 eb bf 3e 5a 87 77 3c a2 b4 e6 3d 37 3a 2a bd
       0.37484273 0.015107954 0.11264922 -0.041559424
000050 f3 65 5e bb 92 7e 35 3e 2d b8 9b bc 75 d6 88 3c
       -0.0033935278 0.17724064 -0.01900872 0.016703824
000060 a0 f5 87 3d e2 99 a4 bd 2a 01 32 bd 5b 9f c0 3d
       0.06638646 -0.08037163 -0.04345814 0.09405395
000070 d9 ae 21 3f 8a e9 5b bc 22 e6 65 3e 41 9f 94 3d
       0.6315742 -0.013422379 0.2245107 0.07256938
000080 62 28 1e 3e 74 33 a6 3d fe ed c8 3d 41 bc 6b bd
       0.15445092 0.08115283 0.098110184 -0.05755258
000090 3b 14 85 3e b3 45 46 3e 1a 9f 82 3c 18 02 a3 bd
       0.25991997 0.19362526 0.015945006 -0.07959384
0000a0 e5 ec b7 3d b1 96 02 3e 1e 8b a6 3d cc 0c a1 3a
       0.08980731 0.12752797 0.08132003 0.0012287139
0000b0 5d bc 4b bd 07 f9 dc 3c 34 64 ac 3e 42 85 df 3e
       -0.049740184 0.026974214 0.336702 0.43656355
0000c0 c1 20 44 bc 8b 35 04 bd 44 7f 36 3d 1f ea 8e 3d
       -0.0119707 -0.032277625 0.044554964 0.06978249
0000d0 b8 fd 1f 3a 52 71 0b bc 5a 39 1c 3e f9 5b 9b bd
       0.00061031757 -0.008510904 0.15256253 -0.07585902
0000e0 c5 f8 0d 3d 00 3f 4d 3d 32 4e f5 bd 08 36 ed 3c
       0.034661073 0.05010891 -0.11977805 0.028956428
0000f0 c9 83 0b bd ad 4a cf 3c a6 a1 1a 3d 05 49 b4 3d
       -0.034061227 0.025304163 0.037751816 0.0880299
000100 30 44 16 bd 34 12 13 3e ee ba 09 3e 1a a0 a1 bd
       -0.036686122 0.14362413 0.13450214 -0.07891865
000110 57 70 1b 3c 72 de a2 3e 59 86 39 bd f4 34 f9 3d
       0.009487233 0.31810337 -0.04529414 0.12168303
000120 32 08 74 3e d4 20 f6 3d 41 7e 41 3d a3 23 3a 3e
       0.23831251 0.1201798 0.047239546 0.18177657
000130 b2 07 5c 3d b4 09 e1 bc 26 fd 82 3d 16 da 0d 3e
       0.053718276 -0.027470447 0.063959405 0.13852724
000140 9f ab 7c bb 3a 8a 09 3e 83 56 6a 3e 5f 90 15 3d
       -0.0038554443 0.13431635 0.22884564 0.036514636
000150 76 89 84 3d 35 9a f6 3c 2b 54 25 3e aa 24 d6 3d
       0.06471531 0.030102829 0.16145389 0.10456212
000160 9f d1 89 bc 5b 07 05 3e bf 71 72 3d 55 cc c5 3c
       -0.016823588 0.12991087 0.059190508 0.024145285
000170 09 18 9f bc 73 b6 c7 3e 61 74 5d 3c f7 46 b4 3c
       -0.01942064 0.39006385 0.013516516 0.022006495
000180 f7 17 d2 bc e7 6e 65 3e d2 ea bf bb fe f7 64 3d
       -0.025646193 0.22405587 -0.00585685 0.055900566
000190 b2 58 01 3d 5f 09 0b 3d ee 64 58 3e b0 dc 07 3d
       0.031578727 0.033944484 0.21132252 0.03316945
0001a0 ef 47 1d 3e 79 bf f8 3d 42 0b 6c 3e 78 66 58 3c
       0.15359472 0.121458955 0.2305117 0.013208024
0001b0 c5 c0 68 bd 76 f1 67 3d 53 1a 01 bd 2c e3 e4 bc
       -0.056824464 0.05662676 -0.031519245 -0.027940355
0001c0 e2 f9 79 3d 17 8d 07 3e 81 ec 64 3d 61 45 b0 3d
       0.061029322 0.13237415 0.05588961 0.08606983
0001d0 fb 17 8e bb 7b 27 88 3e 19 86 bd 3d 46 a8 29 3e
       -0.004336355 0.2659262 0.09254093 0.16568097
0001e0 20 24 bf 3d 0f e5 c6 bd 23 0d 14 3e 6d cf 2d bc
       0.09333062 -0.09711658 0.14458136 -0.010608536
0001f0 6c 39 a6 3d 62 8d 20 bd ec a5 e5 3d 48 51 6a 3e
       0.08116421 -0.039197333 0.11213288 0.22882569

linear4.weight f4 [3, 128]
000000 e9 fb f1 bd 4a 45 51 3d 86 13 38 3b 9e a2 71 bd
       -0.11815626 0.05109147 0.0028087809 -0.058992974
000010 71 ca d1 bb 59 bd d2 3d 71 55 64 bc 2e c6 a0 3c
       -0.0064023067 0.102900214 -0.013936386 0.01962575
000020 aa 5a 35 bd 42 b0 d4 3c 73 84 22 3c 39 c7 b0 3d
       -0.044275917 0.025962953 0.009919274 0.08631749
000030 91 0c d2 3b 60 90 ba 3d 65 90 69 3d 23 e0 80 bd
       0.0064101894 0.091095686 0.05702247 -0.06292751
000040 a3 50 d7 3d 56 92 42 bd 13 af 59 3e f4 b3 2f bd
       0.10513427 -0.047502838 0.21258192 -0.042896226
000050 3a ad 86 bd 08 18 19 3d aa f6 fb 3c cf 3b 4a 3c
       -0.06576009 0.037376434 0.030757267 0.012343361
000060 14 0a ff 3d c3 ce 39 bd d1 d4 9e bc 60 2b 15 3d
       0.12453094 -0.0453632 -0.019388588 0.03641832
000070 a4 2e 6f 3e 5b 39 1b 3d 59 2e 1b 3d 92 29 4f 3c
       0.23357636 0.037896495 0.037885997 0.0126441885
000080 aa 39 ea 3d 96 8b bc 3c 8b 3d 9f 3c 4c 0f 1c bd
       0.1143678 0.023015779 0.019438526 -0.038100526
000090 de ef 86 3e 3f 7f 7c 3d 07 c1 77 3c 97 8d 88 3d
       0.2635488 0.06164479 0.015121705 0.06667631
0000a0 66 6d 55 3d 23 17 9e 3c 9b 10 97 3c 32 80 e5 bd
       0.052106284 0.019298142 0.018440535 -0.11206092
0000b0 01 7f 75 bc 84 cc a2 bd b9 2a 88 3e 64 b7 e6 3d
       -0.014983893 -0.079491645 0.26595095 0.11265448
0000c0 e9 b2 86 3c 37 37 a2 bc f4 46 c0 3b a5 97 14 bd
       0.016442733 -0.01980172 0.0058678333 -0.036277432
0000d0 dc 0d 64 bd f8 91 50 bb 44 d5 fc 3c 86 8d c5 bc
       -0.05567728 -0.0031825285 0.030863412 -0.024115335
0000e0 f0 ba 77 bd b8 02 e1 ba 17 ba e2 bd de 17 2b 3d
       -0.060481012 -0.0017166948 -0.1107065 0.04177081
0000f0 cb de 9f 3d 45 61 fe 3b c4 be a3 3d b0 51 9c bd
       0.07806166 0.0077630603 0.0799537 -0.07632768
000100 d5 17 16 3d c6 3f db 3d f6 5b b8 3d 2e 78 8a 3b
       0.03664382 0.10705523 0.09001915 0.0042257523
000110 54 f4 83 3d 39 ff 88 3d 91 65 af 3b 93 c0 e4 3c
       0.06443086 0.06689305 0.005352684 0.027923858
000120 43 27 3b 3e 75 b6 82 bd ce 38 82 bd fa ef c9 3d
       0.18276696 -0.06382457 -0.06358491 0.09860225
000130 af bc d5 3c 24 5e e2 bd 08 3a 09 3c 3f 1e 4e 3e
       0.026090948 -0.11053112 0.008375652 0.20128725
000140 d8 0f a1 bd 57 c3 28 3d 68 ff 92 3e b8 da a9 bc
       -0.0786435 0.041201916 0.28710485 -0.020734176
000150 57 55 90 bd f8 f1 da bb 3e 9b 23 3d c0 7d 9b 3c
       -0.07047527 -0.006681677 0.039942972 0.01898086
000160 31 21 14 be c4 83 05 3d 21 d5 8b 3c 90 7b 51 bd
       -0.14465787 0.032596365 0.017069401 -0.05114323
000170 1f 82 9f 3d 95 39 2f 3e 06 b1 22 bd 12 ad 42 bd
       0.077884905 0.1711181 -0.039719604 -0.047528334
000180 6a be 82 3d 1a a6 16 3e df 68 fb bc 12 e4 41 3d
       0.06383975 0.147118 -0.030689655 0.047336645
000190 66 d1 01 3d 74 6c 28 bd d7 84 7d 3d d4 55 ba 3c
       0.03169384 -0.041119054 0.061894264 0.022746004
0001a0 e7 35 14 3e 0e f7 f5 3d 96 6b 3f 3d a0 8a 28 3c
       0.14473687 0.120100126 0.04673346 0.010286957
0001b0 e8 da 77 bc 43 33 d9 3b 5b 08 71 3d ba b9 6c 3d
       -0.015127875 0.0066284253 0.05884586 0.05779431
0001c0 1b 19 d7 bc f2 82 fd 3d a5 7c 07 3e 32 07 ec 3c
       -0.026257088 0.123784915 0.13231142 0.028812025
0001d0 2d 2f 10 bd 1f d2 31 3e 9e 6d 19 3d ec 94 25 3d
       -0.03520124 0.17365311 0.037458055 0.040425226
0001e0 b7 99 ed 3d 39 a1 d1 bc 82 d8 6f 3d 98 59 bd bd
       0.116015844 -0.025589572 0.058556087 -0.09245604
0001f0 0b da ad b8 78 f2 89 3c a4 20 3f 3a ff 82 19 3e
       -8.2898965e-05 0.01683925 0.00072909356 0.14991377
000200 5d 71 ba 3d d3 45 eb 3d 3c 54 a3 3d 1e 28 b3 3d
       0.091036536 0.11487927 0.07975051 0.08747886
000210 0d a0 62 bd d4 4b 0e 3e 08 71 3d bd 3f 30 48 3c
       -0.055328418 0.13896114 -0.046250373 0.012218534
000220 e6 94 7e 3d 47 2e 55 be 93 34 67 3e 4d dc dd ba
       0.06215372 -0.20818435 0.22578649 -0.0016926617
000230 1a 00 fe 3c 2d cd 2a 3e 43 15 43 bc 62 be c0 3a
       0.031005908 0.16679831 -0.011906925 0.0014705176
000240 e5 de a8 3d 00 40 0e 3d 24 a1 92 3c 9a b2 a6 bb
       0.08245639 0.034729004 0.017899103 -0.005087209
000250 30 c2 a2 bd 6f d7 16 3d 12 21 b4 bc e4 de 35 bd
       -0.079471946 0.036826547 -0.021988425 -0.04440202
000260 f4 1c cc bc 85 f8 85 bd 8c 88 a5 3a 43 b3 db 3d
       -0.02491615 -0.06541542 0.0012629195 0.10727551
000270 e8 37 4d 3e fa 5a a7 3c 9f 26 66 3d 46 bf e3 3b
       0.20040858 0.020429123 0.056189176 0.006950292
000280 16 ab f4 bd 01 a3 5d be e8 8e 6b bc e1 3c 98 3c
       -0.119466946 -0.21644212 -0.014377333 0.018583717
000290 09 4c 1f 3e de 07 7f 3d ad 3d a7 3d d7 95 b3 3c
       0.15556349 0.062263362 0.081660606 0.021922035
0002a0 9d 93 ea bc 65 38 42 3d 1f 92 f3 3c 7f e4 97 3d
       -0.02863484 0.047417063 0.029732762 0.07416629
0002b0 80 88 14 bd ff 82 c1 3d bc 88 be 3d a7 a9 04 3e
       -0.03626299 0.09448814 0.09303424 0.12955342
0002c0 dd f9 ce bd 49 60 93 bd 5e 67 22 bd 77 98 05 3c
       -0.101062514 -0.07196099 -0.03964936 0.008154026
0002d0 f3 62 8e 3d b7 09 8b bd eb 03 30 3e c9 30 4c 3d
       0.06952467 -0.06788962 0.17188995 0.049851213
0002e0 d7 4d c5 3c 13 a6 25 3d 14 28 e6 bd 57 46 68 3d
       0.024084968 0.040441584 -0.11238113 0.056707706
0002f0 ce cb 48 3b 95 a5 05 bd 9c 13 18 3d c8 6c 56 bb
       0.0030639055 -0.032628614 0.037128076 -0.0032718647
000300 36 a1 1f 3d 86 b5 3e be 3f d1 8e 3c bd c0 99 3d
       0.038972102 -0.18623933 0.01743376 0.07507465
000310 0e 44 3c bd ca 95 c3 3d 08 36 00 3d b2 a2 56 3e
       -0.04596334 0.09550054 0.03130153 0.20960501
000320 6e 67 ad 3d 84 84 03 3e 7d f7 a6 3d 81 27 11 3d
       0.08466993 0.1284352 0.081526734 0.035438064
000330 e8 31 22 3c 35 15 3c 3d 4f bc 15 3b 8a 4a 45 3d
       0.009899594 0.045918662 0.0022847836 0.04816679
000340 3a 43 03 3e 0b 9c 32 3e 28 4e f2 3c 25 d7 99 bc
       0.12818614 0.17442338 0.029578283 -0.018779347
000350 ee c7 a9 3d 10 94 f5 bc fe 4f 0e 3d ae 58 b8 3d
       0.08290087 -0.029977828 0.034744255 0.09001289
000360 bd 84 9f 3d 17 56 0c 3d 3b c7 01 bd 8f d7 d8 bc
       0.0778899 0.03426179 -0.03168414 -0.026469974
000370 be 76 a7 bd 2f 5c 5d 3e 88 2b a7 3c e1 ac b2 3d
       -0.08176945 0.21617197 0.0204065 0.0872438
000380 ce 18 2d 3d 4a 04 2c 3e aa 4b 99 3b 64 3f c3 bc
       0.042259984 0.16798511 0.0046782093 -0.023833938
000390 70 1f 52 3e 46 1d 9f 3d d9 ac 80 3e f4 ec 8e bb
       0.20519805 0.07769255 0.25131872 -0.004361743
0003a0 a5 2f c8 3c 04 59 81 bd 44 3b c2 3d 0e ae 41 3d
       0.024436781 -0.063158065 0.0948396 0.047285132
0003b0 9d 53 c9 bd 64 17 90 bb 51 b9 d2 3b fe ec 6c 3d
       -0.09830401 -0.0043973196 0.006430783 0.0578432
0003c0 3f a4 15 3a f4 8f 3d be 85 78 2d 3d 72 95 2c 3d
       0.00057083735 -0.18511945 0.042351265 0.04213471
0003d0 68 56 31 bc 4e 65 ad 3c ef c6 42 3c 30 8f d1 3d
       -0.0108238235 0.02116647 0.01188825 0.10232389
0003e0 81 22 f3 bd 9b 57 5d 3d 11 15 35 be ae c6 38 bc
       -0.118718155 0.054038625 -0.17683817 -0.011277838
0003f0 29 2f 01 3d 7e 21 f2 3b e7 b3 60 3d 30 50 21 3e
       0.031539116 0.0073892465 0.05485907 0.15753245

linear4.bias f4 [3]
000000 14 1d 34 3e a9 aa ec 3d 5f ac 72 3e
       0.17589217 0.11555988 0.23698567
