model/model.pth (torch, 687784 bytes, 8 tensors)

linear1.weight f4 [512, 12]
00000000: ed9e a33e 8913 86be 778d 96be 479d 013d
00000010: bdf2 12be 8393 393d 6c18 263e 8a93 f83d
00000020: 903f 333e a64c 05bf cc31 b2bb 5886 cd3e
00000030: 4e2c 923e 0637 d1be cc82 2dbe 902e 4d3e
00000040: 7534 803d 302b 1a3d 00a4 4ebe b855 6e3d
00000050: 0dc9 05be 53b1 9ebd f089 71bd 25c3 3cbe
00000060: 3396 e4bd 4ceb 93be f16b 8cbe f795 293e
00000070: d6b5 80bd 73f1 e33d 9dce 5d3e 3175 40be
00000080: e1aa ba3e a864 a5bd 8b55 fe3c b696 c6be
00000090: af61 393e 00a2 bdbe 318e aebc 4b88 afbe
000000a0: 82bd 6abe bc4e eb3d e8c6 00be df6d 333e
000000b0: b98b 92be 2d4a 39be 7b41 69be 7e04 983d
000000c0: e93c 38be 0cec f3bd 2640 1fbe 9903 6a3e
000000d0: 5fe6 c2bd d8a5 4c3e 304d cebc e514 743d
000000e0: c270 42be 2f7b e13d 7e1c 9b3c bb09 293e
000000f0: fa0b babd 976c 253e 4483 d7be f281 6f3d
00000100: 6fd1 b7bc b401 19be c2a6 343d f2d9 d73d
00000110: 4140 3ebd c96f 61be 9989 83be 661d febd
00000120: ecb8 b1be 4401 0d3d a9e0 423d 1f3d 253e
00000130: 4b4b e13d 75da 5f3d 68bc 3d3d 369d da3d
00000140: 10a9 493e 896d bfbe 6c5d a0be 7cd6 773e
00000150: 932d 5dbe 9cdb 76be 2128 6ebc a6fa 29be
00000160: 5f2d 3f3e e2eb a2bb 9211 ce3d 7990 80be
00000170: 0388 8b3d 1db0 7cbc 4a80 8a3e 3e53 2bbe
00000180: 1284 28be c7ee f1be c0ba 7cbc 4581 6bbd
00000190: 4527 edbd 5eff 823e ee85 63be 71b7 6e3e
000001a0: 6611 3fbe 0314 913d f53a 63bd 66b9 2d3e
000001b0: 983e b73d 81a2 ae3e 126f a63e e6a6 5cbe
000001c0: 00a0 183d 7560 103c 0bc5 83bd 061c d9ba
000001d0: faf3 233e eb1a 963e 4b0d 1b3e 8461 e7bc
000001e0: 7be9 a3be 4d6b f0be 726b 57be d957 3f3e
000001f0: 8ccd 193e 0eac 743d ec35 6fbd a1ea 8e3d
00000200: 373e 583e 7458 56be 595e 79bd df29 a53e
00000210: f5ee 1abc c173 46be 00d9 2c3e 388f 8d3e
00000220: 9bb9 4dbc 272c 8ebd 2b06 60be ed82 82bd
00000230: 53f8 6b3e 85c8 1d3e 51ca 6bbe 6507 a7be
00000240: 71ae 03be 8870 91be f474 47be 6539 763e
00000250: 1781 80be ac63 6bbe 0e3d 95be 9171 cebd
00000260: 1ae0 89be e4d7 5e3e a503 63be 6343 0bbd
00000270: 9106 1abe 8633 ccbe b9e1 97be 1f12 04be
00000280: e3c4 f33d a796 2f3d 526c 263c 6bc3 02be
00000290: 764c 10be bc10 83bd b35c af3d 3769 37be
000002a0: 1fb2 2e3e e57e e6be 67c4 2cbe 4a79 203e
000002b0: 491e 5a3e 7733 0abe 57d0 b5bd 2c83 8dbe
000002c0: cf17 8e3d 2fc2 1cbe f431 583e eb4f b83d
000002d0: 079c 033d 5ed6 b33e 5145 9cbe 45aa 0abf
000002e0: f73e 403d ae5f 163d 7060 723e 6637 d2bd
000002f0: cb04 d83e cec8 953e 65d5 c5be 4cba cabe
00000300: 0254 ebbe 068b bbbe 53b5 11bd f76c 153e
00000310: 0af4 e33d 8105 06be 7eb6 3abb 457c 623d
00000320: 77eb b4be bf7b 8b3d 566a 4abe cc92 9cbe
00000330: 560d bbbe 5251 f0bd 0b88 723e 5a52 7c3e
00000340: b825 1b3e 1403 33be e257 6abd b09e 93bd
00000350: e8c3 d5bd 9545 753e c94d 98be 8f9f bfbd
00000360: ccb1 09bd 4956 d0be fd59 983e 47e6 f03d
00000370: 452e d5bc 2252 23bb 46ec 683d f222 debd
00000380: 742f f2bd 3a9c 833d 9bb7 8c3d 11fc 17be
00000390: 50ad 3e3e 707b cd3d e111 0abe 95fa f5bd
000003a0: b720 f8bd 1039 783e 148a aabd df4d b0bd
000003b0: 364a a3be 28d0 9a3e 92cb 753e b42c 66be
000003c0: 49f6 00bf 1eb7 e1be c6bc a33d dfca 51be
000003d0: 8449 d93d 2b0c 263e 9690 2fbd 1bb2 d33d
000003e0: 8b2d 093d 7ed3 783e 7f2e 9e3e 99c2 a0be
000003f0: 5e8a 9fb9 19b3 a6bd 849f 20bd 046b 833e
0.31957188 -0.2618678 -0.29404804 0.031644132 -0.1435041 0.045306694 0.16220254 0.12137516
0.17504716 -0.5207008 -0.005438065 0.4014156 0.28549427 -0.40862292 -0.16944426 0.20037293
0.062600054 0.037638843 -0.20179749 0.058187217 -0.13064976 -0.07748666 -0.058969438 -0.18433817
-0.11161461 -0.28890455 -0.27426103 0.16561113 -0.062846825 0.11130037 0.21660848 -0.18794705
0.36458495 -0.08075839 0.03104665 -0.38786858 0.1810367 -0.3703766 -0.021308037 -0.3428367
-0.22923854 0.11489627 -0.12575877 0.17522381 -0.28622225 -0.18094702 -0.22778885 0.07422732
-0.17991985 -0.11910257 -0.15551814 0.22852935 -0.09516596 0.1998514 -0.02518329 0.05959024
-0.18988326 0.110098235 0.018934485 0.16507618 -0.090843156 0.16154705 -0.42092335 0.058473535
-0.022438733 -0.14942056 0.044104345 0.10539617 -0.046447996 -0.22015299 -0.25690916 -0.12407951
-0.34711397 0.034425035 0.047577534 0.16136597 0.11000689 0.054651696 0.046322256 0.10674517
0.19693398 -0.37388256 -0.31321275 0.24202913 -0.21599416 -0.24107212 -0.014535935 -0.16599521
0.18669651 -0.004971967 0.10061945 -0.25110224 0.068130516 -0.015422848 0.27051002 -0.16730973
-0.16456631 -0.47252485 -0.015425384 -0.057496328 -0.11579756 0.25585455 -0.22219059 0.23312165
-0.1865898 0.07083895 -0.055476148 0.16965255 0.08947486 0.34108356 0.32506615 -0.21548042
0.037261963 0.00881206 -0.06434067 -0.0016564138 0.16011038 0.29317412 0.1514179 -0.028244741
-0.3201407 -0.46956864 -0.21037081 0.18685855 0.15019816 0.059734397 -0.058401033 0.06978346
0.21117483 -0.2093218 -0.060880993 0.32258508 -0.009456386 -0.19380094 0.16879654 0.2764833
-0.012556459 -0.06942015 -0.21877353 -0.06372628 0.23043947 0.15408523 -0.23026396 -0.3262283
-0.12859513 -0.28406167 -0.19478208 0.24045332 -0.25098488 -0.2298724 -0.29148144 -0.10080255
-0.26928788 0.21762043 -0.22169359 -0.03399981 -0.15041567 -0.3988306 -0.296644 -0.12897538
0.119027875 0.042868283 0.0101576615 -0.12769859 -0.14091668 -0.06399676 0.08562603 -0.1791123
0.17060135 -0.45018688 -0.16871797 0.15671268 0.21300615 -0.13496195 -0.08877628 -0.2763914
0.06938135 -0.1530845 0.21112806 0.08999618 0.03213122 0.35124487 -0.30521634 -0.5416606
0.046935048 0.03671234 0.236696 -0.10264473 0.42191157 0.29254764 -0.3863937 -0.39595258
-0.4596253 -0.36629504 -0.035573315 0.14592348 0.11130531 -0.13088037 -0.0028490121 0.055294294
-0.35335895 0.06810712 -0.19767126 -0.30580747 -0.36533612 -0.117342606 0.23684709 0.2464079
0.15151107 -0.17481643 -0.057212718 -0.072080016 -0.10437757 0.23952325 -0.29746845 -0.09356605
-0.033616826 -0.4069083 0.29756156 0.11762672 -0.02602304 -0.002492078 0.056865953 -0.10846509
-0.11825457 0.06426282 0.068709575 -0.1484225 0.18620801 0.100333095 -0.13483383 -0.12010685
-0.12115615 0.24240518 -0.083271176 -0.08608603 -0.31892556 0.30236936 0.24003437 -0.2247799
-0.503758 -0.4408502 0.0799499 -0.20487545 0.10609725 0.16215579 -0.042862497 0.10336705
0.0334907 0.24299428 0.3089485 -0.31398466 -0.00030429935 -0.08139629 -0.039214626 0.25667584

linear1.bias f4 [512]
00000000: aa12 8f3c 82cd e0bd 02c7 28be d211 d23d
00000010: e1ca a6be ee7d 79be 87ed 21bd d5d0 d73d
00000020: 547c 8d3d ae1b c03c 8db7 ccbd ff3d 3cbe
00000030: 221a 81be 74fa 03be 2bca 41bc fae5 2fbe
00000040: cda4 123d 2424 1cbe 66d7 0d3c 9dff 0c3e
00000050: dfe1 ae3c e115 76be 44b1 3ebd bba4 7b3c
00000060: 63d1 783e 63bc 04be 7a22 4dbe 3536 143e
00000070: 2555 9d3e 64f7 013e 1da1 b13d 3a43 683e
00000080: f1ed d5bd 3182 4a3e 011a 5e3e 6f31 633e
00000090: 649d 05be b27c 6bbe 5483 833e 06f4 8d3e
000000a0: 3be6 87be 93a7 4ebe 2ed3 963e f301 cc3d
000000b0: 174b a03e ff7e 4ebe 0298 a73e 3cfa 043e
000000c0: e479 78bd dc6e 2ebe a347 8c3d 3e4b 0a3e
000000d0: 1de6 8e3e a15b f5bd 64d6 75be 8dbf 52be
000000e0: ead6 973e 4c5b 973e 1e9f aebd fee9 e53d
000000f0: 33c2 833e 1fdc c23e bbdc d7bd 6a20 c6bd
00000100: 7cd2 323e 3f53 46be 45d9 2cbe 1f27 17be
00000110: 2875 7cbe 8e21 4dbe 9e8f 5a3e 63ca 7fbd
00000120: 9be8 993e 8527 5f3e ecdd 363e b0e0 7ebe
00000130: 2ee0 a4be 5a18 3cbe 31ca 81be 8714 9a3e
00000140: 244e 313d e904 a03e f99a 023f 45ad 83bd
00000150: b622 2cbe beba c03d d46d 6cbb 3a65 1b3d
00000160: cff8 283e 5db3 d73c 82e7 d73d ffcb b7bd
00000170: b0cc 403e 0360 adbd a3f4 2c3e 5f74 9d3c
00000180: 7f34 1ebe c484 59be bffe 2bbe e3a1 e53d
00000190: 0277 dcbb 4ce9 023e 8da7 e83d fe53 ef3e
000001a0: 8dc3 453e 0dbf 5fbe d062 663c d4b4 41be
000001b0: 8f1f f8bc debc e53d 0b9a 14be 8398 34be
000001c0: e831 69bc 5460 653d 244d 233d 6dd8 923d
000001d0: 43a0 c33e 95b5 ba3e 385e 4ebe 2bed 67be
000001e0: 7c88 823e fd72 6a3e 6bc9 d33e 7854 213e
000001f0: 2171 393d da22 3a3e 01d5 a5be e27e a63b
00000200: 7632 e03c 99e8 26be 5ec8 00be 57e2 46bc
00000210: 58c9 793e 6d98 07be 754c 8d3d ef3b 173e
00000220: 6465 d7bd a8a2 163e 80a9 fdbc 725e 823e
00000230: d94a 793e c65b 8ebd ae84 9dbe 990d c4bc
00000240: bca3 453d 3b4c cdbd fff9 67be 7277 37be
00000250: 815e 843d 19c4 b63e 54c8 343e 54e5 81bc
00000260: fce7 6a3e b65d 66bc b748 8a3e 497a a23c
00000270: 08b6 7a3d 778b 193e 67c3 0d3d a3e9 e83e
00000280: d748 853e 783d 4cbc 2aa1 5abe e376 5abd
00000290: fcda 38bb 61fa 6f3d 7d2c 163d fcc5 083e
000002a0: 1fe1 15be 91c2 2b3c 9715 7c3e e806 47be
000002b0: d035 5b3e d866 c7bd db1d 333e bffc 7e3e
000002c0: a7ac 233e bf70 0fbe f521 15bd 6065 123e
000002d0: e800 a03e eddc f73d 09aa 73be 8721 8c3e
000002e0: d740 aa3d 304f 913e c1c4 ecbd 153c febd
000002f0: 85e5 77be 05db 64be 5426 0ebe 8c27 b0bb
00000300: 2b72 cd3d 051c ed3e fd76 0d3e 94a5 3fbe
00000310: 527d b13e b04c 4a3d 4e0a 99be e7e4 113c
00000320: 9e18 b6bd d618 4ebd a884 e0bd 4ce9 1f3e
00000330: 4202 eb3d db18 36bd f405 043e 43c8 d1be
00000340: 7dcd 503e bd90 a1be ddb2 cb3d e230 e53e
00000350: 7f72 7fbe 507a 833e 733a 633e 7fd6 1cbe
00000360: 6683 5dbd e0d7 ad38 1086 a1bc 7994 6cbd
00000370: 2229 95be 9587 093e b698 ee3e 0a05 47be
00000380: 2001 b6bd e5ab cebd f66e e33e 7021 3e3e
00000390: 8c40 a4be cffc db3e 3f79 5dbe 7869 a53e
000003a0: f0f5 e7bd ba6e 80be eae6 ccbd de1d 1c3e
000003b0: 33a1 9dbc ba3f 7ebe bbe9 073e aee9 23bd
000003c0: d160 80be 1a54 afbd 5352 7c3d e254 9f3e
000003d0: 6115 d33d 27f6 4fbe 2b2d 49be 0dbe 51be
000003e0: db31 a5bc 787c 37bd 2e2e e4bd 3889 ac3e
000003f0: af5a 61be b46d fd3e 6c02 6dbc 8e5e e73c
0.017464954 -0.109766975 -0.16482165 0.10257305 -0.3257666 -0.24364445 -0.039533164 0.105378784
0.06908479 0.023450699 -0.09995947 -0.18383025 -0.2521525 -0.12888509 -0.011827986 -0.17177573
0.035801698 -0.15248162 0.008657312 0.13769384 0.021347938 -0.24031784 -0.046555772 0.015359099
0.24298625 -0.12962489 -0.20032683 0.14473803 0.30729023 0.12692028 0.08673308 0.22681895
-0.10445774 0.19776227 0.21689607 0.22186826 -0.13048321 -0.22996786 0.25686133 0.27725238
-0.2654284 -0.20181112 0.29457992 0.09961309 0.3130729 -0.20165633 0.3273316 0.12986082
-0.06066312 -0.17034477 0.06849601 0.13505265 0.27909938 -0.119803675 -0.24007565 -0.20580883
0.29656154 0.2956184 -0.08526443 0.11226271 0.257341 0.38058564 -0.10540148 -0.09674151
0.17463106 -0.19367693 -0.16879757 -0.14761017 -0.24654067 -0.20032331 0.21343848 -0.06244887
0.30060276 0.21792419 0.17858094 -0.24890399 -0.32202286 -0.18368664 -0.25349572 0.30093786
0.04328741 0.31253746 0.5101772 -0.06429533 -0.16810116 0.09410618 -0.0036076205 0.037938334
0.16501163 0.026330644 0.105422035 -0.08974456 0.18828082 -0.084655784 0.16890197 0.01922053
-0.15449713 -0.21242052 -0.16796397 0.11212518 -0.006728054 0.12784308 0.11360083 0.46743768
0.19312878 -0.21850224 0.014061645 -0.18916637 -0.030288486 0.11217664 -0.14511888 -0.17636304
-0.01423309 0.05600007 0.03986849 0.07170186 0.38208207 0.3646666 -0.20153129 -0.22649066
0.25494754 0.22895427 0.41364607 0.15754879 0.045273904 0.18177357 -0.32389072 0.0050810436
0.027367812 -0.16299666 -0.12576434 -0.012138925 0.24393213 -0.1324174 0.06899349 0.14768957
-0.105173856 0.14710486 -0.030964613 0.2546268 0.24344958 -0.06951098 -0.3076529 -0.023932265
0.048251852 -0.100243054 -0.2265396 -0.17916659 0.06463338 0.35696486 0.17654544 -0.015856422
0.22940058 -0.014060428 0.27008602 0.0198337 0.061208755 0.14994608 0.03461018 0.4549075
0.26032135 -0.012465827 -0.21350542 -0.053336035 -0.0028206697 0.05858839 0.03666352 0.13356775
-0.14636658 0.0104834 0.24617611 -0.19436228 0.21407247 -0.09736413 0.17491858 0.24901102
0.1598383 -0.14007853 -0.036409337 0.14296484 0.3125069 0.12102685 -0.23795332 0.2736933
0.083131485 0.28380728 -0.11560965 -0.124138035 -0.24208649 -0.22349174 -0.13881809 -0.005375808
0.100315414 0.4631044 0.13814922 -0.18715507 0.34665924 0.04938954 -0.29890674 0.008904672
-0.08891414 -0.050316654 -0.10962802 0.1561634 0.1147504 -0.044457298 0.12892896 -0.409731
0.20390888 -0.3155574 0.09946225 0.44763857 -0.2494602 0.25679255 0.22190265 -0.15316199
-0.05408039 8.289493e-05 -0.019717246 -0.057758782 -0.29132944 0.13430627 0.46600884 -0.19435516
-0.08886933 -0.1009138 0.44420594 0.18567443 -0.32080495 0.42966315 -0.21628283 0.3230703
-0.11326206 -0.25084478 -0.10004981 0.15245768 -0.019241905 -0.24828997 0.13272755 -0.040017776
-0.25073865 -0.08560963 0.061601948 0.31119448 0.10306812 -0.20308743 -0.19646136 -0.20482655
-0.020165375 -0.044796437 -0.111416206 0.3369844 -0.2200725 0.4949776 -0.014465909 0.02824333

linear2.weight f4 [256, 512]
00000000: c572 ef3c 7c97 b43d 2a5e 093e 3ac6 9dbc
00000010: 6a80 2dbe 736b a7bd bdb1 143d aa92 343d
00000020: 4f44 fabd 4cf1 57be 5bae 1a3e 396f b33d
00000030: 37d1 ac3c 50d6 903c 3c09 2abd 3d48 42bd
00000040: fec4 763d bf63 523d 81a3 54bd e6a9 2bbd
00000050: 3725 6dbe c515 9a3d 8818 7e3c 96b7 9c3d
00000060: 5d52 793d b04a c93d 3edb c7bd 99a3 433d
00000070: 741d 9c3b e03e 013d b00b ad3c 3867 f73c
00000080: 681f de3d 01aa da3c 5894 bfbd 2ac9 e2bd
00000090: 1c81 50be eeb1 ec3c 54f7 ea3c ae68 dcbc
000000a0: fdc6 50bc c8c5 6a3d cff3 c4bd 1dbe 9ebd
000000b0: 69de 84bd be70 e03c ff9b 133d ee25 6fbd
000000c0: ff9c 06bd e63b de3c a518 68bd fd52 3bbe
000000d0: a64d d0bd ae49 203d 966e 21bd 6e6c 27bd
000000e0: 67b0 453d dd09 cf3d 93a5 e53d c110 d13c
000000f0: b3fc 03be 0ccb a3bd 91e8 ac3d 6b5f f6bd
00000100: d067 dcbb 9f9f 78be bc4b 02be b195 fabd
00000110: cf9f 493e 3fba 4a3d e26c b3bc 4afd 733d
00000120: 2a0f 56bd e81a c13d bfc1 3ebe 582f c13d
00000130: 9a47 c23d b76d 8fbd bb41 2bbd 73b8 d3bd
00000140: d75f 1e3d 54f2 51bd 3476 da3d 0b8a 063e
00000150: b0e9 753b b015 08bc 2c94 0a3c c85f 293a
00000160: a863 233c b6b4 93bd 58a5 453d 8102 053e
00000170: 094d a73d 3273 e5bc d26b 913b 6a97 adbd
00000180: 0a59 c6bd 8c8f 9f3d daa9 15be 2a5b 0cbc
00000190: 4f57 70be 7a09 36bb 67f0 d4bd cf30 ce3c
000001a0: 2139 93bd 5da9 32be 4110 a9bd de6e 473e
000001b0: e32f f4bd d7d3 41bb cbda 2c3c 2cfa 81bd
000001c0: e215 cebe 572f 913d c751 61be ab19 45be
000001d0: 43a5 573d d18a 3dbd 1fcb 84bd de5e b53c
000001e0: 03c5 98be b6b5 e13d 5476 e93d 8e96 cc3c
000001f0: a5b7 763c a7b1 e1bd 3eb7 b33d b56f 6cbe
00000200: 39b7 5d3b bd15 70be 6002 0d3c e098 bcbd
00000210: ce08 c6be 5639 cebd e8a7 6bbe 3d52 b9ba
00000220: 5548 43bc 82d7 64bb 5ea4 06be 3076 2a3d
00000230: 9663 93bd 4a6d 5e3c 05f4 073e c7a4 333d
00000240: 7b66 be3d 9766 74be 9a65 febd 6294 4fbe
00000250: 23d8 b0be 96b3 63be a9d7 073e 4a30 593c
00000260: 693b 313e b8f8 ffbd b72e f83d 90a8 55bc
00000270: 70ae 323d f202 cb3b 8522 aebd 0287 843d
00000280: 0b57 1cbd 750a 0d3e ea28 3cbe c53f 36be
00000290: 0c43 823c 18a9 10be 2b1e 003e 2a6c bc3d
000002a0: 9124 cdbe e224 e13d a177 37bd bd96 e23d
000002b0: d719 38bd dc51 5a3c e368 1bbe a6e7 09be
000002c0: 046b 23bd 85e8 c7bb 8c75 9f3d f555 b63c
000002d0: e299 71bd 93d5 413d e567 1e3e 204b b13d
000002e0: 3f42 7abc c663 773d eb88 6cbe 4de2 353c
000002f0: f3f8 a1bc 5c40 b83d 79aa 953d 6c61 24bb
00000300: 1455 0dbe 9dac dfbc b516 a8bc 62c7 66bb
00000310: fdad e3bd 9447 58bd fba8 b0bb 01b6 633e
00000320: ab70 0e3e 3fa4 7abc 0004 bbbd 5433 2b3d
00000330: 5d24 c13d 09a2 f73c 0c62 87bd 41ef a6bd
00000340: b5f2 5b3c 22ca f33c b2a3 df3c aa96 d23c
00000350: 2e23 463d 75e3 883c 45a2 80be a49b 09be
00000360: 52a7 30be 7c14 2d3e d067 333e 9971 fd3d
00000370: decb 043e 0c62 0fbe feed ae3c a848 f6bd
00000380: eb8c 263e 6353 a3be abb8 08bd 923c a33c
00000390: 0e05 9fbd 0dce d4bd 6851 0ebe b442 6bbd
000003a0: b609 193e 894f 113e a5c7 df3c a939 a9bd
000003b0: 64df 2cbd 5e8f bd3d 122b 933d 3128 26bd
000003c0: 7370 b4be ce24 80be bb1a 1abe 2d03 26be
000003d0: fa60 c23d db91 42be a7dc 25bc 8415 aebc
000003e0: ad05 0a3e b6b3 de3c 4d78 1a3c 7eb0 153e
000003f0: 330b 183e cb4f 303d ef34 07be 9ad6 aabd
0.029229531 0.08817956 0.13414827 -0.01925956 -0.16943517 -0.08174791 0.036302317 0.044085182
-0.1222006 -0.21088141 0.15105574 0.087614484 0.021095855 0.017680317 -0.041512713 -0.047432173
0.06024646 0.051364657 -0.051913742 -0.041910075 -0.23158728 0.075236835 0.015508778 0.07652204
0.060869563 0.09828699 -0.09758614 0.04776344 0.0047642533 0.031554103 0.021123737 0.030200586
0.10845834 0.026692392 -0.09354466 -0.11073525 -0.20361751 0.028893437 0.028682388 -0.026905384
-0.012742755 0.057317525 -0.09616815 -0.07751105 -0.06487734 0.02739751 0.03603744 -0.058385782
-0.032864567 0.027128171 -0.056664128 -0.18293376 -0.1017106 0.039132766 -0.039412104 -0.04087489
0.048263934 0.10109303 0.112132214 0.025520684 -0.12889366 -0.079977125 0.08442796 -0.12029918
-0.0067262426 -0.2427964 -0.12724203 -0.122355826 0.19689868 0.049494024 -0.021902505 0.059567727
-0.052260555 0.0942896 -0.18628596 0.09432858 0.09486313 -0.07003348 -0.041810732 -0.10337915
0.03866562 -0.051256493 0.10667077 0.13138597 0.0037523322 -0.008305952 0.0084581785 0.0006461111
0.00997249 -0.07212202 0.048253387 0.12989236 0.0816899 -0.028009031 0.004437902 -0.084761456
-0.096849516 0.07791051 -0.14615574 -0.008566657 -0.23470806 -0.0027776645 -0.103974156 0.025169758
-0.07188631 -0.1744742 -0.08255053 0.19475886 -0.11923196 -0.002957573 0.010550211 -0.063465446
-0.4025107 0.070891075 -0.22003852 -0.19248073 0.05264784 -0.046274964 -0.06484055 0.022139963
-0.29837808 0.11020987 0.113995224 0.024974134 0.015058433 -0.110202126 0.08775185 -0.23089488
0.0033831133 -0.23445792 0.008606523 -0.09208846 -0.38678592 -0.1006953 -0.2301327 -0.0014138889
-0.011919101 -0.0034918492 -0.13148639 0.04161662 -0.07196729 0.013575861 0.1327668 0.043858316
0.0929689 -0.2386726 -0.12421723 -0.20271447 -0.345399 -0.22236475 0.13265862 0.013256142
0.1730782 -0.12498611 0.12118285 -0.013040677 0.043623388 0.0061954195 -0.08502678 0.06471063
-0.03816895 0.1377352 -0.18374982 -0.17797764 0.015901111 -0.14127004 0.12511508 0.09200318
-0.4006696 0.10993363 -0.04479182 0.11063907 -0.044946518 0.013325181 -0.1517673 -0.13467273
-0.03989698 -0.0061007165 0.07786092 0.022257784 -0.058984645 0.04732282 0.1546932 0.08656907
-0.015274583 0.060397886 -0.23099105 0.011101318 -0.019772029 0.089966506 0.07307906 -0.0025082482
-0.13801986 -0.027303988 -0.02051864 -0.0035214056 -0.1111717 -0.052802637 -0.005391238 0.22237398
0.13910167 -0.015297948 -0.09131622 0.041796997 0.09430764 0.030228632 -0.06610498 -0.08151103
0.013424565 0.02975947 0.027299736 0.025706608 0.048373394 0.016710022 -0.25123802 -0.13438278
-0.17251328 0.16902345 0.1752007 0.12375183 0.12968394 -0.14002246 0.021353718 -0.12025577
0.16264693 -0.31899557 -0.033379238 0.019926343 -0.07764636 -0.103908636 -0.13898242 -0.05743666
0.1494511 0.14190497 0.027316878 -0.08262951 -0.04220523 0.09255861 0.071859494 -0.040565673
-0.35242042 -0.2502808 -0.1504926 -0.16212149 0.09491153 -0.19000952 -0.010123408 -0.021250494
0.13478728 0.027185302 0.009428096 0.14618108 0.14848022 0.043044847 -0.13203786 -0.08341713

linear2.bias f4 [256]
00000000: 81a8 913c 3df0 87bd fd35 74bc 93fb 9c3c
00000010: 73ac c4bd 305e 04be f9bb 283e 74e6 ce3d
00000020: 55d0 18bd f448 51bd d7db 393f ac18 f53b
00000030: 7e34 0abd b4ec ba3d 18f8 62bb d472 aa3c
00000040: b84c dc3d 8661 fdbc 94da 25bc 4d9f d03c
00000050: ef4c af3d eb04 b13d a31a 753e 21aa 9d3d
00000060: f367 a73d 7409 70bc 4637 8ebb 44f9 3fbd
00000070: ab0d b7bb a164 9e3b c785 8dbc 05e3 b8bc
00000080: e3f8 e0bd 625c 4e3e 3744 99bc 2d47 89bd
00000090: b8d8 f53d 615a b5bc 1743 783c 1bc6 2a3e
000000a0: 3f87 f53e 8936 b0bc 28a5 debc 47fa 9abc
000000b0: c53e 18bc b99e fe3e 9d4c 40bd 2ff6 9f3b
000000c0: f2d9 e6bc 461d c33e c7e1 013d eb5e e53d
000000d0: 71f8 97bb 565c 87bd e2a2 8b3e f374 8abc
000000e0: 58cf 49bd 6db4 c83e c79f 953d bad3 273c
000000f0: bd5d 093d c254 dc3b 0a7d afb9 3a30 383f
00000100: 5d0b a6bc da2e 2c3a 932f f53b caf5 2cbd
00000110: d881 1cbd 4032 40bc 1f9e 2b3f 6a14 893e
00000120: 9ae9 a33d 0521 583c 0113 2d3f 50fc 8e3e
00000130: d2ed 2e3d 9df9 d9bb 92f8 86bd 6ceb 483e
00000140: af0e 053e 6d08 f8bc 4431 92bd 9bff 073a
00000150: 8f40 32bd 9f13 103e 63fb 1cbd 01c8 32bc
00000160: 8a86 bb3b 0b46 bf3b 8190 843d 2682 8a3c
00000170: e6a8 89bb 42ab d8bd 761b 90bd 6833 c9bc
00000180: 3dcb 8438 bded 503d 485e 893d 4c3b 08bd
00000190: 6f5e 8b3c 4068 873e 1107 2c3e 6d93 ce3e
000001a0: 2841 e33c 2d53 b6bc 8598 f03b d0ad fa3d
000001b0: b7c4 07bb b1c7 92bc 1dae 78bd da4f c93c
000001c0: 22ea aa3d 2c21 d4bc a951 4fbd 8cf1 ad3d
000001d0: d1f6 83bc f6d5 a9bc 7839 20bd f104 2e3b
000001e0: 405b 203d 4a13 073e deda 3c3d 8e9f 2c3e
000001f0: a6ba d53d 711e a73d 3e26 0bbd 3bd9 62bd
00000200: 31b2 0bbd b9fb 493d f2a4 5b39 1707 5c3e
00000210: 2e1e 6dbc 4208 36bd 6a7f 003f c429 ba3c
00000220: 0be4 12bd 1eb0 023e ba2c 5dbd 621a f33d
00000230: f839 a03d bd1f 643e e77e 503e b223 aebd
00000240: f785 d5bc 1f4a 0f3c 8d64 eabc 09d7 263e
00000250: de0c e9bc 7476 51bb bc6a fdbc 71e6 983c
00000260: 0fd7 97bc 4d79 3ebd a970 843d cfa8 3ebd
00000270: ef5c 123a 9063 01bd 76fc 86bc 3a5a abbc
00000280: 6fcf 823e 319c c33c 78aa 0b3c dfc6 92bd
00000290: 6b77 81bd 301b 3d3a 628c e5bc 5e26 023d
000002a0: bad0 6cbd 9420 8a3d 4efb eb3d ec95 80bd
000002b0: a734 80bc 489d ecbc f609 c23c e54d 8a3d
000002c0: c7fe 75bd 1137 3ebd 44ad 983b 9212 76bd
000002d0: af75 e9ba 13d8 49bc 51ac 003c 75e8 c2bd
000002e0: 4edc b83a bf7a 84bd 3992 acbc 5792 6dbd
000002f0: d7cc c43a 16aa 60bd 5f2a af3c 75b5 f63c
00000300: c861 433d d9b9 d03d 83ab 303c bde8 e33c
00000310: e060 a53c 5ee2 d3bb 9a40 11bd 31ed 453d
00000320: 3637 213c 5eb5 24bd 1e26 793d a74c 383d
00000330: 0b0e 7abd be2d c6bd e479 b53b 5cf5 07bd
00000340: 6d9b 393c 04e7 c23c 9fe3 4bbd f992 42bd
00000350: fd2f a53d 887b 08bc b766 59bc 4c92 8c3c
00000360: 0195 fb3c 4ca5 d73c 3cde 993d 0c77 29bd
00000370: 9327 133f bd24 c43d 06e0 553c b709 873d
00000380: 1ad9 4cbd 833f c8bc 6009 693b cb90 43bd
00000390: 3a0c 593d 2114 95bd 0941 10be 6bb4 ff3c
000003a0: 7a34 f9bc ea30 60bd 8258 d1bc e704 f8bc
000003b0: 8de8 e4bc f283 0d3d 5c3f 31bc 2b9f abbc
000003c0: 1481 81bc cf14 26bd 4968 11bd 0a69 b43e
000003d0: 2243 87bd 09f8 39bd 9ff0 34bc a60a 4d3c
000003e0: c610 393f 21e3 0d3b 87f0 993d 5a48 5dbd
000003f0: f4af 9b3b b174 543c a103 e93d 0a75 b43c
0.017780544 -0.06637619 -0.01490545 0.019162929 -0.096032046 -0.12926555 0.16477956 0.10102549
-0.037308056 -0.051094964 0.72601074 0.0074797478 -0.033741467 0.09127179 -0.0034632739 0.020806707
0.107568204 -0.030930292 -0.010122914 0.025466586 0.08559596 0.08643516 0.23935942 0.07698465
0.081741236 -0.014650691 -0.004340085 -0.046868578 -0.005586346 0.0048337732 -0.017275704 -0.022569189
-0.109849714 0.20152429 -0.018709285 -0.06703029 0.120042264 -0.022137823 0.015152714 0.16677134
0.47954747 -0.02151038 -0.027178362 -0.01891817 -0.009292309 0.4973047 -0.046948064 0.0048816423
-0.028180096 0.3810827 0.03170946 0.11199745 -0.004637771 -0.066094086 0.27272707 -0.016901469
-0.049270004 0.39200154 0.07305866 0.010243351 0.03353666 0.006723971 -0.00033471762 0.7194859
-0.02026909 0.0006568261 0.007482478 -0.04222659 -0.038209766 -0.0117307305 0.6703815 0.26773387
0.0800354 0.013191466 0.6760712 0.27926874 0.042707272 -0.0066520707 -0.0659038 0.19621056
0.12993883 -0.030277455 -0.07138303 0.00051879295 -0.0435186 0.14069985 -0.03832568 -0.010911942
0.0057228254 0.005837207 0.064728744 0.016907763 -0.0042010425 -0.1057954 -0.07036488 -0.024560645
6.3321066e-05 0.051007975 0.06707436 -0.033259675 0.017012803 0.26446724 0.1679957 0.40346852
0.02774103 -0.022256458 0.0073424005 0.12240183 -0.0020716616 -0.017917486 -0.060712922 0.024574209
0.083454385 -0.025894724 -0.050614987 0.08493337 -0.016108902 -0.020731907 -0.039117306 0.0026553238
0.039149523 0.13190952 0.046107166 0.1685774 0.10435991 0.08160103 -0.033972017 -0.05538295
-0.034105483 0.049312327 0.00020946914 0.2148708 -0.014472527 -0.04444147 0.5019442 0.022724994
-0.03586201 0.12762496 -0.053997733 0.118702665 0.07823557 0.22277732 0.2036091 -0.08502902
-0.026064856 0.008745699 -0.0286124 0.16292967 -0.028448518 -0.0031961473 -0.030934684 0.01866457
-0.018535165 -0.0465024 0.06466801 -0.046547707 0.0005583306 -0.03158909 -0.016477805 -0.020917047
0.25548884 0.023878189 0.00852453 -0.07166838 -0.06321605 0.0007213829 -0.028021041 0.03177487
-0.057816245 0.06744495 0.11522542 -0.06278595 -0.015650107 -0.028883591 0.02368639 0.067531385
-0.060057428 -0.046439234 0.0046593267 -0.060076304 -0.0017811562 -0.0123195825 0.007853583 -0.09516994
0.0014103742 -0.064687245 -0.021065818 -0.05800089 0.001501466 -0.054849707 0.021382509 0.030115822
0.047700673 0.101916976 0.010783079 0.02782094 0.020187795 -0.006466194 -0.035462 0.048321906
0.0098398235 -0.040212028 0.060827367 0.044994976 -0.06104855 -0.096766934 0.005538212 -0.033192977
0.01132856 0.023791797 -0.049777623 -0.047503445 0.08065794 -0.008330233 -0.013269118 0.017159604
0.030710699 0.026323937 0.07513091 -0.041373298 0.5748226 0.0957732 0.0130539 0.0659365
-0.05001173 -0.024444347 0.0035558566 -0.047745507 0.052990176 -0.0727923 -0.14087309 0.03121396
-0.03042053 -0.054734148 -0.0255549 -0.030275775 -0.02794292 0.03454966 -0.010818329 -0.02094992
-0.01580862 -0.04054719 -0.035499845 0.35236388 -0.066046014 -0.04540256 -0.011043697 0.012514746
0.7229122 0.0021650272 0.0751658 -0.054024078 0.0047512 0.0129672745 0.11377645 0.022028465

linear3.weight f4 [128, 256]
00000000: 7414 503c 006d 1e3d 777a 84bd feeb 4a3b
00000010: 67a1 b1bd da35 85bd 7ff2 2e3d d942 89ba
00000020: 05bd 1abd 58ab 53bd 78b5 933b 8966 69bd
00000030: 378e 51bd 0198 0bbc b1c1 d03c aa1e 123d
00000040: 3f3c 08bd 6f1b a7bb 991b c4bb 7075 34bd
00000050: 97c6 083d c78a 92bd c10a 04bd 4ee5 3bbd
00000060: 28a1 e43c 800e 7a3c ccee 3d3d aa90 7b3d
00000070: 6c09 8c3c 83a1 c13c 71ab e8ba 1491 eabc
00000080: bc0b 103d a18d 82bc 4b29 783d 12fe 5dbd
00000090: 544d 97bd 5552 ed3c d079 03bd ab61 5bbd
000000a0: 4818 39bc 0079 9b3a 8ff2 253d d9cc 803c
000000b0: 5e03 56bd 22e1 08bd 7af8 103d 1788 b5bc
000000c0: ddc6 a8bc 5e11 373c 31b7 ce3c 41ce 263d
000000d0: ebdc 43bd 37d3 433d 6287 a2bb 298c 85bd
000000e0: 4bd4 17bc 36f5 73bb d82a afbb 934e 22bd
000000f0: bbbe b0bd 4418 2fbc 8377 4bbd 5b84 e93b
00000100: 9d38 2b3d 74d7 abbc 0727 2bbb 90bc 91bb
00000110: ee81 063d ea99 35bd d72e 4dbc 29a9 3e3c
00000120: 0752 813c aa26 32bd f7bb 1e3c 1d63 4d3c
00000130: 21f6 15bd 1a3d c3bb 8eda 3cbc c09a ca3b
00000140: 5cf8 93bc 008e 5b3b 3bbd c6bd f64d 26bd
00000150: 6797 b7bc 7c52 21bd f096 edbb 1fbe 59bc
00000160: a430 413b 13bc 1f3d 8493 b2ba 0c74 5cbd
00000170: 360b 15bc be55 2dbd f5b9 2b3d ffab 27bd
00000180: fc97 a73c 5f77 f9bb 786f abbd f055 b03b
00000190: 9923 94bd 4996 51bd 314f 263d efb6 90bd
000001a0: 34e4 f2bc f3ad dd3c 848b d13c 1747 76bb
000001b0: f76f 7a3b 000e 52bc 97a4 6ebd d1db 3ebc
000001c0: a509 a73a 10a9 5dbc e8a3 44bd 064e 693c
000001d0: 7cba c03c ec35 f93c 1445 b8bc 6d49 06bd
000001e0: 2530 4abd 885b abbd 137a 20bd 3411 b3bd
000001f0: d21f 1e3d f203 05bd a028 22bd 406c 09bd
00000200: 3c9a 38bd 3fa5 203c 54d9 463d de49 7abd
00000210: 6a07 253d ac84 f3bc f472 b5bd a0d4 bbbc
00000220: ecd4 babc 7477 e5bc b9d0 1a3c 843c eb3b
00000230: 567c 3b3c ba1c 633b 2219 03bd 5729 be3b
00000240: 24bd 26bd cc47 7d3c b1d2 36bd 5ecb 93bb
00000250: 4bfb 4abd edfd e3bc 8c94 24bd 78c0 71bd
00000260: 4094 e0ba 0fb5 e13c f1bf c7bc 0ab9 1e3d
00000270: 9758 4abc 7b0e 533d 828a b5bd 68a9 723d
00000280: 382c f43c cc16 803c fc66 49bc 0c3d f2bc
00000290: 3d14 123d 6247 96bd 2f63 583d 1142 db3b
000002a0: ab66 95bd 904e 973c c4e8 87bd 8697 a7bd
000002b0: a74c 4dbd 557a 6bbd b218 5bbd 8182 393d
000002c0: 54b6 813c 49d9 673d caab 343d d264 e5bc
000002d0: f601 73bd a2fa 6abc 1dea bd3b e82b 5a3b
000002e0: 7eb6 46bc 36db aebc 04c4 5c3d 7eff 823b
000002f0: 8de5 5cbd 64a6 523d 12f7 8abc 8727 3abd
00000300: ca03 0bbd c280 d5bc 418a 23bd 0379 b4bc
00000310: 7650 39bd 104a 61bc 90eb 573c 1a32 803c
00000320: 91fe 85bc 26a2 1abd 7578 c6bd 47aa 1b3d
00000330: b045 2d3d 271f 3e3d 0e94 653d 0444 313d
00000340: b6cc 13bd 149e a63c a897 52bd 8cb5 18bd
00000350: 1163 86bc a45c da3c 0cae 5ebd b9c0 1dbd
00000360: 337f 83bd 33ed 11bc 9156 babd 203a 89bb
00000370: 13b9 aabd 351c ea3c 532d 0cbd f52b b93b
00000380: 8473 adbd 1893 5cbd 8142 96bd d8b2 0c3d
00000390: 664e 873c 016e de3c d487 32bd 42cd 02ba
000003a0: b032 953c f197 5dbd 4a4f 80bb 296a f7bb
000003b0: e102 dd3b 6289 68bd 70fb 33bc dea3 2f3b
000003c0: 7ecb 393d a89f c43c bfd3 a4bc b88e d5bc
000003d0: d7bc 713d 1aba 6cbc e0ee 21bd 7371 a4bb
000003e0: e2a5 e43c 3f9c 6bbd 206f 34bc 2b17 93bd
000003f0: 381d d4bd 479c 9dbd 74f7 11bd 16cd b5bc
0.012700189 0.03867817 -0.06468671 0.0030963416 -0.08673363 -0.06504412 0.04271173 -0.0010472193
-0.03777792 -0.051677078 0.0045077167 -0.05698255 -0.051161017 -0.008520127 0.025482984 0.035673775
-0.03326058 -0.005099706 -0.005984735 -0.04405731 0.033392515 -0.07155376 -0.03223682 -0.04587298
0.027908877 0.015262246 0.046370313 0.06141726 0.017094336 0.023636585 -0.0017751289 -0.028633632
0.03516744 -0.015936675 0.060586255 -0.05419738 -0.07387796 0.028969923 -0.03209859 -0.05355994
-0.011297293 0.0011861622 0.040514525 0.015722679 -0.052249305 -0.03341783 0.035393216 -0.02215962
-0.020602638 0.011173574 0.025233837 0.040724043 -0.047818106 0.047808852 -0.0049599865 -0.06520874
-0.009266923 -0.0037225015 -0.0053456835 -0.039625715 -0.08630129 -0.010686938 -0.049674522 0.0071263737
0.041802038 -0.02097676 -0.0026115791 -0.004447527 0.032838754 -0.044336237 -0.0125233745 0.011637011
0.015786184 -0.043493904 0.009688369 0.0125358375 -0.03661168 -0.0059582116 -0.011526717 0.0061829984
-0.018062763 0.0033501387 -0.097040616 -0.040601693 -0.022411061 -0.039385304 -0.007250659 -0.013289957
0.0029478455 0.03899772 -0.0013624285 -0.05382161 -0.009096911 -0.0423181 0.04192539 -0.040935513
0.020458214 -0.007613107 -0.0837087 0.0053813383 -0.07233352 -0.051168714 0.040602867 -0.07066142
-0.029649831 0.027060485 0.025579222 -0.0037578994 0.003821371 -0.012820721 -0.058262434 -0.011649088
0.0012743963 -0.013529077 -0.048007876 0.014239794 0.023526423 0.03042122 -0.022493877 -0.032784868
-0.04936232 -0.083670676 -0.03917892 -0.087435156 0.038604565 -0.032474466 -0.039589524 -0.0335505
-0.045068964 0.009805023 0.048547104 -0.0611056 0.040290274 -0.029726349 -0.08859816 -0.022928536
-0.022806607 -0.028011061 0.009449177 0.007178845 0.011443218 0.0034654574 -0.03200639 0.005803268
-0.040707722 0.015459012 -0.044634525 -0.0045103272 -0.049556058 -0.027831042 -0.040180728 -0.059021443
-0.0017134026 0.027552156 -0.024383517 0.038750686 -0.012350223 0.05152748 -0.08864309 0.05924359
0.029806241 0.01563587 -0.01229262 -0.029570125 0.035663832 -0.07337834 0.052828964 0.0066912253
-0.07294973 0.018470079 -0.066361934 -0.08183198 -0.05012193 -0.05748971 -0.05349035 0.045290474
0.015834011 0.056603704 0.044109143 -0.028002176 -0.059328042 -0.014341982 0.0057957307 0.003329033
-0.01212847 -0.021344762 0.053897873 0.003997742 -0.053929854 0.051428214 -0.016963515 -0.045447852
-0.03393916 -0.026062373 -0.03992677 -0.02203036 -0.04524275 -0.013750568 0.013178721 0.01564889
-0.016356738 -0.037752293 -0.09690944 0.038004186 0.042302787 0.046416428 0.0560494 0.043277755
-0.0360839 0.02033905 -0.051414162 -0.03728251 -0.01640466 0.026655503 -0.054365203 -0.038513873
-0.06420746 -0.00890665 -0.090985425 -0.0041878372 -0.08336081 0.028577903 -0.034222912 0.005650992
-0.084692985 -0.053851217 -0.07336903 0.034350246 0.016516875 0.027152063 -0.043586567 -0.0004989692
0.018212646 -0.05409998 -0.003915702 -0.007550497 0.006744728 -0.056771643 -0.01098524 0.0026800553
0.04536008 0.024001911 -0.0201205 -0.02606903 0.059017982 -0.014448667 -0.03953445 -0.005018407
0.02791113 -0.057522055 -0.011012822 -0.07182153 -0.103571355 -0.07695823 -0.03563638 -0.02219252

linear3.bias f4 [128]
00000000: c4c2 a0bc 4e3e c9bd bee5 0e3f 92be 9cbc
00000010: 975c d83d a951 4abd 750d 133f 7f42 ffbc
00000020: b9f1 22bd 0b8f d43c a4a9 13bd 0f0f da3d
00000030: 3650 1b3f cc0e 3a3e 3d91 1c3d 4d25 c03c
00000040: 21c3 fb3d f2c6 823e c9f6 d53d eb24 1cbd
00000050: 65d0 00bc 0ac4 7ebd 2859 bebd 1db8 833e
00000060: e405 aa3c ea41 63bb 042e a63e e22c 47bd
00000070: 7e4c f2bc c929 ef3e 623e 273f dbd1 fc3e
00000080: eb6e 8ebd c300 e13b 0bdd 8dbd 3009 8ebd
00000090: ef9f c8bc 1b33 313c 77df 343d 543d 673e
000000a0: 3500 e33c dfe3 aebb e30e 233e fed6 e73c
000000b0: f171 b8bc 8110 fa3e 33b6 353f 77bf 443f
000000c0: 7f8a 60bc 4f30 7fbd 586c 613f a6a4 95bd
000000d0: 5178 94bd 1f0c 89bd 8f99 983c 3137 1d3e
000000e0: bbf2 e4bd 1f2a 92ba 8c82 79bd 1f3d 09bd
000000f0: ddc3 9dbc 3822 6bbd 6c81 a9bc 2257 71bd
00000100: ddc7 21bd 4721 973d 5471 c5bb 7821 563e
00000110: a077 28bd 431b bebc 4217 b33d e77c 6d3e
00000120: 4de8 023c 3905 05bc 135d 6dbd f7a8 b4bc
00000130: 0050 dbbc 306f 903f 64ce 37bc bdd2 40bd
00000140: 5a27 953d ab7d 973d 396d 1d3e 4902 603d
00000150: 586d 7bbc 2eae d13d ff56 f13c 7356 d73b
00000160: 9e0a 923d 7aad 623e 0445 303f 7095 a0bb
00000170: 19bf 89bd 01cf 023f a57f 193e f036 3fbd
00000180: 48b6 253d 8f7e 91bd 9e52 6e3f 4a61 903e
00000190: 5b05 123e 8440 f23d dc36 efbc f114 c53c
000001a0: e38a 8abd 3c59 0ebd 860b 74bd e84c 2abd
000001b0: 587e fd3c 2271 953e 6e25 4dbd 557a 06bc
000001c0: 2b1a 723d 6c0b 8b3f af1b 1a3b 2ec4 00bd
000001d0: 0325 cf3e 5ccc a53d ce69 8cbd 2df5 333d
000001e0: 6c10 8d3f e20e 273d 9286 493d d075 d83e
000001f0: 5c63 613d cfb5 383e f6f1 393f 1e7e 20bc
-0.019624121 -0.09826337 0.5581931 -0.01913384 0.10564535 -0.049394283 0.5744241 -0.031159637
-0.039781306 0.025947114 -0.036050454 0.106474034 0.6066927 0.18169707 0.038224448 0.023455286
0.12293077 0.25542408 0.10447461 -0.038121145 -0.007862185 -0.062198676 -0.09294349 0.25726405
0.020754762 -0.003467674 0.32456982 -0.048626788 -0.02957749 0.46711567 0.65329564 0.49378857
-0.0695475 0.006866546 -0.06926926 -0.06935346 -0.024490325 0.010815407 0.044158425 0.22581989
0.02771006 -0.005337223 0.15923648 0.028300758 -0.022515269 0.48840716 0.7098114 0.7685465
-0.013704895 -0.06230193 0.88055944 -0.07306795 -0.07249511 -0.06691765 0.01862791 0.15353085
-0.1117911 -0.0011151469 -0.060915515 -0.033505555 -0.019258434 -0.05740568 -0.020691596 -0.058920987
-0.039497245 0.07379394 -0.0060254727 0.20911205 -0.04112971 -0.023206359 0.087446705 0.23192178
0.007989955 -0.008118921 -0.05795009 -0.022053225 -0.026771545 1.1283932 -0.011218641 -0.047075976
0.07282896 0.07397016 0.15373696 0.05468968 -0.015345894 0.102383 0.029460428 0.006571585
0.07130931 0.22136489 0.6885531 -0.004900627 -0.06725902 0.5109711 0.14990099 -0.04668325
0.04045704 -0.07104217 0.93094814 0.28199226 0.14259855 0.11828712 -0.029200964 0.024057837
-0.06764772 -0.03475307 -0.059581302 -0.04157725 0.030944034 0.29187876 -0.050084524 -0.008207877
0.059106987 1.0862861 0.0023515036 -0.03143709 0.40457925 0.08095619 -0.06856118 0.04393499
1.1020637 0.040785678 0.049200602 0.42277384 0.055026397 0.18038104 0.7263483 -0.009795694

linear4.weight f4 [3, 128]
00000000: 38a3 bd3c a6a1 afbd 18ad 853e 0134 0bbc
00000010: 18a4 9abc c01e fa3c 9ca5 f23d ded4 663b
00000020: 1ccd 333d 9f6a 72bb 449c 67bd 5c4d f33c
00000030: 7f3f e33d 5496 523c cbd6 2a3d 7091 f2bd
00000040: 040a 6e3c edac ac3c 297f 1f3d bc2f 653d
00000050: 2f81 9abd d85e 30bc f8a8 a7bb fae3 823e
00000060: 1a2e b1bd 4f9b 623d e255 423e b0c4 d53c
00000070: dcd8 81bd 1f6e 623d d3d6 a33d be16 003e
00000080: c49e cebc 01ca 10bc 34e5 8fba 6414 d9bd
00000090: b20d 813c 4659 c53d 12e9 ce3d b354 533d
000000a0: 353d 13bd 9f19 22bd 9b4d 72bd a47b 103d
000000b0: 0181 62bd 15c4 393d 093b 043e 71d7 fe3d
000000c0: 0c87 d8bd a8bf 013c 4ab8 653e a53a e5bd
000000d0: cafc 9abd 06fe a33d 2939 133d b1d0 a03d
000000e0: c1eb cabd 486f c8bd e78a e83c 14f0 af3d
000000f0: 9a1a adbd 47b8 24bd 0fd6 debc 8994 983d
00000100: 66b4 3fbe 8a81 ccbd 127f 81bd 11ba 9b3c
00000110: afdc 813d f759 a5bd 3431 b7bd c05a 1b3d
00000120: c0ba 4ebe a4a8 ecbc d663 7b3d 9bf5 7f3c
00000130: d790 863d e8bc 6e3e 45bc a23d c639 9abd
00000140: 4429 aabd d169 abbd 9bc1 5e3c aa4e 0bbe
00000150: 94d0 96bb 0276 2bbe 8076 46bd ae42 103d
00000160: 5d91 2dbd e0c3 2a3e e0bc d23d c073 c43d
00000170: 46c1 a2bb 5c18 8c3d 438d 87bd a977 8a3d
00000180: ecff 25bd 3b74 92bc 7eb1 1b3e 22c7 6d3d
00000190: 123c 38be 8f91 1abb 69c9 b0bd 1044 3dbe
000001a0: 05b0 2b3c 8d2b 93bd 51a1 dabc f658 8f3c
000001b0: 9e9d 343d 38c7 073d 4f58 ac3d 525c d33c
000001c0: 7924 20bd 100d 623e d81a 85bc f31a 9fbc
000001d0: 92e2 f13d 7cc9 30bd 7385 25bd 37c9 ba3d
000001e0: 1f8c 2e3e e671 af3d 1f1b 55bd 42de 953d
000001f0: d48b 743c 3762 313e 92a9 f73d 9b2e 2dbe
00000200: e538 aebd bf20 a0bb be4f c83d 975b 70bd
00000210: cb1c 993d 0e37 983d 9eeb 213e ec22 98bc
00000220: e67a 75bd 6353 38bc baca b1bd c665 d33d
00000230: b918 f63d 7a9b a8be cb2a 94ba 73e9 0cbc
00000240: 669d 823d 6e5a 7ebe d06f acbe 5bfe 8a3c
00000250: bedc 66bd ef55 9cbd d260 8a3b f540 c23b
00000260: 60db 64bd 4b34 0ebb e72e 373e a921 c2b9
00000270: 748e ccbd b9d0 a23d 8eb9 3a3e 80ce c43d
00000280: 3b9a 1d3d 9682 b6bd 1d14 b63d a8d9 9cbb
00000290: 6073 983c bc8a 353c dd5b b53d a0e6 c3be
000002a0: 6a51 c03c a571 88bd 0b2f ee3d cc6b f03c
000002b0: d1a2 12bd 16c6 8d3d a076 fe3d 9cdb e33d
000002c0: 9d0f 9d3d 9c14 78bd 8a6d 283e 6bf9 dfbb
000002d0: c178 efbd e1f2 9d3d 3a9e 09bd af92 cebe
000002e0: 6a77 4dbb 4f87 5bbd e0c5 01bc 81ae 9abd
000002f0: 0b1e b1bc 67c8 9839 9139 233c c010 963d
00000300: 3e09 73bc fab7 9abd db49 cc3b e494 433d
00000310: 2a14 30bb d111 9f3d 36a2 613d a807 b7be
00000320: 8c22 67bb e576 feb9 0eb2 70bd 7fba 10bc
00000330: 3474 453c e4b5 4d3e 85a8 3cbc bf47 01be
00000340: 9f42 633d 38ff 1cbe 4ca1 b0be b8d3 a53b
00000350: e158 a9ba a768 ff3b 1425 74bd 5a67 2dbd
00000360: 2266 0b3e 7219 54bd c984 6f3e 6b3e 2bbc
00000370: b2a1 93bd 5fdb 073e f2f6 36be 2c6f 00bd
00000380: 3b19 643c d807 943d d1fa 103e ddfc 7b3d
00000390: 1782 8c3d b316 f13d 6a1f 15bb 05fe f23b
000003a0: 9df6 1cbd ccde 333d 2856 b3b9 c577 debc
000003b0: c74b ad3d 3735 d23c 84a2 19be b2ef ec3a
000003c0: 4480 ed3d d2f7 4e3e 6b91 7cbd 1442 dabc
000003d0: 01f7 0c3e c271 bfbd 1a9c 48bc b6ec 1a3c
000003e0: 48e1 553e aea7 8ebd 5192 1ebd 5172 e03d
000003f0: 17da 943b 457d 9dbd d8c1 673e 4f1c 153c
0.023149118 -0.08575754 0.26108623 -0.008496285 -0.018877074 0.03053224 0.11847994 0.0035222094
0.04389678 -0.003698982 -0.05654551 0.029699974 0.11096095 0.012853224 0.04170875 -0.11844146
0.014528755 0.021078551 0.03893963 0.055953726 -0.07544171 -0.0107648 -0.005116578 0.25564557
-0.08651371 0.055323895 0.18978074 0.026094764 -0.06340191 0.0552808 0.07999959 0.12508675
-0.02522219 -0.008837224 -0.0010978342 -0.10599592 0.0157536 0.09636168 0.101030484 0.051594447
-0.035947043 -0.039575215 -0.05915604 0.035274163 -0.05529881 0.045353014 0.12913145 0.12443436
-0.10572633 0.00791923 0.22433582 -0.11192826 -0.07567747 0.080074355 0.035943184 0.07852305
-0.09908248 -0.0978685 0.028386546 0.08590713 -0.084523395 -0.040214803 -0.02720168 0.07450206
-0.1872116 -0.09985645 -0.06323065 0.019009622 0.0634092 -0.080738 -0.089449316 0.037928343
-0.20188427 -0.028889008 0.061374508 0.015622522 0.06570595 0.2331425 0.07946066 -0.07530551
-0.08308652 -0.08369792 0.013595964 -0.13604227 -0.004602501 -0.16744235 -0.048452854 0.03521984
-0.042374957 0.16676283 0.10289931 0.0959239 -0.0049668876 0.06840584 -0.066187404 0.067611046
-0.04052727 -0.017877689 0.15204427 0.058051236 -0.17991665 -0.0023585295 -0.08632166 -0.18482995
0.010478978 -0.07186041 -0.02668825 0.017498475 0.044095628 0.033148974 0.08415281 0.025800858
-0.039097283 0.22075295 -0.016248152 -0.01942203 0.11810793 -0.0431609 -0.04041047 0.0912041
0.1704564 0.08566646 -0.052027818 0.07317783 0.014925916 0.17322622 0.1209289 -0.1691231
-0.085069455 -0.004886716 0.097808346 -0.058681097 0.07476195 0.07432376 0.15812537 -0.01857134
-0.05993166 -0.01125035 -0.08681245 0.10322146 0.12016434 -0.3293112 -0.0011304257 -0.0086005805
0.063776776 -0.24839184 -0.33679056 0.01696699 -0.05636286 -0.07633578 0.0042229677 0.0059281536
-0.055873275 -0.002169865 0.17888986 -0.00037027642 -0.09988108 0.07949967 0.18234846 0.09609699
0.038477164 -0.08911626 0.08890555 -0.004786689 0.018609703 0.01108044 0.08855412 -0.3826189
0.023476321 -0.06662301 0.116300665 0.029348277 -0.035799805 0.069225475 0.1242497 0.111258715
0.076689936 -0.06056653 0.16448036 -0.006835153 -0.11692954 0.07712341 -0.033598162 -0.40346286
-0.0031351694 -0.053595837 -0.007920712 -0.07552815 -0.02162077 0.0002914101 0.009962455 0.073274136
-0.0148337465 -0.07554622 0.00623439 0.047749415 -0.0026867487 0.0776707 0.055086337 -0.3574803
-0.0035268394 -0.0004853524 -0.058763556 -0.008833527 0.012051631 0.20088917 -0.011514788 -0.12625025
0.055483457 -0.15331733 -0.3449806 0.005060639 -0.0012920165 0.007794458 -0.059605673 -0.04233489
0.1361318 -0.05178208 0.23390497 -0.010451893 -0.07208575 0.13267277 -0.1786764 -0.03135602
0.013922031 0.072280586 0.14158179 0.061520446 0.0686075 0.11771908 -0.002275432 0.0074155354
-0.038321126 0.043913648 -0.00034205732 -0.02715672 0.08461719 0.02566014 -0.15003401 0.0018076806
0.1159673 0.20211723 -0.06166212 -0.026642837 0.137661 -0.093478695 -0.012244249 0.00945585
0.20886719 -0.06965576 -0.038713757 0.10959304 0.0045426 -0.07689909 0.2263254 0.009100988

linear4.bias f4 [3]
00000000: 85f5 543e f4c9 213e bb1a 983e
0.20796783 0.15799695 0.29707894
