model/model.pth (torch, 687784 bytes, 8 tensors)

linear1.weight f4 [512, 12]
00000000: 4c32 51be 7a4e a9bd acc8 85be 1e85 333c
00000010: c673 34bd a34e 27be 7638 843e 3599 ff3c
00000020: e1a9 3fbe f01a 623e cd5c 99be 46ee 813e
00000030: a7e9 94bd 6d36 bb3e a8cc 823b aab5 4fbe
00000040: 69f9 243e 1414 0abe 7f94 5cbe 5c9a 353e
00000050: 11dc 22be 0aa5 953e 620e aa3e 1756 febb
00000060: 9088 95bd ba00 933e 71fd 4abd f49a ab3e
00000070: 4428 51bd 2869 303e cd19 cabd 7d94 513c
00000080: 5b72 53be 7db6 2d3d 1ad4 3dbe 03d1 3c3e
00000090: a81d 6c3e 2da9 f7bd d51b abbd 3cc3 d1bd
000000a0: 3f31 8fbe 2c90 7b3e 7fda 0fbe d7c1 363e
000000b0: b787 1ebe 9fad a63e fa9b 85bd 5a2e 223e
000000c0: 8fbc 61bd 5843 9abd b515 5d3d 1575 afbe
000000d0: f297 273e 1e63 1b3d af9d be3d a4e3 87be
000000e0: 8f21 13be 4941 253c 742e a43b a7a3 0fbe
000000f0: c73f 96bd e221 31be c450 803e f0fc 04be
00000100: 2439 933d 9b75 61bd d1b2 213e eae4 f2bd
00000110: 8d61 9ebc 597f af3e e3cb cf3d 31c8 aebe
00000120: 688d 3b3d a3fb 5dbe 0cd3 9dbd 21fd 24be
00000130: 40bb e0bd c850 be3d 7d58 80be 4787 0b3e
00000140: e579 07be 223a 84be c3e8 383d d051 983e
00000150: 6441 c33d 9aed af3d 446d 0ebe adc1 f1bd
00000160: 2761 bf3d 6995 5cbe c931 b33d b625 01be
00000170: c853 e1bc 53fa aebd 5180 393d 6e6a a53e
00000180: f05c 873c d8ef 053d db95 85be 546c b53d
00000190: beb1 d5bd 18a4 40be 6064 9fbd a684 71be
000001a0: accf a83d f8b1 de3d b40b 04be 042b 74be
000001b0: 82c7 283e 81a1 a03e 6622 5abe a12e 323e
000001c0: effb 27be 1686 363e 3d05 313e 079f 1abe
000001d0: 4a03 8abe 4d9d 593d 70cb 843e 0dd0 67be
000001e0: 7618 c2be 4d2b 46be 0dcc e33d 9391 af3d
000001f0: d48b 51be 00a1 81be a824 323e 3fa6 02be
00000200: d692 a43e de44 933e 8d07 6fbd 6649 d43b
00000210: c163 913e d7c5 c5be fb95 94be b8c1 5f3e
00000220: b73b 46be 4cd7 433e 57c5 4c3e c90b 2ebe
00000230: ffcf 283e 7911 403e 4f7b b2be 8897 6cbd
00000240: f032 323e c932 6cbe 5f67 393e fb91 783e
00000250: ebeb 42be bd1c 9bbe 64ee 433e 98dd c7bd
00000260: 46c7 1e3e f5d4 f63c 8859 24bd 989a ddbd
00000270: dfba 8fbe 359c 70bd e889 563e ad1e 73bd
00000280: efd4 8c3d e904 40be d284 2dbe f6f3 123e
00000290: 69b6 f7bd 646b 7b3e 5fd4 e73d 4921 f93d
000002a0: a461 b33d f7ef 8c3e 825e 153e 11de 04be
000002b0: 36c2 fd3d 6954 113e e4b7 3fbc 7316 70be
000002c0: beac 3e3e 2ebc 87bc 640c 22be 7f3c cc3e
000002d0: afa8 e43d 1e1b 6dbd a1a8 61be ae15 adbb
000002e0: 608f 7e3c a92e 923e 18d2 7f3c 9e3c 63bd
000002f0: 2a57 42be fab4 6bbe a415 4b3e 674f 3cbe
00000300: 41ed 953e 9ab8 83be 6c60 aabe 01f6 cbbd
00000310: aeff e33d 0f85 1ebe cbf6 2abe 462d a03d
00000320: 31d0 55bd 0eb9 0bbe 95a2 933e 2bb5 943e
00000330: e092 8ebe 7ef5 813e a405 fabd 81b6 843e
00000340: bf22 2abe 7107 0bbd 49c8 36be 6897 833e
00000350: 8637 62bd 1c66 693e 669f c4bd 90ab a43e
00000360: fa2f a9bb b5c8 c5bc 1f49 47bd 3312 9e3d
00000370: 95b4 15be b3b2 1a3e 2a13 003d 34a2 40bd
00000380: 54af 8fbe fd94 61bd 3298 07be be0e 1e3e
00000390: 3b5a b6be 80f8 9f3e 2f83 0cbd d842 d73d
000003a0: 734c 43be 62e7 54be 982f 363e 2bdc 75be
000003b0: 1959 823a 2315 92be 2324 7abe 56d9 7ebe
000003c0: 4692 c9bd 0727 b1be c4d2 513e c00d 103e
000003d0: cf21 bfbc 00ac f4bc a727 90be 0a99 253e
000003e0: 76a1 2dbe 03f6 3dbe dd5b 993e 8e73 6dbe
000003f0: ddb6 5f3e 66c2 5fbe 28fb c03c 5c03 733e
-0.20429343 -0.08266921 -0.26129663 0.010957031 -0.044055723 -0.16338591 0.25824326 0.031200984
-0.18717147 0.22080588 -0.29953614 0.253771 -0.07271128 0.3656496 0.003991682 -0.20284143
0.16110767 -0.13484222 -0.21541022 0.17734665 -0.15904261 0.29227477 0.33214098 -0.0077617276
-0.07301438 0.28711492 -0.049558107 0.33516657 -0.05106379 0.17227614 -0.09868202 0.01279175
-0.20649092 0.042410363 -0.18537942 0.18439107 0.23058188 -0.120928146 -0.08354918 -0.10242316
-0.2796726 0.24566716 -0.14048193 0.17847382 -0.15481459 0.32554337 -0.06523891 0.15837994
-0.055111464 -0.07532376 0.05397578 -0.34269014 0.16366556 0.037936322 0.093074195 -0.26540864
-0.1436827 0.010086366 0.0050104205 -0.14027272 -0.07336383 -0.17298082 0.2506162 -0.12987113
0.07188633 -0.055043798 0.1579087 -0.11860068 -0.019333625 0.34276846 0.1014631 -0.3413711
0.045789152 -0.21678023 -0.077062696 -0.16112186 -0.10973215 0.092927516 -0.2506751 0.13625823
-0.13230093 -0.25825602 0.045143854 0.29749918 0.09533957 0.08590241 -0.13908869 -0.11804519
0.09344702 -0.2154137 0.0874973 -0.12612042 -0.02750577 -0.08543839 0.045288388 0.32307762
0.016523808 0.032699436 -0.26090893 0.088585526 -0.10434292 -0.18812597 -0.07782817 -0.23585758
0.08242735 0.108737886 -0.1289509 -0.23844534 0.16482356 0.31373218 -0.21302184 0.174006
-0.16404699 0.17824587 0.17287154 -0.15099727 -0.26955634 0.05312853 0.2593646 -0.22637959
-0.37909287 -0.19352455 0.11122904 0.08572688 -0.20463496 -0.25318146 0.17396796 -0.1275873
0.32143277 0.2876348 -0.05835681 0.0064784763 0.2839642 -0.38627502 -0.29020676 0.21851242
-0.19358717 0.19125098 0.19997154 -0.16996683 0.16485594 0.18756665 -0.34859702 -0.0577617
0.17402244 -0.23066248 0.18105839 0.24274437 -0.19035308 -0.30295363 0.19133908 -0.097590625
0.15505704 0.030130843 -0.040124446 -0.10820502 -0.2807226 -0.05874272 0.20951045 -0.059355427
0.06876551 -0.18751873 -0.16945198 0.14350876 -0.12095339 0.24552685 0.113198034 0.12164552
0.08758858 0.2752683 0.14586833 -0.12975337 0.123905584 0.14192356 -0.011701558 -0.23446064
0.18620583 -0.016569223 -0.15825039 0.39889905 0.11164986 -0.05788719 -0.22036983 -0.0052821254
0.015537113 0.28551224 0.015614055 -0.05547773 -0.18978563 -0.23018256 0.19832474 -0.18389665
0.29282573 -0.25726777 -0.3327669 -0.09959031 0.111327514 -0.15480445 -0.16695707 0.07821135
-0.0522005 -0.13644812 0.28834978 0.2904447 -0.27846432 0.25382608 -0.12208107 0.2592049
-0.16614817 -0.033942644 -0.1784984 0.2570145 -0.055228733 0.22792858 -0.09600715 0.32162142
-0.00516319 -0.024143556 -0.048653718 0.07718315 -0.14619668 0.15107231 0.031268276 -0.04702969
-0.28063452 -0.055073727 -0.13241652 0.15435311 -0.35615715 0.31244278 -0.034304794 0.10510796
-0.19072132 -0.2079139 0.17791593 -0.24009769 0.0009944766 -0.2853175 -0.24427848 -0.24887595
-0.098423526 -0.34600088 0.20490557 0.14067745 -0.02333155 -0.029867172 -0.28155252 0.16171661
-0.16956124 -0.18550877 0.299529 -0.23188612 0.218471 -0.21851501 0.02355726 0.2373175

linear1.bias f4 [512]
00000000: 7af0 a13e df6d 40be 5132 2cbe 7929 83be
00000010: 72a0 113e c08d 143e 0cfb b63d a8d7 823e
00000020: 5a4e 87be 6378 53be 026e d93b 543b 283e
00000030: 9579 bf3b 566c 653d 6b17 953d 7c5b d139
00000040: f009 463c aedb 17be 4c93 873d 8ead 443e
00000050: 526b 8e3d be2c b4bc e3ed 473e ea11 e8bd
00000060: 87d2 8ebe d971 77bd 6670 d73d 96a4 c2bd
00000070: 6cb4 8dbe 27f5 823e 045c 923e e242 1b3d
00000080: ac8d 58bd 1eda 88be 31a0 a33d 864b d23d
00000090: 5ca5 adbd f55d 5a3e 5ca4 16be 3101 f5bd
000000a0: 0920 16be cfec a93e 6769 463e c41d 83be
000000b0: 4763 bebb 3156 263e 4ec0 24be cfd2 9a3e
000000c0: 8451 6d3e 9840 b73e 050b 303e 0235 413e
000000d0: 9fb9 82bd dfe4 843e 9ccc 353d 35c5 0dbd
000000e0: b994 923e 2308 39be bca5 603b 4997 56bd
000000f0: c108 a13e 8030 a43e daa2 623e 779b 643e
00000100: b97a 1a3e 9409 46be d2ab 443d 2666 9c3d
00000110: 8eb9 3a3e ed31 333e 9bf6 cd3d d6a2 753e
00000120: d9c7 34be 716b bcbd 5082 d6bc cfa7 263d
00000130: fe14 8fbd 3835 38bd e4c3 703e 86c5 98bd
00000140: e9f8 debc f5d0 78bc 220c 2ebe a0bc 2d3e
00000150: 4e8f 953d 3c7d 1fbe adc4 133d b06f 47bc
00000160: 1df7 60be cee3 4e3e 9241 503e be73 98bd
00000170: 8967 08bd 0aa1 a0bd 7591 073e aca0 863e
00000180: 0fae b6bb 0feb 753c b0c1 b83c fc79 50be
00000190: 3a74 48be f1ba 853e ec8f 00bd f8fc 3dbe
000001a0: cf3b 09be 1cdc b43d 8a5a 8dbe 0d35 b9bd
000001b0: 29fe 06be b388 92bc 5b18 b1bd fb39 03be
000001c0: 4344 8dbd d39e d93d 71fd 193d 3390 4e3e
000001d0: e1dd bc3e a3c1 acbe 182e 65be 7789 823e
000001e0: d320 cd3c 33af 913c b24a 233e bc72 803d
000001f0: 4014 043e aca7 ac3d c45b 733e ba5c 0d3d
00000200: cb2e ff3d 882a a13d 5252 51bd b070 433e
00000210: d09b 2dbd 6a1f a43e 9dc5 89be 3d34 1e3e
00000220: 3b73 18be ac4a 023d 004e eebd 76c9 963e
00000230: bbe1 f2bc f42d b0bd 0360 17bd 51a0 cdbc
00000240: 9400 56bb 3ec5 8f3e b907 993d 2c58 edbb
00000250: 11d0 9d3d f455 493e bbcf 8e3e b998 333e
00000260: 013c f6bc b20b 263e 01e5 cabd 651f b3bd
00000270: f964 97be c9b3 6e3e 4fb4 2bbe e111 0dbe
00000280: 0ff7 53be ab8f 6dbd 9b31 12be 1861 1ebe
00000290: 6de1 7d3d 6444 4dbc de49 6fbe 8f23 31bd
000002a0: 5178 71be 1799 d5bc 2a34 543e 9a4c 1ebe
000002b0: b61f 373e 2429 eabd 2f75 0abd a480 a43e
000002c0: 647f 5a3d af19 6bbd 51df 2b3e a05f 96be
000002d0: 9a6f 3e3e f7cc 573e 5202 653e a590 32be
000002e0: ea8c 453e 07eb e0bd 4954 313e 3f6e 003e
000002f0: c97d 063e 4db9 2bbe bdf5 23bb 2e33 653e
00000300: 3acd 3ebe ea36 69bc a172 203e c226 a83c
00000310: 19de 1a3e 1d9a 0e3e aa62 2bbe 4818 3f3e
00000320: 30ac b13a eeef 0abe 1673 9a3e c092 003e
00000330: adaa 613e 71ea 45bd 3793 e6bd 7e59 e6bd
00000340: 7767 a63e 1f47 3dbe c08c 993d 140e 333e
00000350: 8a54 8cbd b1c9 d1bc 69f6 59bd 4a05 8f3e
00000360: 3537 b63c 19e3 fbbd 13f2 f2bd 20e2 973e
00000370: 6d04 943e 7d75 a93d b6bf c9bd 08e0 233e
00000380: f041 b8bc 0410 46be 2aa8 903e 3a78 19be
00000390: ed96 93bd 60e9 ff3c f85e 7bbd 7056 8e3e
000003a0: 5cdf 40be 4ed7 5f3d f8bc c4bd 880b 0abe
000003b0: a0c4 1fbe 1ef9 fe3c 111c a73e e019 17be
000003c0: 7031 753e 2678 18be 3b8a 273e bd5b 42be
000003d0: 1bd3 403e 4fc1 343e 7200 673e 6e56 55bd
000003e0: abe8 533d 8fea c8bd 94dd db3d a573 c5bd
000003f0: e158 9f3d 016c 04be 0abc 643e b9b5 a43e
0.31628782 -0.18791912 -0.16816069 -0.2561758 0.14221361 0.14507198 0.08934602 0.25555158
-0.26426965 -0.20651393 0.0066354284 0.16428882 0.005843351 0.05601152 0.07279857 0.00039931748
0.01208733 -0.14829895 0.066198915 0.19206831 0.069540635 -0.021993991 0.1952434 -0.11331542
-0.27894995 -0.060411308 0.10519485 -0.095040485 -0.27676713 0.2557766 0.28585827 0.03790558
-0.052869484 -0.2672891 0.079895385 0.10268311 -0.084788054 0.21324904 -0.14711136 -0.11963118
-0.14660658 0.33188483 0.19376145 -0.25608647 -0.0058101746 0.16243817 -0.16088983 0.3023896
0.23175627 0.3579147 0.17191704 0.18867877 -0.06383061 0.25955865 0.044384584 -0.0346119
0.2862909 -0.1806951 0.0034278473 -0.05239037 0.3145199 0.32068253 0.22132435 0.2232493
0.15085877 -0.19339591 0.048015423 0.07636671 0.18234846 0.17499514 0.10056802 0.23987898
-0.17654361 -0.0920018 -0.026185185 0.04068738 -0.06986426 -0.04497263 0.23512226 -0.074595496
-0.027218299 -0.015186538 -0.16996816 0.16966486 0.07302724 -0.15575117 0.036076237 -0.0121726245
-0.21969266 0.20204088 0.20337513 -0.07443951 -0.033301864 -0.07843216 0.13239081 0.26294458
-0.0055749486 0.015009656 0.022553295 -0.20359033 -0.19575587 0.26119187 -0.031387255 -0.18553531
-0.13401721 0.08831045 -0.27608138 -0.09043322 -0.13182892 -0.017887449 -0.086472236 -0.12815087
-0.068977855 0.106259964 0.037595216 0.20172195 0.3688803 -0.33741483 -0.22380865 0.25495502
0.025040066 0.017783737 0.15946463 0.06271884 0.1289835 0.08430418 0.23765475 0.03451226
0.12460097 0.0786944 -0.051103897 0.19085956 -0.042384923 0.32055217 -0.2690858 0.15449615
-0.14887707 0.031809494 -0.11635971 0.29450577 -0.029648652 -0.08602515 -0.0369568 -0.025100859
-0.0032654153 0.2808017 0.07472176 -0.007243177 0.07705701 0.19661695 0.2789286 0.17538728
-0.030057909 0.16215399 -0.0990696 -0.087462224 -0.29569224 0.2331077 -0.16768001 -0.13776352
-0.20699714 -0.05799834 -0.14276735 -0.15466726 0.06198256 -0.012528513 -0.23368022 -0.043246802
-0.23581053 -0.026073975 0.20723024 -0.15458909 0.1788319 -0.11433628 -0.03380316 0.32129395
0.053344145 -0.05739754 0.16784407 -0.2936983 0.1859726 0.21074282 0.22364166 -0.1743799
0.19292036 -0.10982328 0.17317308 0.12542056 0.1313392 -0.16769905 -0.0025018298 0.22382805
-0.18632975 -0.014234284 0.15668727 0.020526294 0.15123786 0.13925977 -0.16736856 0.18661606
0.0013555344 -0.13568088 0.3016593 0.1255598 0.22037764 -0.048319284 -0.11258548 -0.11247538
0.32500812 -0.18484162 0.07497549 0.17485839 -0.06852062 -0.02560887 -0.05321351 0.27933723
0.022243122 -0.12299175 -0.11862578 0.29664707 0.28909627 0.08274362 -0.09851019 0.1600343
-0.022492379 -0.19342047 0.282533 -0.14987269 -0.07206521 0.031239212 -0.061369866 0.27800322
-0.18835205 0.05464869 -0.096063554 -0.13480961 -0.1560235 0.031124648 0.326386 -0.14755964
0.2394464 -0.14889583 0.16361324 -0.18980308 0.1883053 0.17651866 0.22558764 -0.05208438
0.05173556 -0.098103635 0.10735622 -0.09641198 0.07780624 -0.12931825 0.22337356 0.32169893

linear2.weight f4 [256, 512]
00000000: b24c 8e3c 41dc e9bd 375a 5ebd 204a 083e
00000010: f975 aebd 1ca0 c53c 6854 603d 1554 5e3d
00000020: d0b3 353b 42f9 dfbd f8ed 08bc 8b99 123d
00000030: 5796 edbc 0ccb 13bd 1702 e13b de55 643d
00000040: e314 183e 0a3d a83c aad2 57bd e9f5 aa3d
00000050: 520a ad3d b7a6 e23c 4491 8f3d edd4 3bbd
00000060: 3991 b9bc 27c2 cebd aad8 21bd 363a 98bb
00000070: b6aa 933c 8bd3 843d 462a 863c 9176 f7bc
00000080: d857 5e3c 66e7 733d 1501 433e f179 c73c
00000090: 7e6a 9ebd f636 edbc 402d 083d b619 38bd
000000a0: c25f 973d 4dce 4c3d 00e2 45bd 2990 df3d
000000b0: 0554 b7bc b50f a9bd 7c53 df3d eba9 973d
000000c0: 07e6 a2bd 5a15 573d 6868 d63b 1a99 5abd
000000d0: 45a9 0bbd 44c5 993c ff4f 6ebd a457 8c3c
000000e0: b19c 21bd 90ba fcbc 2c18 4abd 5bb6 9d3d
000000f0: 2cc5 a43d bd13 813d 7c46 df3c e984 e13d
00000100: 2c4c 0a3d b0d8 903d ba40 483d 4707 423c
00000110: 82da 3f3d da9a 573d 4c72 2b3d dd5f ac3c
00000120: a564 643d 995a 533c 8d0a b2bd a16e 283e
00000130: 8991 b3bd 7d1a 623d 718b 1fbd 5e6e 91bb
00000140: ac73 813d 3e63 383d 9a9b 1fbc 91cb 82bc
00000150: 64b0 a63d add6 61bd 238e c03d 278d 8a3d
00000160: e31a a03d f08d 783d 3de8 a63d bddc d9bc
00000170: 0f90 8a3d 44ef c0bd a0ef c3bb 16a2 113d
00000180: e9ed 8fbd 5b97 903c 08f6 8cbd e6e4 01bc
00000190: 4ca5 093d bf4d 673d 0847 0d3c bc81 b8bd
000001a0: ab6a 20bd beeb c83d 8766 323d c561 e93d
000001b0: 568f ce3d a4b5 63bc 8c33 bcbd 8ba2 023d
000001c0: d545 7cba cc66 073e ff1e 053d 8be9 fd3c
000001d0: 947d 603e 0513 063c c0fa 9d3a 83cf a03c
000001e0: b4cb a6bc 5086 9ebc 0035 89bc 23b7 b33d
000001f0: 053a 483c 4914 803d 0906 d73d 3f43 e73d
00000200: 4b8b bf3d 9a5b 463c c536 6b3d c052 0cbd
00000210: 257d c43d d467 343c c8c6 983b e523 ab3d
00000220: 9440 433c 8cc1 84bd 0ad2 bb3d 1707 98bd
00000230: b83d 6bbd 1728 c73d b527 373e 7c39 85bd
00000240: 6a24 633c 5cc5 01bd bd42 10bd cc72 6dbd
00000250: d0ba f13d 119b 9a3c 9df4 a9bb cf68 0b3e
00000260: e245 9c3d 8a09 f8bc 2c87 bd3d cb05 9bbc
00000270: df35 e53c 02aa 01bd 6dbf 8f3c 41e2 34bd
00000280: 3311 96bc 6e7c 383d 2426 8abd 6cbf a2bd
00000290: 8407 29bd 7cb4 493d 4b09 203c 9522 afbd
000002a0: 0cb8 39bc d304 3b3d da3d cb3c d509 913d
000002b0: 8bae 893d 46b2 e83c a319 75bd 3497 48bd
000002c0: 289a 8d3c ed19 093c 500e d4bd ffba c7ba
000002d0: 859e a4bd 3904 3cbd 3ea2 403c d5d6 8e3c
000002e0: 73a1 29bc b76c 743d 78b0 153d 4c29 95bd
000002f0: e936 bf3d 4617 adbd 58a0 023c afaa dabc
00000300: daa1 06bd 5438 5239 511e 01bd dd02 bc3d
00000310: 76f5 3ebc f0e1 64bd 8fda 98bb 9f12 733d
00000320: cc8e 073e 111d 03bc ddb8 a5bd a9be 12bd
00000330: f2d8 3cbd 9f73 483d b927 b8bd ff1a 913c
00000340: 283c 07bd 5e8b 5ebc b96f 3e3d 3a3a 59bd
00000350: 1f01 2b3e 75d9 da3c 3ffc bd3c 8308 22bd
00000360: 9825 c63d 2c42 713d 7b2b 5cbd 9fcb 813c
00000370: 159c 0a3c b9f0 573d ef37 f6bd 77b4 8ebc
00000380: 743e 543d d819 963d 37d0 4d3d 2fde 383d
00000390: f7e7 2abd abfd 6bbd ea19 db3c 56eb cf3d
000003a0: 32e6 85bd c4d7 513d fa68 ad3b a6bc 3d3d
000003b0: 407e 9c3d 7b26 cf3c e2c2 3ebd 6eb8 993c
000003c0: ccc2 03bd f127 b63c faa8 30bc 4d86 2cbc
000003d0: ead3 e83d 7089 88bd 06a4 2e3c f2c3 bdbd
000003e0: 3b0d 823d 8729 ad3d f2fb a73c d63e 173d
000003f0: a42b aa3c 2263 b83c d08a 94bc 1d05 3dbd
0.017370556 -0.11418963 -0.054285254 0.13309526 -0.08518595 0.024124198 0.054767996 0.054279406
0.0027725585 -0.10936214 -0.008357517 0.03579096 -0.029002352 -0.036082312 0.006866704 0.05574595
0.14851718 0.020536918 -0.05269114 0.08347685 0.08449234 0.027667386 0.07010129 -0.04585736
-0.022652255 -0.10095625 -0.039513268 -0.004645611 0.018025737 0.06485661 0.01637758 -0.030207904
0.013570748 0.05954685 0.19043382 0.024350138 -0.077351555 -0.028956871 0.03324628 -0.044946395
0.07391311 0.05000143 -0.048311234 0.10916168 -0.02237893 -0.08254949 0.10904595 0.07405456
-0.079540305 0.052510597 0.006543208 -0.053368665 -0.034096975 0.018770821 -0.05818176 0.017131634
-0.039456073 -0.030850679 -0.04933946 0.07700797 0.0804542 0.06302593 0.02725529 0.11011679
0.03376405 0.0707258 0.048889853 0.011842555 0.046839245 0.052637912 0.04185705 0.021041805
0.055760045 0.012900018 -0.08693419 0.16448452 -0.08767993 0.055201042 -0.03895134 -0.0044382056
0.06320891 0.04501652 -0.009741688 -0.015966209 0.081391126 -0.05513637 0.094021104 0.06765204
0.07817628 0.060682237 0.08149765 -0.026594514 0.06765758 -0.09420636 -0.0059794933 0.035554968
-0.070278 0.017650297 -0.06882864 -0.007928109 0.033604905 0.05647063 0.008622892 -0.0900912
-0.039164227 0.09810589 0.04355481 0.11395601 0.10085933 -0.013898287 -0.09189519 0.031893294
-0.0009623443 0.13222808 0.032500263 0.030995151 0.21922904 0.008183246 0.0012052879 0.0196302
-0.020360805 -0.019351155 -0.016748905 0.08775165 0.012220864 0.06253869 0.10499198 0.11292123
0.0935274 0.0121068 0.05742528 -0.034258604 0.09594182 0.011011083 0.0046623684 0.08356456
0.011917252 -0.06482229 0.09170921 -0.07423227 -0.057431906 0.097244434 0.17886241 -0.06505105
0.013863662 -0.031682357 -0.035219897 -0.057970807 0.1180321 0.01887277 -0.005186631 0.136142
0.076305166 -0.030277986 0.092542976 -0.01892366 0.02797979 -0.031656273 0.017547334 -0.044161085
-0.018318748 0.04504054 -0.06745556 -0.07946667 -0.041266933 0.04924439 0.009767841 -0.08551518
-0.011335384 0.045658898 0.024809767 0.070819534 0.067227446 0.02840532 -0.059838902 -0.048972324
0.017285421 0.008367998 -0.103542924 -0.0015238224 -0.08038048 -0.045902465 0.011757432 0.017436424
-0.010353434 0.05967399 0.036545247 -0.072832674 0.09336645 -0.08451705 0.007972799 -0.026692716
-0.032869197 0.00020048145 -0.031523053 0.09180234 -0.011655202 -0.055879533 -0.004664726 0.05934393
0.13238066 -0.008002535 -0.080919005 -0.03582636 -0.046105333 0.04893839 -0.089919515 0.017713068
-0.033016354 -0.013583032 0.046493266 -0.053034045 0.16699646 0.02671502 0.02319157 -0.0395589
0.09675139 0.058900997 -0.053752404 0.015844164 0.008460064 0.052719805 -0.12022387 -0.017420037
0.051817372 0.07329148 0.050247397 0.045133766 -0.041725125 -0.057614964 0.026745755 0.10152309
-0.06538047 0.05123116 0.005292055 0.046322487 0.07641268 0.025286904 -0.046572573 0.0187647
-0.032168195 0.022235842 -0.010782475 -0.010530067 0.113685444 -0.06666839 0.010659223 -0.09265889
0.0635018 0.08455186 0.02050588 0.03692516 0.020772763 0.022508208 -0.018132597 -0.046147455

linear2.bias f4 [256]
00000000: 9811 373c 8d4e 9c3b 345e 1fbd 757d a8bc
00000010: e166 30ba dc37 813e 4fae 4a3c 49c0 48bd
00000020: c2aa 9abd f1d2 7ebc 638a 1c3c 845f 0cbc
00000030: 4f7b 7e3c d441 663c 852a 3fbd b7d3 583b
00000040: 156d b6bc 8982 30bd 0a99 69bd 67cf 283c
00000050: 0203 03bd 9d18 73bc 4eaf 2dbc bb37 1c3c
00000060: 6e2a 8b3e d1a7 65bb b4d5 333c 5a9f 40bd
00000070: 3443 9bbc 1725 b339 d1ab 1d3b 72eb b63c
00000080: 144a 28bd 43b7 f23d 409f 473d 121f 0fbd
00000090: 698b 0fbd 7c77 a0bc b6c9 f53d a628 e7ba
000000a0: bc5e 69bd bec0 f5bc c071 1e3a a079 8c3d
000000b0: 965f 623c cf0e 9abc 00eb 1cbc 0575 bd3d
000000c0: e0d1 f03c bfdb 29bd 05bc 13bd 3f43 fcbc
000000d0: 5c8a b4bc 1f4e 023e e211 613d 80b2 86bd
000000e0: 6fa7 e93b 6149 a93d 183b f63c 05f8 a9bc
000000f0: 593d 6f3a 3685 353c 1136 0b3d 21c4 af3c
00000100: 7e9e a4bc d7ac 333c 6564 02bd 593a 5cbd
00000110: bd96 bfbc aefb d53c f9f0 9e3d 2187 dcbb
00000120: 0ccf 043d 4867 163a b057 113a ac32 31bb
00000130: 5c64 19bd d3e6 09bc ddab 1ebc b9d2 a33a
00000140: e38a 01bb 7317 edbc 7952 f43c 5d76 16bd
00000150: affc b03d 9c18 1bbd 778f 2abd 1905 97bb
00000160: e25e 46bc cc82 92bb 29a1 d4bb fb5a 063d
00000170: 2e07 493e 5aab 28bc 2771 bb3c 53ad f93c
00000180: 3387 9dba 25ea ac3b 5e1a 483d 66d0 a33c
00000190: 002f 0dbd eb63 cd3c f883 223d 8df3 a3bc
000001a0: 455f b13c eb3b 873c 22c6 c9bc 4ec8 26bd
000001b0: 825f 243e ce1a 37bc 3ca8 f1bc 96eb 023d
000001c0: aafc 76bd f855 bfbc 1756 063d 8ab6 7bbc
000001d0: 5a89 8bbb b624 583c 260d 8abc 71fe 10bd
000001e0: 6a19 d83c 59fc 443c a9a3 64bd 0831 6bbd
000001f0: 01b4 933c 3495 8cbc 82e6 73b7 320e 0ebd
00000200: 1549 2cbd 9149 d0bb f8cc b73c fbb6 71bb
00000210: ceea fcbc 208b 6cbb ad49 aa3d 78a4 783c
00000220: b1c8 01bd daca 7bbd 602c cc3c 846c 6e3c
00000230: 21d7 a93c 4114 ee3c e3ce edbc c172 f53b
00000240: edb0 bdbc 7d6a 5f3c 857e 17bd e014 65bd
00000250: 03ba 343a 91b2 8c3c 08b2 06bd 250e 6d3c
00000260: b17f e03c 2c09 2f3c 4745 60bd 72b0 edbc
00000270: 5137 19bd 9db8 28bd 940e 1dbd 231a fa3d
00000280: e28a 113d eec6 32bd a120 4cbc ccae d63c
00000290: aa5a abbd dfb2 613c 88de 363d 01f0 9fbc
000002a0: d1ad c33c 4e80 9bbc 2d63 27bd 32bc 0e3d
000002b0: c9f7 c83c 3c3d 333c 4eb4 a3bc e971 38bc
000002c0: e8ca 983d f118 f63c b562 983d 04fb 223b
000002d0: e6de 0d3d 24af 0ebc d79b a8bc 28e2 31bc
000002e0: ef1b ffbb da1e a1bd 39af 1aba 9c0f 8b3c
000002f0: 9b08 a83c fa39 d33d 8841 27bb 13a7 32bd
00000300: 49ae f33c e8bc 13bd 0e1f 873c 70eb 173d
00000310: 7b4f 5fbd ce30 73bd 824f 5dbd ab59 58bc
00000320: a403 443c 35c4 253c 0651 24bd 9098 73bd
00000330: 198a 22bd cf4f 91bd 764b 00bd 9b96 0abd
00000340: 27c9 adbc aa64 42bd b7d0 2abd 9ae1 523d
00000350: ff1f 1f3d 4591 31bd 7672 06bd 52fa f13b
00000360: 2947 6bbb 4648 093d a01f bd3d 9902 133d
00000370: 68d2 19bd e0db 3fbc b35f 9c3c 1366 03bc
00000380: fb90 293e 27b6 583d b741 fe3c 012d 7abd
00000390: 6e0f 90bd 65a9 9dbc abb2 2cbd c130 ee3c
000003a0: 3ff6 2cbc 76e7 c8bc 5c67 563b 0457 98bd
000003b0: c5ca bdbc 09a8 1a3d 4921 b3bb 556c 3b3c
000003c0: 72a3 35bd f6e4 113d 8eac 12bd ffb5 0fbd
000003d0: c7fc 76bd 178e 533d 222e 0d3d 2a2c c3bc
000003e0: 7b8b 25bd 301f 9cbb dcaa 443d ff86 14bc
000003f0: 7219 423d 8299 843c 01a4 5dbc 49e4 bf3d
0.011173628 0.004770106 -0.0389082 -0.020567635 -0.00067291973 0.2523793 0.01237066 -0.049011502
-0.07552101 -0.015553222 0.009554478 -0.008567695 0.015532329 0.014053781 -0.04667141 0.0033085176
-0.022268811 -0.043093238 -0.057030715 0.010303355 -0.03198529 -0.014837411 -0.010600878 0.009534772
0.2718081 -0.0035042653 0.010976244 -0.04702697 -0.018952943 0.00034169175 0.002405871 0.022329066
-0.04108627 0.11851361 0.048735857 -0.03494174 -0.03504506 -0.019588225 0.12001364 -0.0017636016
-0.05697511 -0.029999133 0.0006044172 0.06859136 0.013816735 -0.01880589 -0.009577513 0.09250835
0.029396951 -0.04146933 -0.03606798 -0.030793784 -0.022038631 0.12725113 0.054948695 -0.06577015
0.0071305553 0.08265949 0.030057475 -0.020748148 0.0009126268 0.011079123 0.03398711 0.021455826
-0.020095106 0.010966501 -0.031834025 -0.053766582 -0.023387307 0.026120987 0.07760806 -0.006729976
0.032424018 0.0005737436 0.00055443775 -0.002703826 -0.037449226 -0.008416849 -0.00968453 0.0012498713
-0.001976662 -0.028941846 0.029824482 -0.036733974 0.086419456 -0.037865266 -0.041640725 -0.004608762
-0.012107583 -0.0044711586 -0.0064889384 0.03280161 0.19631645 -0.01029476 0.022881104 0.030478155
-0.0012018442 0.0052769356 0.04885327 0.019996833 -0.03446865 0.025072059 0.039676636 -0.020013595
0.021651873 0.016508063 -0.02463061 -0.04071837 0.16052058 -0.011175824 -0.029499166 0.031962954
-0.060299553 -0.023356423 0.032796945 -0.015363345 -0.004258317 0.013192346 -0.016851973 -0.035398904
0.026379306 0.012023055 -0.05582014 -0.057419807 0.018030168 -0.01716099 -1.4537598e-05 -0.034681506
-0.042061884 -0.006356426 0.022436604 -0.0036882746 -0.030873682 -0.0036093667 0.08314834 0.015175931
-0.031685535 -0.06147275 0.024923503 0.014552239 0.020732464 0.029062392 -0.029029315 0.0074904864
-0.023155654 0.013636229 -0.036985893 -0.05592811 0.0006894173 0.01717499 -0.032884628 0.014468704
0.027404638 0.010683339 -0.054753568 -0.0290148 -0.03740627 -0.041191686 -0.03834398 0.122120164
0.03553284 -0.043646745 -0.012458951 0.026206397 -0.08366902 0.013775556 0.044645816 -0.019523622
0.023886593 -0.018982079 -0.040866066 0.034847446 0.024532216 0.010939892 -0.019983437 -0.011257627
0.07460576 0.03004119 0.07440702 0.0024868855 0.0346364 -0.008708749 -0.020582123 -0.0108571425
-0.0077853124 -0.078672126 -0.0005900744 0.016975217 0.020511916 0.103137925 -0.0025521237 -0.043616366
0.029746192 -0.036068827 0.0164943 0.037089765 -0.054519158 -0.059372716 -0.054030903 -0.013204972
0.011963759 0.01011758 -0.040116332 -0.059471667 -0.03968248 -0.070953004 -0.031321965 -0.033835035
-0.021214081 -0.047459282 -0.041702952 0.05148468 0.038848873 -0.04335143 -0.032824002 0.007384577
-0.003590057 0.03351619 0.092345476 0.03589115 -0.037554175 -0.011710137 0.019088602 -0.008019942
0.16559212 0.05290809 0.031037195 -0.061078075 -0.07034193 -0.019245813 -0.04216258 0.029075982
-0.0105567565 -0.024524432 0.0032715416 -0.07438472 -0.023167977 0.037757907 -0.0054666144 0.011439403
-0.044345327 0.035618745 -0.035809092 -0.035085674 -0.06029966 0.05164918 0.034467824 -0.02382477
-0.040416222 -0.00476446 0.048014507 -0.009065389 0.047387548 0.01618648 -0.013527871 0.09369714

linear3.weight f4 [128, 256]
00000000: 44b1 7d3d a03f 37bd 3529 db3c d6fb d2bc
00000010: c790 cdbb bf62 e6bd 689f 483e f048 da3c
00000020: 68ea fd3c 5532 803d 49da 813d 3e00 3d3e
00000030: 0947 053d 844e d63d a9da d03d a04f 7fbd
00000040: ece2 f73d 678a 1dbd c9a0 c9bc 545d 213d
00000050: e0e0 563c 973b 8d3d 41ef 843d cf6a 9b3c
00000060: 5812 07be e307 cebc 100e 2d3c 4f0a 4cbd
00000070: 80c4 053d 2a4b 223d 7e2b 82bd 2831 e4bc
00000080: 3b61 8e3c 32f9 61bd aa06 133e 9e34 b93d
00000090: e8c5 163d fb40 6ebd 0934 6bbc 2ea9 2abd
000000a0: 7689 21bd d053 c0bc f664 163d df50 b53d
000000b0: a801 3b3c b92f 9cbb cadd 58bd bea5 0d3e
000000c0: 4288 2a3e eacd 64bd 88b2 85bc eef0 c6bc
000000d0: 70f5 bbbb 4f7a 063d e756 e73c c5d4 223d
000000e0: 4605 103e 00d1 f13c 407d b33a f308 173e
000000f0: 517a 263d d9f1 d4bd 6b6f ea3d c0d2 553d
00000100: 67d6 043e 6422 203e 3da1 083d de87 8bbc
00000110: 9ca3 bdbc 8cfd 52bd d93d d23c 0219 333d
00000120: 5fed 3a3e 5b5b bf3c a800 1c3b 50c1 0bbc
00000130: 4f9a 533d 17a9 f43c 0911 243c b8a3 1cbd
00000140: 50d6 13bd ba51 1fbd acb0 77bc c00f 53bc
00000150: 3104 a4bb b618 6a3d 40b3 b93d 6839 6b3d
00000160: c6f3 c13d 581e 363d afdc 52bc 345c 483e
00000170: 960c 693d 80ef 71bd 807a d33c 824d 4bbd
00000180: 5115 afbb 3f19 993d 1281 ac3d 524c 5cbd
00000190: 16cd 043e 38c3 4abc d623 0a3d 4492 fb3d
000001a0: 5ee5 853d 8827 90ba 93f3 0bbd 0cf3 fcbc
000001b0: 9d71 2dbe 5578 333d 4af7 b83c ecdf 1bbd
000001c0: 0f13 50bc 7670 883c 7bed 103d c8da ed3c
000001d0: a7f8 1d3c 45a1 7d3c bbc9 143d a48b 1cbd
000001e0: f6a6 6e3d c01e d83a 71c7 97bb 50a5 42bc
000001f0: 28b8 ebbd bac5 183c ad2e ccbc 8ce1 983d
00000200: fe1f 593d 1862 44bd f6a3 033e 0e7b 0b3d
00000210: 109b 283c 2d33 f7bb 7272 ccbc 4081 2f3d
00000220: cb91 8d3d 1d9f ba3d 4d8b 5b3e ab96 003d
00000230: 5bc7 adbd 4e3b 0b3d 7016 873b 3efe d53d
00000240: 9d06 a5bc 0747 eebd b9cd 5b3d 26ae 063d
00000250: 04b2 843d da01 4ebd fd46 a03c 66ea b93d
00000260: d9ee bd3c f20e 263d e12d ac3d d375 533d
00000270: fcfd 47bd 843f 8cbc 8256 07bd 3176 6ebd
00000280: d60e 1e3e d0e2 b2bc 9588 07bd 6b7a 2dbd
00000290: 3842 7d3d 6169 df3d 37d8 993d d0c6 333e
000002a0: e86a 2b3e e92b 1a3e c74f ed3d 2df2 b23d
000002b0: 4214 03bd 4ab3 1b3e de5d a3ba db5d 27bd
000002c0: e123 993c dbcd ec3d 9973 633d 24f5 803d
000002d0: 6857 00bd e0e2 93bc a8ae 73bd d21d 393d
000002e0: 706c 223c 7456 cb3d 4c10 00bd 723d e33d
000002f0: 6089 cd3c b163 b9bb be44 dc3c bd40 a43d
00000300: f0b2 b03d 69a7 3cbd 1c38 663d 04a8 2ebd
00000310: 38ea 563e bd97 04bd 98d1 3bbc 282c 02bd
00000320: 8b9b 803d f0a1 81bd c4b5 d2bc 230d 91bc
00000330: 9748 59bc b8ab 50bc e82c 713c 704e a2bc
00000340: e6be 3abd da62 9d3c 92b2 253d 1d4a 063e
00000350: 4b8d 223e a02f 143d dbcf 4abd b540 203e
00000360: 2c8f 33bd a7dc e3bd 6ee3 503d 0dde 193d
00000370: de64 bf3d e554 25bd 1b4d 063e a49b 87bc
00000380: 629f b33c 503b 9d3d ce0c 8b3b 5208 ce3d
00000390: 1722 62bc 233f 0c3e 2240 683d c859 8ebc
000003a0: 1a6d 56bd 7d48 83bc 1584 203d 3227 1bbc
000003b0: 0e58 203d b626 753c a791 a5bd c671 503a
000003c0: e6ee 9dbd 906f 07bc 8bd5 7e3c 04c4 103d
000003d0: b814 a93c 30f4 e93d a04d 48bd 0422 d1bc
000003e0: 86a1 d03b 9a5e ddbc 283d 703d 7690 403d
000003f0: fc7b 1d3e 224b 413d ec0a 0f3d abab b33d
0.06193663 -0.044738412 0.026753047 -0.02575485 -0.0062733623 -0.11249303 0.19592059 0.026646107
0.030995563 0.062596 0.06340463 0.18457124 0.032538448 0.104641944 0.10197956 -0.062331796
0.12103829 -0.03846207 -0.024612801 0.039395645 0.013115138 0.068961315 0.064909466 0.018971829
-0.13190591 -0.025150245 0.010562435 -0.04981452 0.0326581 0.039622463 -0.06355952 -0.02785547
0.017380347 -0.05516929 0.14358011 0.09043239 0.03680983 -0.05816744 -0.014355668 -0.04166525
-0.039437734 -0.023477465 0.036717378 0.088533156 0.011413969 -0.004766431 -0.05294589 0.13832757
0.1665354 -0.055860437 -0.016320482 -0.024284806 -0.0057360455 0.032831486 0.02823968 0.039753694
0.14064512 0.029518604 0.0013693944 0.14749508 0.040643994 -0.10397691 0.114470325 0.05220294
0.12972413 0.15638119 0.033356894 -0.01703256 -0.023149304 -0.051511332 0.025664257 0.04372502
0.18254612 0.023358991 0.0023804102 -0.008529976 0.051660832 0.029865785 0.010013827 -0.038242072
-0.036093056 -0.0388963 -0.015117805 -0.012882173 -0.0050053825 0.057152472 0.09067392 0.057427794
0.09470324 0.04446253 -0.012869998 0.19566423 0.05689677 -0.059066296 0.025815248 -0.049634464
-0.0053431173 0.074755184 0.08423056 -0.053783722 0.12968859 -0.012375645 0.033725582 0.12283757
0.06537889 -0.0010998109 -0.034167837 -0.030877613 -0.16937871 0.04381593 0.022578854 -0.038055345
-0.012699856 0.016655188 0.03538273 0.029034987 0.009641803 0.015480344 0.036325198 -0.03821911
0.058264695 0.0016488656 -0.0046319296 -0.011880234 -0.115097344 0.009324485 -0.0249246 0.07464895
0.053009026 -0.047945112 0.12855515 0.0340529 0.010290876 -0.0075439424 -0.024956916 0.04284787
0.069125734 0.0911238 0.21439858 0.03139369 -0.0848529 0.033992104 0.004122548 0.104488835
-0.020144755 -0.11634641 0.05366299 0.032880925 0.06479266 -0.050294735 0.0195651 0.09077911
0.02318518 0.040541597 0.08407188 0.051626038 -0.048826203 -0.01712013 -0.033041485 -0.058218185
0.15435347 -0.021836668 -0.03308924 -0.042353075 0.06183073 0.10908771 0.07511943 0.1755631
0.1674 0.15055813 0.11587482 0.087375976 -0.03200174 0.15205112 -0.0012463888 -0.040860992
0.018693866 0.11562701 0.055530164 0.06296757 -0.031333357 -0.018052518 -0.059492737 0.045194454
0.009913549 0.09928599 -0.031265542 0.11095704 0.02508992 -0.005657636 0.026888248 0.0802016
0.086278796 -0.046058092 0.056205854 -0.0426407 0.20987785 -0.03237127 -0.011463545 -0.031780392
0.062796675 -0.06329715 -0.025721438 -0.01770646 -0.013261936 -0.012736253 0.014720179 -0.019812793
-0.04559221 0.019212175 0.0404535 0.1311421 0.15874211 0.03617823 -0.049514633 0.15649684
-0.04383771 -0.111260705 0.050998144 0.03756528 0.09345411 -0.040364165 0.13115351 -0.016553707
0.021926586 0.076773286 0.00424347 0.10060181 -0.013802073 0.1369596 0.056701787 -0.017376795
-0.05235014 -0.016025776 0.039188463 -0.009469794 0.039146475 0.014962843 -0.080844216 0.0007951524
-0.07711582 -0.008266345 0.015553842 0.035343185 0.020639762 0.11423528 -0.048902154 -0.025528915
0.0063669113 -0.027022649 0.058652073 0.04701277 0.15379328 0.047190793 0.034922525 0.087729774

linear3.bias f4 [128]
00000000: f5ae 6bbd 91ac 88bd a135 413e 63f1 56bd
00000010: 145c 18bc 2a94 05be 7046 a6bc b2ae d43c
00000020: 75fd d9bc db2a 80bd 9c7c c4bc ea77 f93b
00000030: 38a7 51bd 5bf4 bbbd 7b7e 993c ee52 db3d
00000040: 0d69 81bd 703a 30bc 8170 223c f2e4 4dbd
00000050: 043c 623c 69cb 0e3e 6eb0 19bd 3897 e03c
00000060: d5ba 8bbd 196c cb3c 04d4 d43c c23d ffbc
00000070: 152b 73bd 3635 1cbd 80c5 043c 5d2b bbbd
00000080: 379d ab3d e3b1 2b3e 9604 18bd 4a4c 3a3c
00000090: 992c 3cbc 98d3 9bbd ac4f 6cbc 2762 c73d
000000a0: dcbb aeba fa8f 6fbc 83af 0e3e b30a 3cbd
000000b0: c447 73bc 2867 c0bc 74c3 66bd 48cf 18bb
000000c0: 413c e23d c9b0 3bbc eac6 0b3d 6916 47bc
000000d0: 51dc 09bd 07d3 a8bc 9a11 cdbd f96d 9d3b
000000e0: 7f40 c03b 7ccd 5f3c 205e 623c 253b e93d
000000f0: 32e1 94bd 10b6 09bc 4b00 40bc 4e73 193d
00000100: 2fc6 413c efda a0bc a026 5dbd ecc3 2ebd
00000110: 8990 83bd 54ab 853d 4e27 12bd 63f5 eabc
00000120: a54e 8b3c a285 803d daa6 ab3b 2bee 49bd
00000130: 202a acbd f8b7 6abd 3810 7fba 6316 503d
00000140: a428 b33d 553c edbc 9130 fabc 3c07 c2ba
00000150: 3a13 4dbd e504 f73c e38a 103e 8461 8cbd
00000160: 1735 4b3d a8a3 9e3e 0326 843c 201d 94bd
00000170: 5f9e 48bc 12c3 e83d 81c6 eb3d 50a9 61bd
00000180: 8421 243e 7348 76bd c1e2 603c c909 2d3d
00000190: ad1e d53d 7ecc 493d 9a32 da3d a053 1d3e
000001a0: 597d e6bc c2af 203e 3a93 143d ac2e 253d
000001b0: 9ba5 8dbd 30a0 8d3c 8788 473e 7b8f d53d
000001c0: ee61 fd3d f986 8a3c 66eb 2fbc f29d 83bc
000001d0: 5aef 69bd 40e5 77bd d093 07bc 604f 9bbc
000001e0: 7847 1ebd 62ea 713d 3dfc 05bd f5f6 98bd
000001f0: 1db1 973c ae55 a1bd 1d4e 89bd 13de 3c3e
-0.0575399 -0.066735394 0.18868114 -0.052476298 -0.009299297 -0.13044801 -0.02029726 0.025962207
-0.026610116 -0.06258174 -0.0239852 0.007613172 -0.051184863 -0.091774665 0.018737068 0.10709177
-0.06318865 -0.01075612 0.009914518 -0.050267167 0.013808254 0.13944782 -0.037521772 0.027415857
-0.06822745 0.024831818 0.025980003 -0.031157378 -0.059367258 -0.038136683 0.008103728 -0.0913913
0.08379596 0.16767077 -0.03711375 0.011370728 -0.011485242 -0.07608718 -0.014423292 0.09735518
-0.0013331133 -0.014621729 0.1393414 -0.04590864 -0.014848653 -0.023486689 -0.056338742 -0.0023316909
0.11046649 -0.011455723 0.034125246 -0.012151339 -0.033657376 -0.020608438 -0.10013123 0.0048043695
0.0058670635 0.013659831 0.013816386 0.11388234 -0.07269515 -0.0084052235 -0.01171882 0.03746348
0.011827036 -0.019635646 -0.053991914 -0.042667314 -0.06424052 0.06526819 -0.035682015 -0.028681463
0.017005274 0.062754884 0.005238396 -0.0492994 -0.08406472 -0.057304353 -0.0009729895 0.0508026
0.08747986 -0.028959433 -0.030540736 -0.0014803181 -0.050067164 0.030153701 0.14115481 -0.06854537
0.049611177 0.30984235 0.016131407 -0.07232118 -0.01224479 0.11365332 0.11512471 -0.05509311
0.1602841 -0.060127687 0.013725937 0.04224566 0.104062416 0.049267285 0.10654183 0.15363932
-0.028135942 0.15692046 0.03627322 0.040327713 -0.06916352 0.017288297 0.19485675 0.10427757
0.12372194 0.016910063 -0.010737276 -0.016066525 -0.05711303 -0.060521364 -0.008274987 -0.018958747
-0.038642377 0.059061415 -0.032711256 -0.07468978 0.018517071 -0.0787767 -0.06704352 0.1844409

linear4.weight f4 [3, 128]
00000000: b5cd eebd 6561 6bbd 8308 773e 5dbf 12bc
00000010: 6f1b 34be dc91 433d 6e68 9fbd 1e89 25be
00000020: ff7f 3dbe 8516 2bbc cd1d 98bc a3ef db3c
00000030: 2fa2 babd d82c 95bc 1169 983d 639f 803e
00000040: d55b ebbd cce8 3e3d d58b 07be 9147 89bd
00000050: a3f1 493d aa36 683e c984 14bb be0a 783d
00000060: e98b b2bd 309c 903d 4181 cb3c 43ea 47bc
00000070: f4f2 85bd 4f3b 07be 2af6 a93d e837 2bbe
00000080: 9087 3abc 9d20 6b3e f5aa acbc 0755 f3bc
00000090: 69b0 453d 7586 453d 73e8 803d df14 0c3e
000000a0: e63b 1bbd 1d26 13bd ed16 f93d 8255 4e3c
000000b0: 2cdd a83c 548e 373d e10b f3bc f337 86bc
000000c0: 3ba2 643d 9f9a 95bd 04df 06be cad9 8b3d
000000d0: 7dcb 233d 2a47 43bd 6c64 b73d cf40 5ebd
000000e0: 4c9e c33c 9b1a c9bc 3896 c9bc edec 543e
000000f0: ae4d 593d 61b4 afbd a4c9 cabc c664 7abd
00000100: f2da 0a3c a269 0fbb 153f 09bd 4505 a23d
00000110: 1c52 23bd 5fe4 17be f0b9 6d3c 4406 aa39
00000120: eb1e 4bbd c385 213e a212 463d f0bf 1bbd
00000130: be20 46be 11aa 143d c295 963d a907 af3c
00000140: 67d0 05bd f70e b7bb b8c8 ca3d ced9 3a3c
00000150: 7d98 48be d821 1dbe 356a 193e 71b4 dc3c
00000160: 74df c1bd 4b18 383e 365a 23be 3084 223d
00000170: 871f 1d3c 7880 9c3d 23a4 813d 0c47 9cbd
00000180: cab3 343e 1d54 c6bc c181 21bc e355 913d
00000190: b6cf cc3d 76f9 4bbc 124f c0bc 597a 293e
000001a0: ed17 8dbc 51db 1e3e 0c9b 05bd 5593 9cbd
000001b0: 632d 1fbc 8f09 843d 1781 583e 4420 353d
000001c0: 8a3f 753d 9b35 a33c 8b89 7ebd 3dc0 c13c
000001d0: e277 173c f71f 1ebe 2053 71bd eaeb 4c3d
000001e0: d6ff d8bc 54f6 92bd 69c4 ccbb 0e9b 9bbc
000001f0: fc4c 2fbd a712 afbb 2c81 57bd f853 1b3e
00000200: 0bdc c43d dfa6 653d 3922 42bd dfed f8bc
00000210: 3981 1bbd 42b4 df3d 07ca bbbd 9e9a bcbd
00000220: 8509 143e b802 0fbc 295c fa3c dde3 6dbd
00000230: b75f 16be 78e5 e73d 7b89 7f3a 5c05 a5bd
00000240: 28df 863d 1f60 87bd dd2e 95bd 15a2 fc3d
00000250: 9e08 8e3d 52fb c13d 3ee5 65bd 21b2 803d
00000260: f852 0ebd d5ca 253e 5432 fbbd b287 313e
00000270: 3028 58bd 2a3b a03d a663 87bd f1a9 cf3c
00000280: f568 22bd 97bc 1e3e 567e ddbd 0814 0e3d
00000290: d4ed 83bc 19f9 74bc 5ae8 b8bc a355 c43d
000002a0: 8b6e 843b 1124 7f3d 803d 5c3c ec65 99bd
000002b0: 2421 493c fa66 ac3d 35a7 ffbd ff34 f23b
000002c0: 4bfb 9abd 0bd1 d4bd 4d7e 33bd b316 9cbd
000002d0: 5935 f63c 0674 8e3d aa66 973d 3002 45be
000002e0: f0c6 82bb c7cb a0bd 41cf a1bd 6324 093e
000002f0: e408 1b3d 4861 b0bd e80d bdbb faa6 313d
00000300: 4734 2a3c 3919 bb3c bab1 ffbc 2903 eeba
00000310: b3fc ce3a dc73 fdbd d12e 9e3d 260e 66bd
00000320: 9829 86bc feff 213e c0cb 8ebc da93 cbbb
00000330: 5566 183e 7f28 533d 8811 0cbe 6d14 cbbd
00000340: 3418 9cbd 2077 aebd 70c3 acbd 6394 653d
00000350: 5134 f73c 535b 193d 391f 0ebd 36e6 0c3d
00000360: fd72 a9bd 73a8 9a3d b434 b03d 32ec 873d
00000370: d9e9 a3bd 5041 97bd 1c0f 22be fa45 783d
00000380: d960 253d 62a6 4abd 27f2 a9bb 1d4b 58bd
00000390: 48db 303c ae19 95bd 82e8 fcbd 4962 15be
000003a0: 50c5 3bbc 332b 893d fc70 d73c ba53 1ebe
000003b0: 6a16 7d3d 24db 92bd d52a b63d fe43 1cbe
000003c0: e08c 0fbe 21da 363b f417 723d e313 2f3c
000003d0: 3613 263d 10de 82bc 38a0 cabc 1bfe 1cbd
000003e0: b34f 48bd 70b0 313d f084 393d b7b3 433d
000003f0: 1b6b f4bd 419c 8c3d 8e0f 92bd 5de3 6d3d
-0.11660329 -0.05746593 0.2412434 -0.008956757 -0.1758859 0.047746524 -0.0778359 -0.16165587
-0.18505858 -0.010442381 -0.018568898 0.026847666 -0.09112965 -0.01820986 0.07441915 0.25121602
-0.11492125 0.04660873 -0.13236935 -0.06703103 0.04930271 0.22677103 -0.0022662154 0.06055712
-0.08718092 0.070610404 0.024841907 -0.012201848 -0.0654048 -0.13206218 0.08298905 -0.16720545
-0.01138486 0.2296166 -0.021077612 -0.02970363 0.04826394 0.04822393 0.06294336 0.13679837
-0.03789892 -0.03592502 0.12162576 0.012593629 0.020613275 0.04481347 -0.02966875 -0.0163841
0.055818778 -0.07304882 -0.13171011 0.06828649 0.039988983 -0.04767529 0.08954701 -0.054261025
0.023879193 -0.02454882 -0.024607763 0.20793505 0.053052597 -0.085793264 -0.024754353 -0.06113126
0.008475052 -0.002188303 -0.033507425 0.07911161 -0.039873227 -0.1483321 0.014509663 0.00032429595
-0.049590033 0.15773682 0.048357613 -0.038024843 -0.19348428 0.036295 0.07352783 0.021365957
-0.03266945 -0.0055865007 0.09901565 0.011404468 -0.1958942 -0.15344942 0.14981921 0.02694151
-0.094664484 0.17978017 -0.15952381 0.039676845 0.009590036 0.07641691 0.06330135 -0.076307386
0.17646709 -0.02421003 -0.009857596 0.0709646 0.10000555 -0.012449613 -0.023475204 0.16550578
-0.017223323 0.1551335 -0.032618567 -0.07645289 -0.009715411 0.06447136 0.21142994 0.044220224
0.05987505 0.019923022 -0.06214289 0.023651237 0.009244891 -0.15441881 -0.058917165 0.050029673
-0.02648918 -0.071758896 -0.006249 -0.018994834 -0.042798027 -0.0053427997 -0.052613422 0.1516875
0.09612282 0.056067344 -0.04739592 -0.030386863 -0.037965033 0.10923053 -0.09169393 -0.092091784
0.14456756 -0.008728676 0.030561524 -0.058078635 -0.1468495 0.113230646 0.0009747964 -0.08057663
0.065855324 -0.066101305 -0.07284329 0.12335602 0.06935237 0.09471764 -0.056126826 0.062839754
-0.034747094 0.16190656 -0.12265459 0.1733692 -0.0527727 0.07823785 -0.06610803 0.025349589
-0.039650876 0.15501629 -0.10815112 0.034687072 -0.016104616 -0.014951968 -0.022571731 0.095866464
0.004041498 0.062290255 0.013442397 -0.07490143 0.012275968 0.08418079 -0.12483064 0.0073915715
-0.075674616 -0.10391434 -0.04382162 -0.07621517 0.030054735 0.069557235 0.073926285 -0.19239116
-0.0039910004 -0.078513674 -0.07900859 0.13392787 0.037850276 -0.08612305 -0.00576948 0.043372132
0.01038844 0.022839176 -0.031212676 -0.0018158901 0.0015791863 -0.12375614 0.07723773 -0.056165837
-0.016377255 0.1582031 -0.01743114 -0.0062126936 0.14882787 0.051552292 -0.13678563 -0.09916005
-0.07621804 -0.08518815 -0.08435714 0.056049716 0.030176314 0.03744061 -0.034697745 0.034399234
-0.082738854 0.075516604 0.08603802 0.066368476 -0.08003587 -0.07385504 -0.15826076 0.06061361
0.040375564 -0.04947508 -0.0051863375 -0.05280601 0.010794468 -0.07280289 -0.12349035 -0.14588274
-0.011460617 0.06697693 0.026298992 -0.15461627 0.061788954 -0.07170704 0.08894888 -0.15260312
-0.14018583 0.002790101 0.059104875 0.010685894 0.040545665 -0.015975028 -0.024734601 -0.03832827
-0.048904132 0.043381155 0.045292795 0.04777881 -0.11934491 0.068657406 -0.07131873 0.05807816

linear4.bias f4 [3]
00000000: ac92 183e 816b b1bd 4d01 8b3d
0.14899701 -0.08663083 0.067873575
