model/model.pth (torch, 687784 bytes, 8 tensors)

linear1.weight f4 [512, 12]
-0.048165962 -0.40938273 -0.027151717 0.26025054 0.0054026814 -0.0038842123 0.16030124 -0.38176012
0.16188894 -0.08195088 0.07757715 -0.21904008 0.059988633 0.12480024 0.31866962 -0.16572993
-0.1410474 -0.017768301 -0.339618 0.15637745 -0.03193333 -0.08180415 0.10976931 0.23058319
-0.081142135 -0.17840675 -0.14154352 -0.24168475 0.1586837 -0.094395146 0.14816537 0.01162589
-0.1320827 -0.18434697 -0.15911643 -0.29995176 -0.07027911 -0.28993136 -0.0022199915 -0.16657284
0.27683005 0.33201897 -0.0018345959 0.2446874 0.1846324 -0.046327174 0.1678759 -0.08640311
0.0053506508 -0.23897746 -0.21368726 0.05547816 0.09975853 -0.18620503 -0.12967017 -0.25914747
0.04484872 -0.267135 -0.16435003 -0.04757361 0.14703116 -0.16922073 -0.3604135 0.08194855
-0.34289706 0.09224863 0.38389662 0.07681721 0.20093195 0.37494913 -0.32074448 -0.4889536
0.1893759 0.23055519 -0.06775464 -0.13805023 -0.28230387 -0.19946468 -0.12587154 -0.009393367
-0.16390356 -0.42333186 0.19688566 0.25861815 -0.31888616 0.07659064 -0.39620003 0.26496288
-0.010005043 -0.25136632 -0.29799557 0.12408206 0.23726715 -0.16783185 -0.12444597 0.08083177
0.17114806 0.31631106 -0.15406711 0.033061188 -0.027647896 -0.2568047 -0.16555363 0.24890523
0.20599273 0.21300699 -0.45288137 -0.09163172 -0.14401086 0.12621944 0.012511415 -0.28629085
0.3423559 0.2930471 0.0014451317 0.22152382 0.21375571 -0.38964507 0.0041276566 -0.09780943
-0.031123823 0.028518362 0.017382167 -0.28149077 -0.15661842 0.25294313 -0.31355318 0.29664582
0.29564875 -0.12002774 -0.08961563 0.1625173 -0.009142712 0.2871972 -0.15489279 -0.23739706
-0.14495504 0.03701836 0.28770575 0.2946867 0.2753289 -0.15370223 -0.073083326 0.2991735
-0.13492061 -0.10059138 -0.047124177 -0.10513772 -0.14993632 0.0370923 -0.13699543 -0.17517515
0.27167934 -0.042412415 -0.04075992 0.10986495 0.16943623 -0.3433574 -0.04172968 -0.02844174
0.10184301 -0.096538246 0.017604662 -0.33896926 -0.105697505 0.26392254 0.1847067 -0.1276811
0.28717464 -0.46938097 0.06833166 -0.2787908 -0.27756712 0.14020993 -0.015167361 0.28644577
-0.08864638 -0.18235415 0.19866337 0.022256795 0.03547125 0.18263353 -0.09699775 -0.32936713
-0.15126206 -0.16779724 0.18617444 0.20833802 0.0026955798 0.06770366 0.25868124 0.0399355
-0.19676003 -0.26094034 -0.20008226 -0.23912355 -0.042942453 0.14308718 -1.1967029e-05 0.2447854
-0.16415775 0.13423878 0.14604299 0.12530966 -0.22119391 0.20841002 -0.14298357 -0.076477766
0.2566856 0.12759207 0.098050095 -0.2769803 0.2257113 0.0050905854 0.15950656 -0.3875195
-0.14539246 -0.11695535 -0.27585343 0.02353952 0.2527416 0.24454677 0.24233088 -0.022162545
-0.29022276 -0.1765171 -0.089761406 -0.30488205 0.2625215 -0.35794482 -0.25847825 -0.1840232
-0.004158481 0.18174185 -0.31746808 0.123724036 -0.21562615 -0.074072555 -0.15503457 -0.0017533936
0.20015956 -0.34226972 -0.054267682 0.18683113 0.12288724 -0.21756166 0.31314066 -0.28635436
-0.27278697 -0.33646297 0.23726858 -0.07898743 0.27129033 -0.27157462 -0.047118735 -0.043139067
00000000: ac49 45bd 9d9a d1be 476d debc 8f3f 853e
00000010: fa08 b13b 458e 7ebb 0226 243e 1076 c3be
00000020: 37c6 253e ddd5 a7bd c5e0 9e3d 0b4c 60be
00000030: a4b6 753d 4597 ff3d aa28 a33e 1bb5 29be
00000040: bb6e 10be d48e 91bc 69e2 adbe 6921 203e
00000050: 86cc 02bd ef88 a7bd bbce e03d 001e 6c3e
00000060: d92d a6bd 42b0 36be c9f0 10be 357c 77be
00000070: fb7d 223e 3e52 c1bd aab8 173e 847a 3e3c
00000080: b040 07be 74c5 3cbe 6bef 22be 4793 99be
00000090: 7eee 8fbd e271 94be 477d 11bb 1292 2abe
000000a0: abbc 8d3e 64fe a93e d376 f0ba 558f 7a3e
000000b0: 4710 3d3e 90c1 3dbd a9e7 2b3e 1df4 b0bd
000000c0: 8354 af3b 82b6 74be d5d0 5abe 113d 633d
000000d0: 334e cc3d 88ac 3ebe 42c8 04be faae 84be
000000e0: 4bb3 373d ebc5 88be 604b 28be 8cdc 42bd
000000f0: 568f 163e 3348 2dbe 1e88 b8be a4d4 a73d
00000100: 3490 afbe daec bc3d 198e c43e 5752 9d3d
00000110: 1bc1 4d3e 55f9 bf3e 9f38 a4be 2058 fabe
00000120: c2eb 413e a916 6c3e f2c2 8abd 0a5d 0dbe
00000130: 228a 90be 7840 4cbe 78e4 00be a3e6 19bc
00000140: 56d6 27be f4be d8be 659c 493e 9969 843e
00000150: 0c45 a3be 8edb 9c3d bbda cabe 37a9 873e
00000160: 31ec 23bc 16b3 80be e092 98be bc1e fe3d
00000170: 29f6 723e 1ddc 2bbe 87dd febd 218b a53d
00000180: 7041 2f3e 86f3 a13e c5c3 1dbe 2b6b 073d
00000190: d77d e2bc e87b 83be e486 29be 03e1 7e3e
000001a0: c2ef 523e 811e 5a3e 11e0 e7be 69a9 bbbd
000001b0: 9577 13be ab3f 013e aefc 4c3c b794 92be
000001c0: 4649 af3e 450a 963e 936a bd3a 24d7 623e
000001d0: c7e2 5a3e 8f7f c7be 4b41 873b 4f50 c8bd
000001e0: 63f7 febc 579f e93c 0c65 8e3c 8f1f 90be
000001f0: 9460 20be c381 813e 0b8a a0be f6e1 973e
00000200: 465f 973e 1bd1 f5bd 6688 b7bd ef6a 263e
00000210: 50cb 15bc 830b 933e 379c 1ebe 3718 73be
00000220: 186f 14be 90a0 173d 2b4e 933e 2de1 963e
00000230: e9f7 8c3e 1e64 1dbe b6ac 95bd 452d 993e
00000240: a128 0abe da02 cebd 4805 41bd 7252 d7bd
00000250: e888 19be 18ee 173d 8848 0cbe 1d61 33be
00000260: 8e19 8b3e a4b8 2dbd e0f3 26bd e000 e13d
00000270: b180 2d3e 8bcc afbe beec 2abd a7fe e8bc
00000280: 1193 d03d d8b5 c5bd a737 903c 618d adbe
00000290: ef77 d8bd db20 873e c123 3d3e d6be 02be
000002a0: 8e08 933e b452 f0be 78f1 8b3d abbd 8ebe
000002b0: 471d 8ebe 3193 0f3e 8680 78bc 05a9 923e
000002c0: 3c8c b5bd 0cbb 3abe 696e 4b3e e253 b63c
000002d0: 4d4a 113d 4904 3b3e c2a6 c6bd cfa2 a8be
000002e0: 71e4 1abe 0ad3 2bbe 83a4 3e3e 9056 553e
000002f0: 53a8 303b 37a8 8a3d de71 843e 6893 233d
00000300: 767b 49be f999 85be 5de2 4cbe cedc 74be
00000310: 6de4 2fbd 7285 123e 00c6 48b7 06a9 7a3e
00000320: f818 28be e475 093e 4b8c 153e 2d51 003e
00000330: a880 62be 7069 553e 496a 12be 60a0 9cbd
00000340: 4c6c 833e 7fa7 023e 7dce c83d 5dd0 8dbe
00000350: dd20 673e edce a63b b055 233e f568 c6be
00000360: c3e1 14be 4986 efbd a93c 8dbe f4d5 c03c
00000370: 5967 813e 786a 7a3e 9625 783e 3a8e b5bc
00000380: 1498 94be e6c0 34be d4d4 b7bd 8019 9cbe
00000390: 3869 863e 8b44 b7be 4357 84be 9470 3cbe
000003a0: de43 88bb 891a 3a3e 2d8b a2be 0763 fd3d
000003b0: 1acd 5cbe 5ab3 97bd 62c1 1ebe 20d2 e5ba
000003c0: a1f6 4c3e fa3d afbe ca47 5ebd a950 3f3e
000003d0: 4eac fb3d 7cc8 5ebe f953 a03e 0a9d 92be
000003e0: bcaa 8bbe e044 acbe 89f6 723e 29c4 a1bd
000003f0: 91e6 8a3e d40b 8bbe 93ff 40bd 97b2 30bd

linear1.bias f4 [512]
0.02837479 0.14953856 0.07738057 -0.09025038 -0.08246542 -0.05635457 0.11566401 -0.31888422
0.012035582 -0.16461685 0.07181605 -0.18084404 -0.19601965 0.17388788 -0.10032269 0.2073992
0.03611 -0.10263541 0.035906985 -0.1700124 -0.23065084 -0.22800085 -0.0725579 -0.057789385
-0.119527556 0.2578827 -0.044873577 -0.23396538 0.29982096 -0.051810313 0.1337683 -0.11480801
0.260691 -0.34719214 -0.07007018 0.06331197 -0.02458999 -0.1986086 0.036821604 0.20900567
-0.15220828 -0.13801719 0.066503204 0.031629555 -0.058752682 0.10085985 0.048750583 -0.13832834
-0.26251844 -0.1326855 -0.13426562 -0.03950246 -0.030003639 0.29320017 0.053220842 0.13717696
-0.11603549 0.239994 0.064322546 0.16687143 -0.03723629 -0.15394782 -0.085975304 0.19499071
0.14473161 -0.19212615 -0.119926415 0.08396705 -0.2711177 -0.124312446 0.08659836 0.09647132
-0.1494591 -0.19036226 -0.23900148 0.104315564 -0.11526714 0.30497792 0.02963128 -0.06590513
-0.10437396 0.0623031 0.120771624 0.012741196 -0.12689342 -0.07781546 -0.1927681 0.120175414
0.008215608 -0.12590282 0.14160985 -0.118799776 -0.13188604 -0.07726727 -0.021103935 0.28197572
0.10147998 -0.038323652 -0.29577765 0.12004267 0.18271282 0.06838986 0.18779926 -0.07404453
-0.17252606 0.2728702 -0.037821334 -0.10611828 -0.14396864 -0.03719108 -0.12884246 0.05169778
-0.105513185 -0.22522576 0.100604855 -0.097631805 -0.14516287 -0.09320449 0.028983084 -0.047318615
-0.015430775 0.046649158 0.077894546 0.2502571 -0.16537403 0.16519266 0.22075203 0.09586423
0.029026505 -0.17895721 0.03990541 0.332814 -0.029853128 0.42277905 0.26603568 0.1645325
0.19859469 -0.098637156 0.22885713 -0.10861199 0.0064750337 -0.12362321 -0.042808056 -0.22450915
0.03587691 -0.29640067 -0.16491729 0.29193255 -0.22991335 -0.037917677 0.03030863 -0.14994654
-0.028093759 0.19258186 0.19341378 -0.16510111 -0.09898663 -0.09458113 0.011192333 -0.048754487
-0.16434588 -0.10197252 0.21659161 0.010742109 -0.18521844 0.16934925 0.054427776 -0.004393768
-0.07212952 -0.041915927 0.15044673 0.048790056 -0.102600954 -0.011813083 -0.19975528 0.07780524
-0.15247469 -0.079065315 0.21583875 0.08990919 0.15265505 0.025112327 0.21149994 0.0016608612
-0.06699097 0.096716 -0.16273072 0.10455671 0.114122115 0.0379282 0.04080596 -0.28666642
0.063835904 0.052100584 0.09413589 -0.07685075 -0.27823657 -0.20054977 0.047292676 0.107681274
0.07088654 -0.069173016 0.1737095 0.3389856 0.17424278 0.12046836 -0.09931594 0.014330541
0.029697433 -0.0063538323 0.21513185 0.05305136 -0.24556638 -0.0056750877 -0.09034573 -0.15711534
0.041508384 -0.33253807 -0.123031504 0.059683736 -0.0026729447 -0.33697456 0.09256233 -0.018557968
0.2121383 0.18148735 0.1337977 0.43116453 0.12047768 -0.05223242 0.076994225 -0.21072301
0.026178345 -0.11860785 -0.1577855 -0.22135362 0.05980536 0.30719623 -0.22044198 -0.16502956
0.02677887 0.2429392 0.16925144 -0.07774958 -0.053441834 -0.20833111 0.013898926 -0.14302658
-0.22872587 -0.10180834 -0.13876908 -0.0632642 -0.008335587 -0.23920032 0.20224181 -0.18316258
00000000: 3f72 e83c a320 193e b479 9e3d 31d5 b8bd
00000010: a1e3 a8bd 0dd4 66bd 41e1 ec3d cb44 a3be
00000020: e430 453c 5291 28be 4b14 933d 2e2f 39be
00000030: 60b9 48be aa0f 323e fc75 cdbd 7560 543e
00000040: 14e8 133d 8432 d2bd 3413 133d bb17 2ebe
00000050: bc2f 6cbe 0e79 69be 3c99 94bd 90b4 6cbd
00000060: ddca f4bd 3409 843e 5bcd 37bd 9f94 6fbe
00000070: 2282 993e 0d37 54bd 8ffa 083e 7620 ebbd
00000080: 4a79 853e 2bc3 b1be f480 8fbd b5a9 813d
00000090: f270 c9bc 0e60 4bbe 40d2 163d 9505 563e
000000a0: 7ddc 1bbe 6154 0dbe d532 883d fe8d 013d
000000b0: a7a6 70bd 9c8f ce3d b1ae 473d f2a5 0dbe
000000c0: d168 86be b5de 07be ed7c 09be 55cd 21bd
000000d0: 31ca f5bc 551e 963e 19fe 593d 1e78 0c3e
000000e0: 04a4 edbd fdc0 753e 8abb 833d 58e0 2a3e
000000f0: 1485 18bd 7fa4 1dbe d213 b0bd a5ab 473e
00000100: 8634 143e b8bc 44be fb9b f5bd ebf6 ab3d
00000110: f0cf 8abe 8697 febd 7b5a b13d c192 c53d
00000120: ce0b 19be 53ee 42be cebc 74be 66a3 d53d
00000130: 2e11 ecbd 1126 9c3e 4cbd f23c 45f9 86bd
00000140: 04c2 d5bd 8931 7f3d 1d57 f73d 73c0 503c
00000150: 59f0 01be b65d 9fbd 0065 45be 871e f63d
00000160: c29a 063c abec 00be 2c02 113e 4c4d f3bd
00000170: 220d 07be 4d3e 9ebd 29e2 acbc 1f5f 903e
00000180: bcd4 cf3d 43f9 1cbd 2b70 97be eed8 f53d
00000190: 1219 3b3e fc0f 8c3d 734e 403e a9a4 97bd
000001a0: acaa 30be a5b5 8b3e 8bea 1abd 8a54 d9bd
000001b0: 846c 13be ad55 18bd 47ef 03be 0dc1 533d
000001c0: 4c17 d8bd 95a1 66be eb09 ce3d 2ff3 c7bd
000001d0: 93a5 14be ffe1 bebd ef6d ed3c 2ad1 41bd
000001e0: 5cd1 7cbc 3013 3f3d 2d87 9f3d b321 803e
000001f0: cf57 29be 4428 293e d20c 623e 7754 c43d
00000200: fec8 ed3c 8f40 37be db73 233d 9966 aa3e
00000210: 8c8e f4bc 7f76 d83e d435 883e 357b 283e
00000220: 685c 4b3e 4702 cabd 8659 6a3e f76f debd
00000230: 852c d43b 2a2e fdbd 8057 2fbd bae5 65be
00000240: abf3 123d d4c1 97be 14e0 28be 2f78 953e
00000250: 686e 6bbe 914f 1bbd ce49 f83c 968b 19be
00000260: e224 e6bc 2e34 453e 430e 463e 4410 29be
00000270: 81b9 cabd c0b3 c1bd 0c60 373c c9b2 47bd
00000280: 494a 28be f8d6 d0bd 31ca 5d3e acff 2f3c
00000290: e7a9 3dbe e469 2d3e a9ef 5e3d 99f9 8fbb
000002a0: a4b8 93bd 09b0 2bbd b50e 1a3e 15d8 473d
000002b0: 7320 d2bd a98b 41bc a68c 4cbe 5b58 9f3d
000002c0: 5322 1cbe ffec a1bd d504 5d3e 4f22 b83d
000002d0: 9b51 1c3e 5eb8 cd3c 7193 583e 41b1 d93a
000002e0: 9032 89bd 0a13 c63d e2a2 26be d421 d63d
000002f0: dbb8 e93d 9a5a 1b3d 2624 273d f1c5 92be
00000300: 66bc 823d 6c67 553d 51ca c03d ed63 9dbd
00000310: 0675 8ebe eb5c 4dbe f7b5 413d 0088 dc3d
00000320: f62c 913d 95aa 8dbd e7e0 313e 858f ad3e
00000330: b36c 323e 1eb8 f63d 2866 cbbd a5ca 6a3c
00000340: 0848 f33c cf33 d0bb 864b 5c3e 624c 593d
00000350: c175 7bbe 16f6 b9bb 2f07 b9bd d8e2 20be
00000360: b204 2a3d 6e42 aabe f1f7 fbbd ef76 743d
00000370: 922c 2fbb ee87 acbe 5291 bd3d e106 98bc
00000380: c83a 593e d2d7 393e 4402 093e 99c1 dc3e
00000390: 00bd f63d a9f1 55bd 26af 9d3d c6c7 57be
000003a0: f873 d63c ace8 f2bd 8692 21be 86aa 62be
000003b0: 77f6 743d d348 9d3e 8bbb 61be 82fd 28be
000003c0: 5c5f db3c 0ec5 783e 4050 2d3e 2c3b 9fbd
000003d0: d3e5 5abd c054 55be 52b8 633c 8f75 12be
000003e0: 1d37 6abe e480 d0bd 7b19 0ebe a990 81bd
000003f0: fc91 08bc eef0 74be 7a18 4f3e f98e 3bbe

linear2.weight f4 [256, 512]
0.018883117 -0.007904681 -0.008761462 -0.019667704 0.009553984 -0.007914665 -0.0025364459 0.008480806
-0.0038963493 -0.026854774 -0.054454736 0.024332825 0.010700565 -0.032270193 0.040352527 -0.04331402
0.012092862 0.027756676 0.038652714 -0.026010616 0.012776781 0.024771784 0.01943117 -0.04979817
-0.011652924 -0.048150897 0.02856781 0.010617934 -0.021116262 -0.040267892 -0.038868465 0.02123772
-0.04699089 0.0060648127 0.013138974 0.0431198 -0.054418713 -0.043926578 0.006747894 0.017494597
-0.0012839921 0.016872173 -0.025063109 -0.043029856 -0.024187807 0.001463652 -0.055930838 -0.041224137
0.003705684 -0.050129157 -0.029764201 -0.037842948 -0.00728957 -0.042674284 -0.024124729 -0.017163519
-0.0065083667 -0.030181073 -0.047537874 -0.027800467 -0.019632459 -0.039190117 -0.018649852 -0.05864148
0.003656812 0.007806506 -0.016673625 -0.027084623 -0.03330316 0.0019163127 -0.03706993 -0.043600835
-0.018488973 0.040584307 0.028145146 -0.040490318 -0.042447265 0.013710255 -0.039027695 -0.030310676
-0.037445057 -0.0004920475 0.009401873 -0.04762107 0.033758927 -0.031547174 -0.0034750327 -0.015210641
-0.009495147 -0.04051719 0.017586045 -0.031474184 -0.03572584 0.041025337 0.007571172 0.035997387
0.016684655 0.010752894 -0.049254425 -0.028085759 -0.053386204 -0.0020914525 -0.012931999 0.01716347
0.03294005 -0.008779111 0.039459195 0.03077865 -0.01772454 -0.03470812 0.023976592 -0.03621323
-0.03382425 -0.017684411 0.021222474 -0.014614984 0.04047009 0.04125968 -0.016791662 0.029311936
0.008001753 -0.022123897 0.0037788823 0.0010900237 0.019036304 -0.05917463 -0.04263413 0.006757251
-0.029681813 0.030576538 0.004805058 -0.000602141 -0.0014985092 -0.0032053806 0.019161597 -0.047551274
0.00753568 -0.037266012 -0.0034966855 -0.026354618 -0.0068132053 0.014215743 0.0049292543 -0.020707754
-0.043983866 0.014096018 -0.045574076 -0.016418347 0.012731057 -0.04796062 -0.0009084691 -0.047620185
-0.012461306 0.016933367 -0.039594937 0.017483955 -0.008717155 -0.00010399236 -0.013651958 -0.041516516
-0.0022106878 -0.03604845 -0.027432708 -0.0002238119 1.5996397e-05 -0.034672357 -0.024042979 -0.0402084
-0.021907844 -0.026989177 0.014044203 0.030808043 0.028307732 0.042398784 -0.025066411 -0.029262152
0.031101976 0.021026216 0.014691718 -0.0054263547 -0.026832929 -0.011997658 -0.0019635 -0.030414393
-0.011828728 -0.014916113 0.013012055 0.0057424605 -0.005362192 -0.013973897 0.01620554 0.0056228773
-0.02579721 -0.050658703 0.026535075 0.031728785 -0.029715018 -0.02368609 -0.053452693 0.014254384
-0.031523053 0.021661974 0.019084405 0.0073061623 -0.033119306 -0.054670986 0.025928464 -0.02161097
0.023264417 0.015400046 0.0068308935 0.023515718 -0.02249909 -0.02365563 -0.037635744 0.012339134
-0.010389701 -0.025601797 0.01844829 -0.009406303 0.019754732 -0.0320851 -0.04645983 -0.051146798
0.0093953125 -0.027905919 -0.030094944 0.021063957 -0.041843627 0.009793736 -0.014591591 -0.040801436
-0.054375272 -0.023485389 0.0060225646 -0.030674301 0.01253749 0.010670132 0.009206466 -0.04136972
-0.021709647 -0.034922853 -0.032046504 0.019385878 -0.039413776 -0.0075893663 -0.004937481 0.040113475
-0.002277583 -0.013342396 0.03951286 0.012020212 0.024121068 -0.0013868362 -0.018254558 -0.03139927
00000000: c4b0 9a3c a382 01bc 3c8c 0fbc 2a1e a1bc
00000010: 5088 1c3c 83ac 01bc 803a 26bb 14f3 0a3c
00000020: e559 7fbb 8bfe dbbc ee0b 5fbd a255 c73c
00000030: 6c51 2f3c c02d 04bd b148 253d 0b6a 31bd
00000040: 2421 463c f861 e33c 4f52 1e3d 3714 d5bc
00000050: b455 513c 32ee ca3c 1e2e 9f3c 2af9 4bbd
00000060: e8eb 3ebc e039 45bd 0a07 ea3c d8f6 2d3c
00000070: 03fc acbc f2ef 24bd 8a34 1fbd bafa ad3c
00000080: 8579 40bd 56bb c63b da44 573c 639e 303d
00000090: 28e6 5ebd 5bec 33bd 701d dd3b d450 8f3c
000000a0: a04b a8ba 8337 8a3c 2651 cdbc 1340 30bd
000000b0: 8225 c6bc 03d8 bf3a bc17 65bd a4da 28bd
000000c0: 10db 723b 3b54 4dbd 0ed4 f3bc 3501 1bbd
000000d0: 58dd eebb 3bcb 2ebd 39a1 c5bc 829a 8cbc
000000e0: 2344 d5bb 4c3e f7bc 13b7 42bd cebd e3bc
000000f0: 40d4 a0bc d185 20bd 93c7 98bc 0c32 70bd
00000100: 20a7 6f3b b8cd ff3b 2097 88bc 92e0 ddbc
00000110: e568 08bd c92c fb3a a4d6 17bd ca96 32bd
00000120: 3076 97bc bb3b 263d a690 e63c 2dd9 25bd
00000130: 2fdd 2dbd faa0 603c 81db 1fbd 184e f8bc
00000140: fd5f 19bd c0fc 00ba 500a 1a3c 500e 43bd
00000150: cd46 0a3d 9c37 01bd 60bd 63bb 0d36 79bc
00000160: 8891 1bbc 5af5 25bd 9c10 903c 13eb 00bd
00000170: 4255 12bd 2f0a 283d 9817 f83b ff71 133d
00000180: 42ae 883c e82c 303c 02bf 49bd 1b14 e6bc
00000190: 7eab 5abd c010 09bb bce0 53bc 689a 8c3c
000001a0: 25ec 063d 43d6 0fbc f79f 213d 8223 fc3c
000001b0: 0e33 91bc 1a2a 0ebd 8f6a c43c 5354 14bd
000001c0: 4c8b 0abd e6de 90bc c1da ad3c b073 6fbc
000001d0: f7c3 253d e9ff 283d ab8e 89bc 961f f03c
000001e0: c919 033c 2d3d b5bc 20a7 773b 20df 8e3a
000001f0: 06f2 9b3c 1961 72bd 20a1 2ebd ee6b dd3b
00000200: 4627 f3bc a67b fa3c bf73 9d3b 00d9 1dba
00000210: a069 c4ba 5d11 52bb c8f8 9c3c 20c5 42bd
00000220: deed f63b 3fa4 18bd a628 65bb a4e5 d7bc
00000230: 4f41 dfbb 26e9 683c 9585 a13b 4fa3 a9bc
00000240: 6d28 34bd fcf2 663c e2ab 3abd c57f 86bc
00000250: ec95 503c 5b72 44bd 5426 6eba 620d 43bd
00000260: 812a 4cbc d8b7 8a3c 4d2e 22bd 833a 8f3c
00000270: 66d2 0ebc 7916 dab8 76ac 5fbc 390d 2abd
00000280: 30e1 10bb 8aa7 13bd 8fba e0bc 0daf 6ab9
00000290: 0030 8637 9a04 0ebd c8f5 c4bc 90b1 24bd
000002a0: 1478 b3bc 6818 ddbc a819 663c 2661 fc3c
000002b0: 9ee5 e73c 59aa 2d3d 1358 cdbc 2eb7 efbc
000002c0: 92c9 fe3c 2c3f ac3c 88b5 703c 90cf b1bb
000002d0: bbd0 dbbc d391 44bc 10ae 00bb 9b27 f9bc
000002e0: 48cd 41bc b662 74bc 8430 553c 402b bc3b
000002f0: 54b5 afbb c6f2 64bc 7bc1 843c 1d40 b83b
00000300: ac54 d3bc 807f 4fbd 1660 d93c 0bf6 013d
00000310: e96c f3bc 5509 c2bc 36f1 5abd 388b 693c
00000320: 511e 01bd 7474 b13c e656 9c3c 8868 ef3b
00000330: 1ca8 07bd afee 5fbd ee67 d43c 7d09 b1bc
00000340: 0595 be3c 7950 7c3c b0d5 df3b 09a4 c03c
00000350: 0350 b8bc 74c9 c1bc f027 1abd 142a 4a3c
00000360: 9139 2abc dcba d1bc de20 973c e51c 1abc
00000370: add4 a13c aa6b 03bd aa4c 3ebd 4e7f 51bd
00000380: ccee 193c f49a e4bc ac89 f6bc 528e ac3c
00000390: 3964 2bbd e875 203c 9211 6fbc 681f 27bd
000003a0: 9bb8 5ebd 6e64 c0bc ef58 c53b ac48 fbbc
000003b0: 0b6a 4d3c c7d1 2e3c b8d6 163c 4c73 29bd
000003c0: 6ed8 b1bc 440b 0fbd 3243 03bd 22cf 9e3c
000003d0: 5770 21bd 38b0 f8bb 98ca a1bb 074e 243d
000003e0: 8043 15bb 119a 5abc 3dd8 213d 6cf0 443c
000003f0: 8c99 c53c 80c6 b5ba 958a 95bc 859c 00bd

linear2.bias f4 [256]
-0.031634092 -0.072446615 -0.008131755 -0.00469483 -0.035459753 -0.07436961 0.003717928 -0.048383065
-0.015689489 -0.05929576 -0.023959566 0.010460835 -0.052219033 0.013048849 -0.033921957 0.11416026
-0.017522622 -0.049519703 0.054481864 -0.058112904 0.005577119 0.017853672 0.020398844 0.03681361
-0.03618753 0.005030733 -0.012005807 -0.08115043 0.029408542 -0.0313475 0.29285857 -0.0016343618
-0.057896554 0.032040417 -0.005463514 -0.03508541 0.017682072 -0.04988323 0.03465543 0.068142936
0.0014818652 0.07413784 -0.051357865 -7.0319686e-05 0.030170016 -0.0059520626 -0.017080087 -0.033402003
0.036308873 0.058009624 0.019193206 -0.008096944 -0.03336838 0.099645995 0.07928061 -0.03730969
0.033811387 0.06979288 -0.051521566 0.07505692 0.02348586 -0.00913138 -0.02276715 0.038176753
0.010836048 -0.09264584 -0.0073036742 0.021029314 -0.038443804 -0.037797112 -0.021854818 -0.09031723
0.07605157 0.005752514 -0.02901071 -0.021370025 0.103314735 0.002352365 -0.09998211 0.0071744067
0.04645744 -0.054645676 -0.05985908 -0.05667815 -0.0833844 0.234553 -0.041249454 0.038435627
0.29825196 -0.027340205 0.012213477 0.05023151 -0.0001864458 0.100753315 -0.049758703 0.050797
-0.037873253 -0.04124624 0.033514876 0.023127018 0.21598694 -0.07771484 0.2221813 -0.055527583
-0.06009035 -0.13090071 -0.045714695 -0.032939557 0.026895553 -0.007903855 -0.03444295 0.016168246
0.0067249103 0.013103615 0.0092043895 -0.061567362 -0.116908185 0.002726164 -0.019380858 -0.012712831
-0.02802808 -0.011155847 -0.03497699 -0.055590883 -0.051527496 0.06882091 0.031183831 0.013481627
0.033398904 0.025882373 -0.08557041 -0.015487433 -0.048154984 -0.011757505 -0.02722121 -0.041631877
-0.008948406 -0.018088685 -0.042962514 -0.015315163 0.09746187 0.024917789 -0.028155588 0.01887285
-0.03452653 -0.04685044 0.02757318 0.06967798 0.003904955 0.05947917 0.03799886 0.088758595
-0.014344093 0.08044534 0.0066537512 -0.004570409 0.04386414 0.039404765 -0.03694829 -0.007166888
-0.08616145 -0.00873343 -0.0016311394 0.048534967 0.08855309 -0.04788943 -0.017745715 0.023971945
0.032597266 -0.011133564 0.08727715 -0.0024054064 -0.023561647 0.054148737 -0.092077084 -0.0046887887
-0.038691316 -0.06789896 -0.05941807 -0.058505822 0.02140237 0.2282466 0.05596016 -0.045802798
0.033373926 -0.09180659 -0.002548412 0.012993453 0.025320038 0.077029474 -0.045894515 0.3064581
0.03219061 -0.070604526 -0.02154833 0.060048714 0.013230902 -0.033063382 0.022518523 0.06976678
-0.052696463 -0.06304328 -0.09491477 0.019853871 0.19922557 0.028951053 -0.04443216 0.012891048
0.017357409 0.03255649 0.07057866 0.09306468 0.005276745 -0.0015315556 0.06517217 0.030140847
0.013375439 0.13203195 -0.059988823 -0.03716016 -0.02286081 -0.06508927 0.03956792 -0.013385575
0.02631441 -0.040465727 -0.0013070469 -0.03681028 0.0060563395 0.057235055 0.019090708 0.017484134
-0.013302175 0.04630759 0.0077859336 -0.14217131 0.009982857 0.021555172 0.02098246 -0.0058066505
0.023859726 0.03300506 -0.053693824 0.05617142 -0.005273867 0.06385592 -0.018507224 -0.06771391
0.008259022 0.002876369 -0.012157253 -0.034268904 0.091098525 0.038076516 -0.032164574 0.06601962
00000000: c092 01bd e45e 94bd 0d3b 05bc 17d7 99bb
00000010: 3f3e 11bd 184f 98bd 7ba8 733b 522d 46bd
00000020: 3e87 80bc 1ce0 72bd da46 c4bc ec63 2b3c
00000030: a0e3 55bd d7ca 553c c0f1 0abd dbcc e93d
00000040: 9a8b 8fbc 2cd5 4abd 6028 5f3d cc07 6ebd
00000050: 44c0 b63b dd41 923c 7a1b a73c dec9 163d
00000060: 6039 14bd d9d8 a43b 01b4 44bc 3232 a6bd
00000070: 2fea f03c 3c66 00bd 8ff1 953e 1538 d6ba
00000080: f024 6dbd d03c 033d 4707 b3bb b8b5 0fbd
00000090: fed9 903c 5c52 4cbd daf2 0d3d 868e 8b3d
000000a0: 253b c23a 94d5 973d a05c 52bd 9878 93b8
000000b0: 1c27 f73c 8509 c3bb 8aeb 8bbc 8ad0 08bd
000000c0: 9db8 143d 809b 6d3d 123b 9d3c 0ba9 04bc
000000d0: 48ad 08bd 3313 cc3d df5d a23d 0cd2 18bd
000000e0: cf7d 0a3d 92ef 8e3d 4708 53bd 71b7 993d
000000f0: 6b65 c03c c99b 15bc 2d82 babc 3a5f 1c3d
00000100: ae89 313c 1abd bdbd a953 efbb ab45 ac3c
00000110: 4077 1dbd 25d1 1abd e008 b3bc 3df8 b8bd
00000120: edc0 9b3d 967f bc3b dea7 edbc 3110 afbc
00000130: ad96 d33d 232a 1a3b 6cc3 ccbd 4917 eb3b
00000140: 284a 3e3d 25d4 5fbd cb2e 75bd 5927 68bd
00000150: 71c5 aabd a92e 703e 30f5 28bd ad6e 1d3d
00000160: 7bb4 983e 91f8 dfbc 091b 483c 8ebf 4d3d
00000170: aa80 43b9 c157 ce3d c8cf 4bbd 8410 503d
00000180: fc20 1bbd d1f1 28bd e546 093d df74 bd3c
00000190: ae2b 5d3e f528 9fbd 7f83 633e e470 63bd
000001a0: 4d21 76bd d60a 06be 553f 3bbd a1eb 06bd
000001b0: 1054 dc3c 2c7f 01bc 0d14 0dbd 4573 843c
000001c0: a35c dc3b 8bb0 563c 02ce 163c 0f2e 7cbd
000001d0: 8f6d efbd 71a9 323b 9bc4 9ebc 7a49 50bc
000001e0: 259b e5bc 04c7 36bc 0844 0fbd 44b3 63bd
000001f0: 7f0e 53bd faf1 8c3d 3c75 ff3c 0be2 5c3c
00000200: 4acd 083d 4507 d43c 8a3f afbd 01bf 7dbc
00000210: 293e 45bd 8da2 40bc 04ff debc 3086 2abd
00000220: 569c 12bc b92e 94bc 76f9 2fbd 73ec 7abc
00000230: 179a c73d 6420 cc3c 8ca6 e6bc 3c9b 9a3c
00000240: b16b 0dbd 3fe6 3fbd 26e1 e13c 54b3 8e3d
00000250: 46ea 7f3b 6ea0 733d b1a4 1b3d 11c7 b53d
00000260: 7d03 6bbc 87c0 a43d b607 da3b 5fc3 95bb
00000270: e2aa 333d e466 213d 1757 17bd 37d8 eabb
00000280: 6a75 b0bd a916 0fbc f5cb d5ba 9acc 463d
00000290: 535b b53d b527 44bd 765f 91bc d060 c43c
000002a0: b684 053d 8d69 36bc 5dbe b23d 06a4 1dbb
000002b0: 5b04 c1bc 11cb 5d3d e992 bcbd 69a4 99bb
000002c0: c97a 1ebd 9c0e 8bbd 5d60 73bd cda3 6fbd
000002d0: 0654 af3c 7ab9 693e 7b36 653d b79b 3bbd
000002e0: 19b3 083d 1805 bcbd 4203 27bb 7ee2 543c
000002f0: f86b cf3c a1c1 9d3d e3fb 3bbd 13e8 9c3e
00000300: 4dda 033d 1b99 90bd 2086 b0bc a4f5 753d
00000310: 6dc6 583c 786d 07bd c478 b83c e3e1 8e3d
00000320: 3fd8 57bd d61c 81bd ad62 c2bd 96a4 a23c
00000330: ca01 4c3e c22a ed3c 7ffe 35bd f934 533c
00000340: 2031 8e3c f459 053d 8b8b 903d b298 be3d
00000350: 8ce8 ac3b 7abe c8ba fd78 853d f0e9 f63c
00000360: a824 5b3c 6233 073e d7b6 75bd 4035 18bd
00000370: 9846 bbbc 864d 85bd f911 223d 2c4f 5bbc
00000380: 5191 d73c 64bf 25bd 3751 abba 60c6 16bd
00000390: 4274 c63b 4e6f 6a3d 1e64 9c3c e33a 8f3c
000003a0: 5ef1 59bc 07ad 3d3d 2521 ff3b 5b95 11be
000003b0: 238f 233c 7994 b03c 68e3 ab3c b745 bebb
000003c0: 7975 c33c 5030 073d 0eee 5bbd 0114 663d
000003d0: 67d0 acbb e5c6 823d 769c 97bc 97ad 8abd
000003e0: d950 073c 7781 3c3b 372f 47bc 8d5d 0cbd
000003f0: dd91 ba3d 1ff6 1b3d 00bf 03bd 4b35 873d

linear3.weight f4 [128, 256]
-0.012287483 0.0315775 0.0013172328 0.026150063 -0.011893141 0.019118395 -0.026870966 -0.0066825673
0.025076054 -0.004621513 0.052687623 -0.031089976 0.010709487 -0.011379625 0.011114807 0.011977618
0.049380973 -0.008409834 -0.000104978644 0.016908817 -0.036653746 0.030974403 -0.0006608972 -0.054361828
-0.008813284 -0.0018646792 -0.036903568 -0.0027026774 -0.029680043 0.03865407 -0.00036917435 -0.017660862
-0.04542788 0.015262965 0.012373343 -0.052560747 0.006962927 -0.031537678 0.032910526 -0.044722095
0.017624535 -0.02990088 -0.01012104 0.018228963 -0.0006817691 0.016945936 0.052888587 -0.0034940154
-0.07274248 -0.05951771 -0.06899366 -0.05615613 -0.04760062 0.0086424835 0.031871587 -0.034111086
0.029494336 -0.004017623 -0.059561737 0.02995168 -0.0141631365 0.01949922 -0.04018853 0.05001776
-0.07094108 0.05487698 -0.021588974 -0.058625914 -0.0194612 0.021964058 0.06146814 -0.03032986
-0.005693251 -0.035974707 0.007866756 -0.031816345 0.012839359 0.013043738 0.0062488522 -0.013798317
-0.03491778 0.023111599 -0.06115406 -0.015708491 -0.010076901 -0.0155280605 -0.045735948 -0.009145997
-0.05714171 -0.051841173 -0.027525922 -0.057013635 0.029599322 -0.06179395 -0.047783792 0.040232323
0.043616377 -0.026719853 -0.059623342 0.02459503 -0.053679764 -0.041906796 0.048646253 -0.061568253
-0.03184758 -0.029713757 0.020143917 -0.033636317 0.03476688 -0.0753812 -0.032640003 -0.056952387
-0.057278723 -0.02922277 0.013604455 -0.046233 -0.0065790936 -0.015008512 0.028468177 0.04388479
-0.0636308 0.0013341794 0.009141788 0.037670437 -0.038183175 0.050229043 -0.061155528 -0.028900348
-0.00088775554 0.03289569 0.054922238 -0.00089889433 0.025066048 0.023087509 0.0069218874 0.0016083794
0.012826763 -0.019277986 0.03092859 -0.010355727 -0.031097054 0.03560569 0.016445033 -0.015922634
0.051883355 -0.0043831645 0.01884418 -0.014710669 -0.0030728956 -0.06773603 -0.01037167 -0.030927297
0.010842159 0.02250236 -0.037882462 -0.05682178 -0.06865837 -0.016400876 -0.03444249 -0.0414372
-0.024046186 -0.040259704 0.05267321 -0.061939366 0.0071498146 0.026959188 -0.027641606 -0.009466857
-0.0655022 -0.057005204 -0.063270964 -0.020841392 -0.011725031 -0.08297227 0.014022883 -0.059227444
-0.0094100535 -0.040506415 0.045502827 0.021454774 0.038102902 0.0069464995 -0.06575328 -0.054873325
-0.030722018 -0.0049796114 -0.06988932 6.0528517e-05 0.04215333 0.00726568 0.0049942285 0.023819083
-0.04171878 -0.03734777 -0.005171485 0.0015822527 -0.05058773 0.011144057 -0.011774242 0.030898053
-0.06013865 -0.036946457 0.05722512 -0.011224682 -0.014730059 0.00697729 0.010528967 -0.027447263
0.027015716 0.042631354 0.024169976 0.04182949 -0.059599146 -0.0567035 -0.03724304 0.027198393
-0.026239075 0.042384163 0.061831966 0.054674156 0.04516331 0.027712014 0.020233331 0.02472569
-0.06660632 -0.03975022 -0.028611436 -0.0032571654 0.00070624385 0.039439365 0.051678635 0.04507678
0.008889445 -0.018951965 0.010327272 -0.020263154 -0.022635527 0.050384223 0.03565103 0.04164075
0.016219907 -0.05017044 0.04774058 -0.033368077 -0.034064177 -0.03996431 0.051461548 -0.032936227
-0.02557443 0.051767983 -0.047021873 -0.01678139 -0.017952656 -0.06273686 -0.045385294 -0.04113568
00000000: 7051 49bc 6957 013d 00a7 ac3a a838 d63c
00000010: 73db 42bc 2e9e 9c3c 8020 dcbc 70f9 dabb
00000020: 4c6c cd3c 1070 97bb face 573d 68b0 febc
00000030: d876 2f3c 9b71 3abc e11a 363c c53d 443c
00000040: b443 4a3d 66c9 09bc fb27 dcb8 5c84 8a3c
00000050: 3d22 16bd 08be fd3c 0f40 2dba 82aa 5ebd
00000060: 9865 10bc 4068 f4ba 3228 17bd 671f 31bb
00000070: 9023 f3bc bb53 1e3d be8d c1b9 83ad 90bc
00000080: 9612 3abd 8411 7a3c 90b9 4a3c f049 57bd
00000090: 4429 e43b a72d 01bd 30cd 063d 842e 37bd
000000a0: 5461 903c b1f2 f4bc b8d2 25bc e854 953c
000000b0: c0b8 32ba 34d2 8a3c b4a1 583d dafb 64bb
000000c0: 02fa 94bd d8c8 73bd 8c4c 8dbd f803 66bd
000000d0: def8 42bd 3499 0d3c c88b 023d 11b8 0bbd
000000e0: 1b9e f13c 44a6 83bb 02f7 73bd 3a5d f53c
000000f0: 800c 68bc d4bc 9f3c ba9c 24bd 6cdf 4c3d
00000100: 8f49 91bd afc6 603d 5cdb b0bc ba21 70bd
00000110: 186d 9fbc f8ed b33c 04c6 7b3d 5476 f8bc
00000120: 738e babb 375a 13bd 91e3 003c db51 02bd
00000130: 2d5c 523c 67b5 553c 2cc3 cc3b 5612 62bc
00000140: f205 0fbd 8954 bd3c ae7c 7abd 18af 80bc
00000150: 9619 25bc 6869 7ebc 9e55 3bbd 18d9 15bc
00000160: 6d0d 6abd 6957 54bd 0b7e e1bc 2187 69bd
00000170: 477a f23c a71b 7dbd f0b8 43bd a6ca 243d
00000180: 16a7 323d 98e3 dabc 9b37 74bd 847b c93c
00000190: 50df 5bbd 76a6 2bbd 4b41 473d fe2e 7cbd
000001a0: 9c72 02bd 446a f3bc db04 a53c 3cc6 09bd
000001b0: b767 0e3d 7561 9abd 86b1 05bd e846 69bd
000001c0: 189d 6abd 9764 efbc 38e5 5e3c d05e 3dbd
000001d0: 7095 d7bb 43e6 75bc 1836 e93c 8ac0 333d
000001e0: dd50 82bd a2df ae3a 70c7 153c 514c 1a3d
000001f0: f665 1cbd f8bc 4d3d 387e 7abd 6cc0 ecbc
00000200: 44b8 68ba a2bd 063d 24f6 603d c7a3 6bba
00000210: 5057 cd3c 0422 bd3c 00d1 e23b 42d0 d23a
00000220: 5827 523c deec 9dbc f45d fd3c 11ab 29bc
00000230: 40bf febc 46d7 113d bcb7 863c 2f70 82bc
00000240: a483 543d a6a0 8fbb 1c5f 9a3c 0505 71bc
00000250: a262 49bb 30b9 8abd f0ed 29bc 3e5b fdbc
00000260: 50a3 313c df56 b83c a42a 1bbd f4bd 68bd
00000270: c29c 8cbd 215b 86bc 9213 0dbd 0eba 29bd
00000280: 82fc c4bc 5ce7 24bd ddbf 573d 22b4 7dbd
00000290: fe48 ea3b 84d9 dc3c a670 e2bc e01a 1bbc
000002a0: 0426 86bd 4a7e 69bd 3594 81bd 91bb aabc
000002b0: 581a 40bc 5eed a9bd 3cc0 653c 7a98 72bd
000002c0: a02c 1abc 0eea 25bd 2c61 3a3d ecc1 af3c
000002d0: ca11 1c3d 769f e33b a8a9 86bd dac2 60bd
000002e0: beac fbbc 022c a3bb 2222 8fbd 00e0 7d38
000002f0: f8a8 2c3d f114 ee3b a0a6 a33b 3d20 c33c
00000300: 50e1 2abd faf9 18bd 8f75 a9bb 9763 cf3a
00000310: 1435 4fbd 9095 363c c0e8 40bc ea1d fd3c
00000320: f253 76bd 2b55 17bd e364 6a3d bbe7 37bc
00000330: 5856 71bc c0a1 e43b b081 2c3c 15d9 e0bc
00000340: 1050 dd3c 379e 2e3d 1d00 c63c 6655 2b3d
00000350: 3c1e 74bd ee41 68bd 288c 18bd 2acf de3c
00000360: 54f3 d6bc 049b 2d3d 8443 7d3d 02f2 5f3d
00000370: 2afd 383d 4e04 e33c 5fc0 a53c 888d ca3c
00000380: e568 88bd 20d1 22bd 8862 eabc 2b76 55bb
00000390: 3923 393a 2c8b 213d faac 533d 6ea2 383d
000003a0: 09a5 113c 2741 9bbc b833 293c eafe a5bc
000003b0: 246e b9bc b05f 4e3d d006 123d 7e8f 2a3d
000003c0: 9cdf 843c 857f 4dbd a08b 433d f7ac 08bd
000003d0: e186 0bbd 9eb1 23bd 58c9 523d 23e8 06bd
000003e0: 7881 d1bc aa0a 543d 029a 40bd 2079 89bc
000003f0: 7311 93bc 2f7c 80bd eee5 39bd e37d 28bd

linear3.bias f4 [128]
-0.013465901 0.097328484 -0.08117435 0.051544588 0.10351929 0.049047068 -0.06105108 0.12563962
-0.06943206 0.1876716 -0.058382243 -0.078911684 0.00022156133 -0.09241105 0.04105736 -0.026928099
0.4214661 0.03525918 0.31587252 -0.04249734 0.008645295 -0.08258022 0.065696396 0.0076758806
-0.09309035 0.2278839 -0.032812845 0.032740816 -0.020126432 0.026465723 0.15677553 0.15088934
-0.087253496 0.040410444 0.079694845 -0.10320123 0.25491858 0.050067347 -0.011988113 0.24253243
-0.017926646 0.03842699 0.015703466 -0.04761985 -0.04595493 -0.06587359 0.05183242 -0.06509438
0.0071749273 0.09904974 0.005320392 -0.064329125 0.07047742 0.2830431 -0.03985971 0.090810716
-0.0072498205 0.01632473 -0.005002406 -0.024107255 -0.067365654 -0.036049534 -0.001715109 0.106837384
0.09538217 0.08204131 -0.0447702 -0.0052925795 0.12662324 0.13195796 0.10463036 -0.033889096
0.06267563 -0.011005838 0.13119876 0.053195365 -0.041733336 -0.012957447 0.04251206 0.14167832
0.1311401 0.23743372 -0.06063403 -0.076979026 -0.041996855 0.047375582 0.0066085523 0.10101997
0.13377744 0.08060634 0.33254048 0.085829794 0.2732699 -0.062766366 0.09767246 0.003382867
0.3030725 0.23615666 0.23526986 0.25388688 0.12186657 -0.052774325 0.18026724 0.12603134
0.27188388 -0.057369158 0.112729944 0.28460404 0.15631181 -0.05414285 -0.0068674902 -0.046063267
-0.053547163 0.008829707 -0.013172712 0.061100814 -0.0657309 -0.019386835 -0.067868076 0.10415037
-0.102626495 -0.026062125 0.013731951 -0.08330034 0.07739499 0.344014 -0.052856307 0.13276862
00000000: 15a0 5cbc 2854 c73d bd3e a6bd 6b20 533d
00000010: ec01 d43d 94e5 483d b210 7abd aca7 003e
00000020: 6532 8ebd fc2c 403e 3822 6fbd 739c a1bd
00000030: eb52 6839 0142 bdbd c32b 283d 5198 dcbc
00000040: 68ca d73e ee6b 103d 0bba a13e b111 2ebd
00000050: ffa4 0d3c d21f a9bd d58b 863d f485 fb3b
00000060: 27a6 bebd 665a 693e c366 06bd 3c1b 063d
00000070: 30e0 a4bc a5ce d83c c489 203e bc82 1a3e
00000080: f6b1 b2bd 6c85 253d 0d37 a33d 2b5b d3bd
00000090: b084 823e 6b13 4d3d ca69 44bc 6c5a 783e
000000a0: e7da 92bc 9f65 1d3d 8ea4 803c 080d 43bd
000000b0: 3d3b 3cbd bce8 86bd 3b4e 543d 3450 85bd
000000c0: a71b eb3b 97da ca3d af56 ae3b fdbe 83bd
000000d0: 7756 903d 06eb 903e ef43 23bd f8fa b93d
000000e0: e78f edbb 71bb 853c 39eb a3bb 947c c5bc
000000f0: 01f7 89bd ada8 13bd 82cd e0ba 8fcd da3d
00000100: ba57 c33d 4605 a83d f560 37bd 606d adbb
00000110: 86a9 013e fd1f 073e 7148 d63d 4bcf 0abd
00000120: 155c 803d d551 34bc f858 063e 62e3 593d
00000130: 93f0 2abd 794b 54bc 2021 2e3d 1f14 113e
00000140: 9749 063e d321 733e 635b 78bd 2ea7 9dbd
00000150: e504 2cbd e60c 423d 8e8c d83b 8fe3 ce3d
00000160: f4fc 083e f014 a53d bf42 aa3e 88c7 af3d
00000170: 08ea 8b3e a78b 80bd 8008 c83d 17b3 5d3b
00000180: 522c 9b3e 0dd3 713e 95ea 703e 76fd 813e
00000190: 2e95 f93d e429 58bd fa97 383e 5c0e 013e
000001a0: 5d34 8b3e ecfb 6abd f5de e63d 9fb7 913e
000001b0: 3410 203e e5c4 5dbd af08 e1bb d6ac 3cbd
000001c0: 4554 5bbd 7aaa 103c 5cd2 57bc d944 7a3d
000001d0: ec9d 86bd 24d1 9ebc 6bfe 8abd ca4c d53d
000001e0: d72d d2bd 3d80 d5bc fafb 603c 5e99 aabd
000001f0: 4481 9e3d 9a22 b03e db7f 58bd 7ff4 073e

linear4.weight f4 [3, 128]
0.047709167 0.07669578 -0.041499548 0.011927232 0.04895315 -0.032527726 0.04578625 0.041947503
-0.012280211 0.29993376 -0.014725917 -0.00031610162 0.06999631 -0.009556064 0.026784163 -0.006440327
0.21585216 -0.10709229 0.09167482 -0.03709361 0.063531704 -0.148991 -0.0153019065 0.02745387
-0.054001275 0.10141169 0.0068294927 -0.19555777 -0.05268581 -0.087975994 0.06659031 0.3574073
0.06652519 -0.057343204 0.061267473 -0.14287132 0.08678817 -0.33326802 -0.017445887 0.21592107
0.008995888 0.042500943 -0.0093261115 -0.051079568 0.06680807 0.041462332 0.0729219 -0.0465666
-0.044292696 0.058255907 0.047176793 -0.010244823 0.12188137 0.08477073 -0.011973992 -0.036727317
-0.078387715 0.04218837 -0.009992886 -0.046496034 -0.0038203031 0.022713274 -0.1419016 0.17861573
0.02474657 0.08401272 -0.061938275 0.042681206 0.064174086 0.048466034 0.097226754 0.0077064345
0.029784787 -0.029471183 0.03026592 -0.3353821 0.049873512 -0.03777593 0.07909363 0.05029806
0.018947218 0.0760401 0.004680343 -0.008508959 -0.064281076 0.025227705 0.08515053 0.03116384
0.04121064 -0.048012257 0.12961623 0.051919684 0.13288891 0.04323973 0.13018937 -0.010906336
0.15798013 0.3081832 0.08592314 0.1485779 0.04037487 -0.025179438 0.095697545 0.21294373
0.0772345 -0.0071000536 -0.05856885 0.09732521 0.23552999 -0.023838619 -0.031323306 0.048490047
-0.028236173 -0.0847163 0.0017240192 0.065581836 0.048825283 -0.04899875 0.030403938 0.09498021
-0.008387297 0.010265108 -0.062782705 -0.040406324 0.03225062 0.10977978 0.049764276 0.12511046
0.0055809068 0.017048832 0.119797535 -0.07486517 -0.08162828 0.037898608 0.050486915 0.2731841
-0.00835514 -0.07907385 -0.012333736 -0.068819545 -0.06001535 0.00620753 0.07084856 -0.036897812
0.086993165 -0.091240615 0.11226062 0.08110624 -0.09219085 -0.13313839 0.15495257 -0.09280451
-0.0697149 0.13900477 -0.031820357 0.23948759 -0.00094779296 -0.07959705 0.32808742 -0.080952
0.058030955 -0.1738089 -0.19633782 -0.07707433 0.086864516 0.14754625 -0.055774774 0.17137223
-0.021787625 -0.041826226 0.07618495 0.08332562 0.017389774 -0.04226755 -0.15545876 -0.01236558
0.03241736 -0.16966607 0.043178767 -0.050602034 0.2289667 0.12571785 -0.068873845 -0.0109675005
0.035389267 0.052761253 -0.039721232 -0.026164204 0.03790021 0.012053319 -0.022217069 -0.27268353
0.10016149 -0.15015215 -0.002085413 0.04727355 -0.15663747 -0.12936361 -0.021809768 -0.06410867
-0.09817138 -0.06578248 0.07070455 0.18626764 -0.03408105 0.06472858 -0.2268777 -0.006832408
-0.07351411 0.040401846 -0.009703197 0.0105913775 -0.14474519 0.20196512 0.06772066 0.008242835
-0.09008966 -0.08911712 0.16223545 0.034933522 0.13373137 0.021542642 -0.0943368 0.014467495
0.119599536 0.08026528 0.13548245 0.112180494 0.2832205 -0.012203659 0.1093837 0.048338056
0.117577136 -0.011261267 -0.1678238 0.076898366 -0.16863534 0.03949236 0.0798041 -0.020949144
0.06596457 -0.0641387 -0.09098912 -0.1799091 0.07016898 -0.060449153 -0.062641725 0.014059609
0.06424017 0.04436303 -0.037363667 -0.072502606 0.25370002 0.15734369 -0.023213139 0.20891337
00000000: b06a 433d ad12 9d3d 6efb 29bd 706a 433c
00000010: 1983 483d cb3b 05bd 5d8a 3b3d 25d1 2b3d
00000020: f032 49bc eb90 993e f944 71bc 71ba a5b9
00000030: 3a5a 8f3d 0a91 1cbc 766a db3c 6109 d3bb
00000040: 5908 5d3e 3453 dbbd 02c0 bb3d 78ef 17bd
00000050: e91c 823d 1991 18be d9b4 7abc f0e6 e03c
00000060: 7130 5dbd efb0 cf3d f0c9 df3b 4c40 48be
00000070: 13cd 57bd c22c b4bd 8060 883d 17fe b63e
00000080: 5c3e 883d b5e0 6abd 9af3 7a3d dc4c 12be
00000090: ffbd b13d 1ba2 aabe adea 8ebc 6a1a 5d3e
000000a0: 7d63 133c 7815 2e3d 8ccc 18bc cf38 51bd
000000b0: abd2 883d 68d4 293d 1458 953d 9fbc 3ebd
000000c0: 426c 35bd bf9d 6e3d 743c 413d e7d9 27bc
000000d0: f19c f93d 479c ad3d 902e 44bc 626f 16bd
000000e0: bd89 a0bd b6cd 2c3d 34b9 23bc a072 3ebd
000000f0: 0d5e 7abb 3011 ba3c a74e 11be 0be7 363e
00000100: 52b9 ca3c dc0e ac3d fdb2 7dbd 7dd2 2e3d
00000110: b46d 833d 5284 463d d21e c73d 4286 fc3b
00000120: 3aff f33c 8d6d f1bc 3cf0 f73c 34b7 abbe
00000130: 2b48 4c3d efba 1abd d7fb a13d 5705 4e3d
00000140: 3237 9b3c e9ba 9b3d 905d 993b 2969 0bbc
00000150: cca5 83bd 55aa ce3c 6763 ae3d 4f4b ff3c
00000160: 7dcc 283d 80a8 44bd 1eba 043e bca9 543d
00000170: 0814 083e 251c 313d 5d50 053e 7db0 32bc
00000180: 8bc5 213e 30ca 9d3e 79f8 af3d ce24 183e
00000190: 1f60 253d 1c45 cebc 13fd c33d ec0d 5a3e
000001a0: 1f2d 9e3d 91a7 e8bb e4e5 6fbd 7152 c73d
000001b0: c62e 713e 3549 c3bc de4c 00bd 809d 463d
000001c0: 8c4f e7bc bd7f adbd 7cf8 e13a c54f 863d
000001d0: 05fd 473d eab2 48bd ae11 f93c fc84 c23d
000001e0: e06a 09bc fc2e 283c 3894 80bd 1a81 25bd
000001f0: 3a19 043d 39d4 e03d a0d5 4b3d f51c 003e
00000200: 0ae0 b63b fea9 8b3c 6958 f53d e952 99bd
00000210: ba2c a7bd 923b 1b3d 5ecb 4e3d c9de 8b3e
00000220: ffe3 08bc 78f1 a1bd 7013 4abc 43f1 8cbd
00000230: a8d2 75bd 8968 cb3b 0d19 913d 2922 17bd
00000240: 7929 b23d 5cdc babd e5e8 e53d 071b a63d
00000250: 8ece bcbd 6e55 08be e3ab 1e3e 4a10 bebd
00000260: afc6 8ebd 4457 0e3e 1056 02bd 3c3c 753e
00000270: 4f75 78ba c703 a3bd 13fb a73e 2aca a5bd
00000280: deb1 6d3d f6fa 31be c80c 49be 25d9 9dbd
00000290: 06e6 b13d 5d16 173e 1774 64bd 347c 2f3e
000002a0: f67b b2bc fa51 2bbd db06 9c3d 9fa6 aa3d
000002b0: 0075 8e3c bd20 2dbd 9530 1fbe 0099 4abc
000002c0: 11c8 043d f1bc 2dbe 38dc 303d 1444 4fbd
000002d0: 3f76 6a3e 2ebc 003e bb0d 8dbd 08b1 33bc
000002e0: 56f4 103d 2f1c 583d bbb2 22bd 5056 d6bc
000002f0: 403d 1b3d 497b 453c 9200 b6bc 2d9d 8bbe
00000300: 7821 cd3d 7cc1 19be 6dab 08bb e9a1 413d
00000310: 9365 20be e577 04be 66aa b2bc 684b 83bd
00000320: 140e c9bd f7b8 86bd 8ccd 903d f2bc 3e3e
00000330: 9298 0bbd 6b90 843d a152 68be 64e2 dfbb
00000340: 918e 96bd 687c 253d 28fa 1ebc 7587 2d3c
00000350: 1538 14be f2cf 4e3e 21b1 8a3d f50c 073c
00000360: ed80 b8bd 0983 b6bd 0d21 263e 7416 0f3d
00000370: e0f0 083e 327a b03c a733 c1bd 1209 6d3c
00000380: 9af0 f43d 2062 a43d e9bb 0a3e e3be e53d
00000390: 4702 913e dbf1 47bc 9004 e03d 20fe 453d
000003a0: 48cc f03d 2d81 38bc 01da 2bbe e47c 9d3d
000003b0: beae 2cbe bec2 213d 5570 a33d 8a9d abbc
000003c0: 6f18 873d 275b 83bd 8158 babd 173a 38be
000003d0: c1b4 8f3d 8899 77bd 4e4a 80bd 465a 663c
000003e0: 5a90 833d 02b6 353d a50a 19bd 3f7c 94bd
000003f0: f8e4 813e b41e 213e 7b29 bebc 63ed 553e

linear4.bias f4 [3]
0.21987715 -0.01633991 0.1575228
00000000: 7a27 613e 46db 85bc a84d 213e
