model/model.pth (torch, 687784 bytes, 8 tensors)

linear1.weight f4 [512, 12]
-0.27847818 -0.036453906 0.23995611 -0.027994843 0.037421092 -0.027458502 0.0030114662 -0.0716469
0.2129543 -0.1549251 -0.07104939 0.2151856 0.10583959 0.14773081 -0.218316 0.26745573
0.111032285 0.06783904 -0.19990014 -0.0598805 -0.026682118 -0.2663581 -0.29818973 0.2670891
-0.21807595 0.15618192 -0.18085356 0.09199061 0.112689264 0.17285158 -0.014567002 -0.025109183
0.24105862 0.31995663 0.01447442 -0.12314877 0.28896335 0.15456387 0.26596934 -0.29454336
0.20225471 -0.06175316 -0.20067945 -0.24694292 -0.09050686 -0.12315745 0.028067209 0.23541677
-0.2962003 -0.22352807 0.21401101 0.4389268 0.033643156 -0.16579844 0.30983016 0.16541922
-0.11379134 -0.0666524 -0.09557365 -0.15999843 -0.070457965 0.14399192 -0.26897082 -0.14976402
-0.17607215 -0.04102563 0.23806715 0.20323399 0.09701569 -0.031606607 -0.2325733 -0.102089755
-0.009777214 0.24813676 -0.27684867 -0.239522 0.1495763 0.21516037 -0.20481044 -0.11984928
0.32876623 -0.12403379 0.26738513 0.21096602 -0.41564018 -0.08844343 -0.21083838 0.1957761
-0.027378472 0.15505798 -0.13569431 0.0828597 -0.41006535 0.07395708 -0.15139796 -0.14261307
-0.2561477 -0.14193664 -0.19838946 0.08114531 -0.17793712 -0.03429217 -0.16422775 -0.25086445
-0.14177711 -0.1359058 0.28841248 0.18215951 -0.21627343 0.18351397 0.17061229 0.051840235
0.00033152074 -0.009941948 0.107693985 -0.17730638 0.35593155 -0.07453368 -0.020475097 -0.34888542
0.045171928 0.1730731 -0.083258465 0.19814137 -0.22913139 -0.02665845 -0.30502006 -0.04612114
0.065313935 -0.34398472 0.26210484 0.17564206 0.017966205 0.052398983 0.20821019 -0.16975774
-0.29313502 0.24586102 0.09566931 -0.06847479 -0.20912103 0.094844915 -0.21776813 -0.03177874
-0.100751914 0.2521355 -0.026500132 0.11006836 -0.2458925 0.20384856 -0.392234 0.073914036
-0.08853202 -0.2650856 -0.23374341 -0.04686383 -0.20238599 0.022215283 0.07298563 -0.2784913
-0.2434452 -0.2291744 -0.05665383 -0.12622286 0.24806088 -0.019665033 -0.0018466115 0.17590508
-0.19963218 -0.030499656 -0.31168014 0.24100658 -0.19791666 -0.039953724 0.1512371 -0.021840362
0.0691652 -0.24025807 -0.09278944 0.24849395 0.19171128 0.19073352 0.19586784 -0.180623
0.054654516 -0.14925824 -0.028737562 -0.17262882 0.17613205 -0.2596773 0.06731662 -0.36247438
0.10207861 -0.24929689 0.32781196 -0.24046916 -0.19175786 -0.077252045 -0.2587781 0.24277584
-0.05969275 0.034557067 -0.27804297 0.2638011 -0.022884771 0.015258204 0.12862737 -0.1982252
-0.0023449385 -0.012772993 -0.040957373 -0.2713057 0.41254407 0.24843067 -0.120781794 0.18718459
-0.40511724 0.28323004 0.050389722 0.20905587 0.08645132 0.33463043 -0.0911579 0.030612757
-0.15012404 0.27500483 0.22361475 0.0786809 -0.2049557 -0.2817822 -0.02235453 0.35363048
-0.062226415 -0.048131984 0.23593475 0.08135585 0.018693693 -0.17903689 -0.11644729 0.17201719
-0.063232325 0.29238826 0.06425563 -0.21237622 -0.29832092 0.1531442 0.13012382 0.114909
-0.11276933 0.004612759 -0.005856403 -0.23997708 -0.011765909 0.10773489 0.28459704 0.24013937
00000000: b194 8ebe b150 15bd 0eb7 753e 7155 e5bc
00000010: dc46 193d a7f0 e0bc 055c 453b 9cbb 92bd
00000020: b110 5a3e afa4 1ebe 5882 91bd 9d59 5c3e
00000030: 6dc2 d83d bf46 173e 3b8e 5fbe f5ef 883e
00000040: e564 e33d 32ef 8a3d 9fb2 4cbe 4145 75bd
00000050: 7594 dabc 1760 88be 53ac 98be e7bf 883e
00000060: 4d4f 5fbe 27ee 1f3e ad31 39be 9365 bc3d
00000070: a1c9 e63d 0100 313e 6faa 6ebc c6b1 cdbc
00000080: 12d8 763e 5bd1 a33e 1e26 6d3c 6c35 fcbd
00000090: 01f3 933e fe45 1e3e 222d 883e 63ce 96be
000000a0: dc1b 4f3e e2f0 7cbd ea7e 4dbe 9bde 7cbe
000000b0: a95b b9bd f939 fcbd 34ed e53c 1811 713e
000000c0: 91a7 97be 8be4 64be b425 5b3e 03bb e03e
000000d0: 68cd 093d 11c7 29be 0fa2 9e3e a863 293e
000000e0: 6f0b e9bd 0e81 88bd 1ebc c3bd a1d6 23be
000000f0: 444c 90bd 9e72 133e 8bb6 89be bd5b 19be
00000100: 424c 34be 7e0a 28bd e0c7 733e 921c 503e
00000110: 29b0 c63d ee75 01bd b227 6ebe 6f14 d1bd
00000120: 9c30 20bc 9017 7e3e 1cbf 8dbe 4145 75be
00000130: 882a 193e 0053 5c3e d4b9 51be 8a73 f5bd
00000140: 0c54 a83e 6d05 febd b4e6 883e 7a07 583e
00000150: cace d4be d421 b5bd 04e6 57be 8879 483e
00000160: d148 e0bc 85c7 1e3e 73f3 0abe 59b2 a93d
00000170: 16f4 d1be cf76 973d 1108 1bbe 2909 12be
00000180: cb25 83be d757 11be 9b26 4bbe 832f a63d
00000190: 2635 36be f275 0cbd 522b 28be 4e71 80be
000001a0: 052e 11be e42a 0bbe cdaa 933e 0688 3a3e
000001b0: c876 5dbe 16eb 3b3e fdb4 2e3e 6d56 543d
000001c0: f6cf ad39 8de3 22bc aa8e dc3d ce8f 35be
000001d0: a93c b63e 1da5 98bd 64bb a7bc 1ca1 b2be
000001e0: 3306 393d 133a 313e 6a83 aabd 92e5 4a3e
000001f0: 6ba1 6abe d262 dabc 972b 9cbe 85e9 3cbd
00000200: 50c3 853d c41e b0be 9b32 863e 83db 333e
00000210: dd2d 933c 51a0 563d 0d35 553e f9d4 2dbe
00000220: cb15 96be fec2 7b3e 45ee c33d 833c 8cbd
00000230: d323 56be 0d3e c23d 9cfe 5ebe 6d2a 02bd
00000240: 0557 cebd e717 813e ce16 d9bc 856b e13d
00000250: 3ecb 7bbe adbd 503e e5d2 c8be 3e60 973d
00000260: 4750 b5bd 4db9 87be 6f5a 6fbe 4af4 3fbd
00000270: 463e 4fbe d3fc b53c 7d79 953d 6996 8ebe
00000280: b349 79be b2ac 6abe d90d 68bd 9140 01be
00000290: ac03 7e3e 9018 a1bc 000a f2ba 7620 343e
000002a0: 616c 4cbe 6ada f9bc 8a94 9fbe 6eca 763e
000002b0: aaaa 4abe 84a6 23bd e6dd 1a3e 8fea b2bc
000002c0: 7ca6 8d3d 3606 76be 6408 bebd 3375 7e3e
000002d0: f64f 443e a64f 433e 9491 483e 3cf5 38be
000002e0: 6add 5f3d 27d7 18be 096b ebbc 9cc5 30be
000002f0: f65b 343e 6cf4 84be 4cdd 893d 3e96 b9be
00000300: 970e d13d af47 7fbe f8d6 a73e 8c3d 76be
00000310: 2c5c 44be 5236 9ebd 907e 84be 3b9a 783e
00000320: 6380 74bd b68b 0d3d a65b 8ebe f010 873e
00000330: d878 bbbc 8cfd 793c e5b6 033e 8cfb 4abe
00000340: 8aad 19bb d145 51bc ebc2 27bd 95e8 8abe
00000350: fa38 d33e 9c64 7e3e 725c f7bd 51ad 3f3e
00000360: 876b cfbe 8703 913e 7465 4e3d be12 563e
00000370: 640d b13d ae54 ab3e feb0 babd 9bc7 fa3c
00000380: 1eba 19be 6fcd 8c3e 44fb 643e 7423 a13d
00000390: e8df 51be c245 90be d920 b7bc 0e0f b53e
000003a0: 20e1 7ebd 0b26 45bd e198 713e e59d a63d
000003b0: 8423 993c 7255 37be eb7b eebd 4625 303e
000003c0: f37f 81bd eab3 953e 7598 833d 2779 59be
000003d0: 85bd 98be d5d1 1c3e 2e3f 053e 6955 eb3d
000003e0: 9bf3 e6bd a126 973b 12e7 bfbb 8dbc 75be
000003f0: cdc5 40bc 1ca4 dc3d b4b6 913e 18e7 753e

linear1.bias f4 [512]
0.05686489 -0.055402163 0.14311184 0.17649937 -0.16532399 0.2905161 0.12008716 0.33930564
0.33849537 -0.14311343 0.18788321 -0.25704694 -0.0731079 -0.29086763 0.13402496 0.015092773
0.07787523 0.27800596 -0.15091692 0.104895726 0.13849412 -0.13598615 0.09394764 0.26796964
-0.23288079 0.17136326 -0.21096528 0.15535076 -0.033931386 -0.2606797 0.024635991 0.32646164
-0.14197794 -0.10406938 -0.001670365 0.2855343 0.2560015 -0.28643557 -0.15647896 -0.1479044
-0.281147 -0.12964375 -0.20931143 0.1140604 0.280529 -0.2525635 -0.2783857 -0.075280115
0.27099156 -0.11505098 -0.21297768 -0.1629209 0.053848278 -0.23772812 0.2081804 -0.022110978
0.29335022 0.20717108 -0.00830869 0.0005538716 0.28560534 0.27969778 -0.074900776 -0.30243823
-0.12724625 0.16660026 0.026305066 0.0030629346 -0.18703873 0.2915924 -0.15399796 0.009599317
0.2847562 0.22228108 -0.003245586 -0.005348112 -0.016483247 0.34989202 -0.15356481 0.28994504
-0.06322283 -0.13608046 -0.020794071 0.2657545 0.111387186 -0.04714697 0.19729725 0.16442588
-0.15328442 -0.20880201 -0.10302248 0.2862464 0.32273433 0.10462945 0.1292525 0.2928334
0.19889988 -0.032623593 0.1970325 -0.19123295 0.25007507 -0.3301891 0.06486952 -0.18051432
0.18033628 0.04654748 0.009740629 -0.12635395 0.23663093 0.02121454 -0.13159482 0.231629
-0.25624767 0.012400741 -0.04792023 -0.20117936 -0.18666098 -0.13276789 0.27734724 0.038030114
0.07840258 0.26430544 0.29652902 -0.15687501 -0.1658103 0.3113527 -0.059413802 0.19241324
-0.14467888 -0.28557846 -0.22284634 0.32276362 0.18114279 0.18478794 -0.083636306 0.025145367
0.009617075 0.026958467 0.1869241 0.1789123 -0.2079966 -0.095915034 0.26963326 -0.08145531
0.10518359 0.19202952 0.21036935 -0.054801762 -0.034241796 0.30491704 0.08257956 -0.09924947
-0.264679 0.04867601 0.15921366 -0.15063938 0.08111079 0.31326842 0.08146045 -0.2680354
-0.16177265 -0.03235656 0.01665748 -0.16403013 0.30538172 0.14820884 0.23059887 -0.15900959
-0.2835438 0.08346278 0.1321941 0.056474738 0.032454576 0.2077038 0.04525304 0.29561985
0.07864923 -0.19944684 -0.100169435 0.167707 0.06491703 -0.017679296 -0.12568367 -0.21825132
0.10229197 0.06379082 -0.23580016 -0.1882139 0.18559486 0.21687104 -0.13733254 0.34760675
0.17160708 0.043978427 0.11466142 -0.12255941 0.1472207 0.05184588 -0.1802656 -0.16328254
-0.039691027 0.314398 0.031408098 -0.10358549 -0.23474248 -0.03657099 0.23945165 0.072854534
0.2335555 -0.16534156 0.25280526 0.22997689 0.073836535 -0.11344081 -0.24305192 0.07144494
0.24237832 -0.06279846 -0.13083841 -0.20505586 0.09045952 -0.110273585 -0.04480768 -0.17168331
0.23360994 -0.23773713 -0.013633054 -0.113326475 -0.25328726 0.3519994 0.3095101 0.41268706
-0.117578976 0.022835692 0.2242052 -0.20097893 -0.14657529 -0.09875597 0.2806489 -0.007483444
-0.02390757 0.08305252 -0.20350221 -0.19669741 -0.18394957 -0.13949646 0.042230293 0.25843084
-0.24958636 0.03428596 0.16836356 0.1738318 0.118139476 0.21392024 0.26787788 0.028309954
00000000: 29eb 683d 61ed 62bd e98b 123e 40bc 343e
00000010: b14a 29be 87be 943e 42f0 f53d 78b9 ad3e
00000020: 444f ad3e 548c 12be 7564 403e a89b 83be
00000030: 98b9 95bd 9aec 94be d73d 093e ae47 773c
00000040: 0c7d 9f3d cc56 8e3e f789 1abe 92d3 d63d
00000050: 67d1 0d3e f43f 0bbe 9f67 c03d 5133 893e
00000060: 4d78 6ebe da79 2f3e 4807 58be 4514 1f3e
00000070: a3fb 0abd cf77 85be 6bd1 c93c fb25 a73e
00000080: aa62 11be 5422 d5bd 26f0 daba 8d31 923e
00000090: a112 833e afa7 92be 053c 20be 4074 17be
000000a0: 80f2 8fbe 55c1 04be bc55 56be 8098 e93d
000000b0: 7fa1 8f3e 0150 81be 9288 8ebe 762c 9abd
000000c0: 68bf 8a3e d99f ebbd d216 5abe bdd4 26be
000000d0: 0390 5c3d 006f 73be 3e2d 553e 1522 b5bc
000000e0: 0032 963e a824 543e 2c21 08bc b231 113a
000000f0: dd3a 923e 8c34 8f3e 9465 99bd 2fd9 9abe
00000100: d74c 02be 4299 2a3e b97d d73c 84bb 483b
00000110: 1587 3fbe 994b 953e a4b1 1dbe 7446 1d3c
00000120: 91cb 913e a79d 633e e6b3 54bb 373f afbb
00000130: e007 87bc 0c25 b33e 1840 1dbe ad73 943e
00000140: f97a 81bd ad58 0bbe 5458 aabc f910 883e
00000150: f71e e43d 2e1d 41bd 4a08 4a3e 425f 283e
00000160: 97f6 1cbe 32d0 55be 73fd d2bd e38e 923e
00000170: 6f3d a53e f747 d63d c45a 043e 42ee 953e
00000180: 69ac 4b3e 51a0 05bd e3c2 493e 92d2 43be
00000190: d709 803e 8c0e a9be 50da 843d bfd8 38be
000001a0: 13aa 383e 92a8 3e3d 2997 1f3c ee62 01be
000001b0: 614f 723e 1dca ad3c cbc0 06be 2730 6d3e
000001c0: e532 83be 7a2c 4b3c 0148 44bd f601 4ebe
000001d0: 0e24 3fbe 4ef4 07be 7500 8e3e 77c5 1b3d
000001e0: 8891 a03d 0b53 873e a7d2 973e d8a3 20be
000001f0: 2dca 29be 9f69 9f3e e35b 73bd fa07 453e
00000200: b326 14be 5737 92be d531 64be 4641 a53e
00000210: 7f7d 393e 0d39 3d3e 8349 abbd a8fd cd3c
00000220: f090 1d3c 01d8 dc3c 0869 3f3e c934 373e
00000230: 10fd 54be 1a6f c4bd 5f0d 8a3e 0bd2 a6bd
00000240: 7e6a d73d 63a3 443e 106b 573e d077 60bd
00000250: 2041 0cbd 161e 9c3e 791f a93d 4e43 cbbd
00000260: 0284 87be 7f60 473d e808 233e 3641 1abe
00000270: 6a1d a63d b864 a03e bdd4 a63d f03b 89be
00000280: bba7 25be 5088 04bd 4475 883c 84f7 27be
00000290: fe5a 9c3e 0fc4 173e 1c22 6c3e 69d3 22be
000002a0: a72c 91be 89ee aa3d e45d 073e 0e52 673d
000002b0: 17ef 043d 4eb0 543e 405b 393d 7c5b 973e
000002c0: d912 a13d cb3b 4cbe a225 cdbd 62bb 2b3e
000002d0: 38f3 843d 2cd4 90bc 38b3 00be 467d 5fbe
000002e0: 747e d13d c3a4 823d 9975 71be 25bb 40be
000002f0: 940c 3e3e 7113 5e3e e7a0 0cbe 83f9 b13e
00000300: c4b9 2f3e b922 343d 9bd3 ea3d 6e00 fbbd
00000310: 06c1 163e 585c 543d 8c97 38be 8a33 27be
00000320: 0f93 22bd c6f8 a03e c7a5 003d a124 d4bd
00000330: 5560 70be 76cb 15bd d032 753e c234 953d
00000340: 2c29 6f3e 4c4f 29be b16f 813e 107f 6b3e
00000350: 9c37 973d a853 e8bd 9ae2 78be ba51 923d
00000360: 0632 783e 7b9c 80bd 81fa 05be 2afa 51be
00000370: d742 b93d 1ed7 e1bd 4288 37bd c0cd 2fbe
00000380: 7237 6f3e 5d71 73be 2c5d 5fbc b617 e8bd
00000390: deae 81be 4439 b43e 1c78 9e3e b84b d33e
000003a0: 3fcd f0bd eb11 bb3c 0c96 653e 6ccd 4dbe
000003b0: d517 16be 9240 cabd 36b1 8f3e ae37 f5bb
000003c0: cfd9 c3bc 7117 aa3d e262 50be 0c6b 49be
000003d0: 475d 3cbe 29d8 0ebe acf9 2c3d 0c51 843e
000003e0: 9193 7fbe 6f6f 0c3d 7f67 2c3e f700 323e
000003f0: 1cf3 f13d e80d 5b3e 4a27 893e 47ea e73c

linear2.weight f4 [256, 512]
0.021636743 -0.045797594 -0.030328209 0.012154106 0.0019312091 -0.01803379 -0.022529002 -0.034831733
-0.031557277 -0.03908332 -0.018136026 0.008764226 -0.031278722 0.011560645 0.020598833 0.035781126
-0.004370319 0.03366608 0.0036398955 0.003078824 0.017600218 -0.003351707 -0.015740637 0.017345622
0.03905706 0.006068562 -0.016802534 -0.04224008 -0.014858205 0.0037354156 -0.041634504 -0.042930104
-0.011950966 6.168663e-05 -0.02887514 -0.03037854 0.012905854 -0.008626353 -0.017943108 0.038028862
-0.0027449243 0.028511155 0.02401955 0.01284159 -0.03260594 -0.023296865 0.0031445622 -0.03373351
0.013875882 0.011813093 0.028221231 0.015372898 0.0075479858 -0.027294682 0.0026489797 0.032999147
-0.0365421 -0.03241319 0.003339488 -0.007605313 -0.00957847 -0.042039137 -0.008721538 -0.031764314
0.008122653 0.030207045 0.01661105 -0.03222403 0.025394369 0.0046060607 0.04280713 0.04251345
-0.021127904 0.015310423 0.022922473 0.03071928 -0.026362311 -0.026279304 0.028979028 -0.029777287
0.024646472 0.022556495 0.009646317 0.039144687 0.040730793 0.023249816 0.031109251 0.02479079
0.01285452 0.017317448 -0.031296868 -0.01117548 0.0042281817 0.0132096335 -0.037856117 -0.04755728
-0.010316284 -0.042456996 -0.023364315 -0.014718737 -0.0053185457 -0.03284409 0.0174585 0.040646493
0.011119708 0.0008025691 0.031106314 0.031194871 -0.005575793 0.02820742 -0.040554754 -0.007784106
0.023164261 0.0105778985 -0.03888952 0.0063482225 0.0040621907 -0.0376514 -0.029520407 -0.015221833
-0.008870203 0.02604526 -0.041355446 0.014680423 -0.030482143 -0.0020717552 0.031488586 0.0150389075
0.029215258 -0.0055691265 -0.008401532 -0.036153734 -0.012106234 0.03964268 0.012137558 -0.045021366
-0.014583142 -0.032265566 -0.00076942146 -0.023594007 -0.028401196 0.009884115 0.004442265 -0.01013372
0.0033057889 -0.006864082 -0.029915957 -0.037891194 0.0387523 -0.04338456 -0.024579836 0.009634763
-0.042412933 0.0244481 -0.022319322 0.02638502 0.010128096 -0.041779608 -0.027855199 0.007010553
-0.01719613 -0.016044658 0.037194453 -0.027450163 -0.04428828 -0.044942055 -0.027929373 0.006287918
-0.01811065 0.031071935 -0.021317698 0.005015503 0.02866764 -0.008933008 -0.044168774 -0.030460352
-0.0020286092 0.024419505 0.03745472 -0.04249087 0.030990768 0.0353984 0.034637913 0.024271602
0.03574768 0.007850153 -0.018005107 -0.03057788 -0.012883913 0.02500191 0.011917558 -0.0133809
-0.027503107 -0.00019336864 -0.010451518 -0.026542226 -0.008646442 0.024968121 0.030125331 -0.042281885
-0.034303416 0.021366049 0.012303076 0.015894845 -0.01727809 -0.009893258 0.0009943172 -0.023771418
-0.026687518 -0.024835413 0.016312476 0.0139285745 0.005978804 -0.023949014 -0.021273563 -0.027000649
0.0019552982 0.0013621908 -0.041250616 0.0027705543 -0.022990221 -0.011826199 -0.022060318 -0.009275023
-0.035042625 -0.02781377 0.038515937 0.016729768 -0.03899673 0.018620234 -0.041106254 -0.008343969
-0.00056913495 -0.019737057 0.039730728 0.016226422 -0.0014618002 0.010253462 -0.0078035784 -0.020495396
-0.009514682 0.03257754 -0.02735861 -0.008724773 -0.010130648 0.00459883 0.041878816 -0.025532745
-0.0011953749 0.029950188 -0.027085261 -0.025849344 -0.0124866795 0.014926409 0.0048979707 0.012917213
00000000: 8a3f b13c 4296 3bbd dd72 f8bc 0422 473c
00000010: a020 fd3a 99bb 93bc be8e b8bc b8ab 0ebd
00000020: 3442 01bd d515 20bd 0192 94bc d497 0f3c
00000030: 1e1e 00bd dc68 3d3c e2be a83c 3b8f 123d
00000040: e534 8fbb 72e5 093d 508b 6e3b 18c6 493b
00000050: 552e 903c 50a8 5bbb 82f2 80bc 6818 8e3c
00000060: 4cfa 1f3d cada c63b 78a5 89bc ef03 2dbd
00000070: d46f 73bc e0cd 743b f188 2abd 7ad7 2fbd
00000080: fccd 43bc c25d 8138 8f8b ecbc 6adc f8bc
00000090: 1373 533c 8c55 0dbc 6dfd 92bc 27c4 1b3d
000000a0: 30e4 33bb 3a90 e93c a6c4 c43c 8865 523c
000000b0: ce8d 05bd 11d9 bebc 0015 4e3b 262c 0abd
000000c0: ab57 633c b48b 413c 3630 e73c 9cde 7b3c
000000d0: 1855 f73b 1999 dfbc 819a 2d3b 1d2a 073d
000000e0: 2bad 15bd b1c3 04bd 50db 5a3b fd35 f9bb
000000f0: 04ef 1cbc 3b31 2cbd c8e4 0ebc 4c1b 02bd
00000100: e014 053c c474 f73c e613 883c 58fd 03bd
00000110: da07 d03c 70ee 963b 8756 2f3d 9522 2e3d
00000120: 6d14 adbc 92d8 7a3c e9c7 bb3c 00a7 fb3c
00000130: c6f5 d7bc b247 d7bc 6d65 ed3c 7fef f3bc
00000140: 66e7 c93c 66c8 b83c 960b 1e3c 2e56 203d
00000150: 55d5 263d 6676 be3c d4d8 fe3c 0e16 cb3c
00000160: c49b 523c 52dd 8d3c 2531 00bd 5c19 37bc
00000170: 8f8c 8a3b 386d 583c 040f 1bbd 6ccb 42bd
00000180: a205 29bc 63e7 2dbd 8566 bfbc dc26 71bc
00000190: 3247 aebb 8687 06bd 2105 8f3c f07c 263d
000001a0: 702f 363c 8063 523a abd2 fe3c 638c ff3c
000001b0: 24b5 b6bb 3f13 e73c be1c 26bd d011 ffbb
000001c0: fac2 bd3c ec4e 2d3c 9e4a 1fbd c004 d03b
000001d0: 201c 853b 5b38 1abd c8d4 f1bc ff64 79bc
000001e0: 5454 11bc de5c d53c 5464 29bd 2886 703c
000001f0: b0b5 f9bc 49c6 07bb 2dfa 003d c065 763c
00000200: d654 ef3c 387d b6bb 94a6 09bc f015 14bd
00000210: 3a59 46bc 5d60 223d 9cdc 463c 5368 38bd
00000220: 21ee 6ebc e628 04bd 00b3 49ba 3848 c1bc
00000230: a0a9 e8bc fcf0 213c 6b90 913b e707 26bc
00000240: efa5 583b 18ec e0bb 4f12 f5bc cc33 1bbd
00000250: bbba 1e3d 02b4 31bd a75b c9bc 20db 1d3c
00000260: 2fb9 2dbd 6247 c83c 03d7 b6bc 6625 d83c
00000270: 50f0 253c 1821 2bbd 9630 e4bc c8b8 e53b
00000280: e6de 8cbc 1670 83bc 3659 183d 2adf e0bc
00000290: a167 35bd 2915 38bd 24cc e4bc e10a ce3b
000002a0: c95c 94bc 928a fe3c 74a2 aebc 1759 a43b
000002b0: 66d8 ea3c c05b 12bc 51ea 34bd fd87 f9bc
000002c0: 6af2 04bb 6a0b c83c 1f6a 193d e80a 2ebd
000002d0: 5ae0 fd3c eafd 103d 7ce0 0d3d 3dd5 c63c
000002e0: 296c 123d ee9d 003c 727f 93bc 767e fabc
000002f0: 0c17 53bc ced0 cc3c dc41 433c 903b 5bbc
00000300: 324e e1bc 00c3 4ab9 d83c 2bbc 156f d9bc
00000310: cea9 0dbc f289 cc3c 66c9 f63c c52f 2dbd
00000320: bd81 0cbd da07 af3c d792 493c e835 823c
00000330: c88a 8dbc 5517 22bc c053 823a 47bc c2bc
00000340: c89f dabc a373 cbbc bea1 853c ad34 643c
00000350: d8e9 c33b b930 c4bc e545 aebc 7730 ddbc
00000360: 7624 003b 8a8b b23a 68f6 28bd 3092 353b
00000370: fd55 bcbc acc2 41bc d7b7 b4bc 44f6 17bc
00000380: db88 0fbd b4d9 e3bc e3c2 1d3d de0c 893c
00000390: 09bb 1fbd 7689 983c 085f 28bd 24b5 08bc
000003a0: 0032 15ba 9caf a1bc b0bc 223d 46ed 843c
000003b0: e099 bfba 23fe 273c 29b5 ffbb f6e5 a7bc
000003c0: 78e3 1bbc 0770 053d 2a1f e0bc 5af2 0ebc
000003d0: 04fb 25bc c8b1 963b 1f89 2b3d 0c2a d1bc
000003e0: 20ae 9cba 195a f53c e9e1 ddbc 01c2 d3bc
000003f0: ee94 4cbc e68d 743c 287f a03b b8a2 533c

linear2.bias f4 [256]
-0.010955665 0.0042522205 0.01325446 -0.027002992 0.031910654 0.23917624 0.0012110339 0.0047566765
0.0053385156 0.09613362 0.0036885964 0.03397785 0.007920435 0.049934093 0.01849778 0.030037323
0.06844098 0.020217352 -0.0444413 0.061833516 -0.01711837 0.05297134 0.021992864 0.047558993
0.034993708 0.015143083 -0.017006 -0.0010440706 -0.020296998 0.052115187 0.030349744 0.020191932
-0.04931393 -0.02218495 0.12597431 -0.039065033 0.17701995 -0.037637617 -0.003401537 0.015445773
-0.037645824 0.015409664 0.05380145 0.006282392 0.047406714 -0.011761218 0.005370461 0.048479337
0.014446787 0.03975894 0.12584257 -0.03271 0.07760723 0.020134052 -0.000867423 -0.0019816898
0.015768386 -0.027177375 0.013408738 0.015740717 0.016920533 0.05172933 -0.02455618 -0.0013821956
0.021561904 -0.030172674 0.11236715 -0.021291282 0.016343242 -0.019077366 -0.03830717 0.008882067
0.036285885 0.04683656 -0.044606302 -0.011126584 0.022955993 -0.022072451 0.025217256 0.0226344
-0.041474916 0.037005965 0.023915004 0.025177117 0.04335777 0.008056559 -0.0022201447 0.043858755
0.083694816 0.010584991 -0.020334022 0.02638463 -0.035258077 0.018726964 0.071077965 -0.0009705182
-0.005488734 -0.03682677 0.026103755 -0.0113071855 -0.016159123 0.049072355 0.016363828 0.016251614
-0.02751049 -0.049544953 0.011631283 -0.012880692 -0.03677305 0.017979573 -0.051971808 0.03747268
0.007964027 0.095151514 0.03242999 -0.05087058 -0.009997065 -0.028192831 0.08088369 0.031605072
0.038045697 -0.01754533 -0.034776133 0.027544456 0.040096037 -0.025549736 -0.051801164 0.018996174
-0.034893036 0.027022766 0.01030738 0.090380594 0.057945393 -0.039871775 -0.015339349 -0.014909884
0.012219331 -0.016575284 0.07516887 -0.011793483 0.1223627 0.011384541 0.009122107 -0.0121708
0.029556468 -0.020680724 0.00027260845 0.0585907 0.011228556 -0.018024055 -0.003609268 -0.024036786
0.037374835 -0.013896616 -0.034165848 0.005969622 0.11341225 -0.04299999 0.076576576 -0.010424554
0.0075610317 -0.004619673 0.027810184 0.037360184 -0.051028065 0.06604515 -0.014378056 0.041423406
-0.04029082 0.0011585883 0.050131917 -0.048352905 0.06548462 0.04462133 0.033723634 0.0070621977
-0.044179775 0.02476804 0.075605914 -0.032166313 -0.04392097 0.022763725 -0.0011566004 0.0023801397
-0.027370298 0.016756628 0.28328595 -0.023290569 0.22823893 -0.011219796 0.015465842 0.037589625
-0.011983272 0.038770325 0.053037114 -0.02504513 -0.027939182 0.060397744 -0.012222691 0.1356786
-0.03710062 0.033833254 -0.02528848 0.016318997 -0.014599158 -0.0060756276 0.029866522 0.0065253363
0.004430115 0.09867837 0.06172595 0.0083977785 -0.010104291 -0.015174871 -0.016647387 0.050625652
-0.0383927 0.037102584 -0.011097565 -0.033959247 0.03706466 -0.018151239 0.044008516 0.029158402
0.014002364 0.00803938 0.02497404 -0.0064526494 -0.043602772 0.029011695 -0.0037218784 0.060649093
0.02799201 -0.008611442 -0.0073109725 -0.03538989 -0.026647793 0.014665041 0.10466599 0.02064632
0.018865274 0.025004676 0.0030595567 -0.018380176 0.028396579 0.02055278 0.0018860246 0.013907315
0.2174028 0.003931688 -0.046204116 0.015034533 0.06457381 -0.050925206 0.04982193 0.025739284
00000000: 647f 33bc 3656 8b3b 3c29 593c 6135 ddbc
00000010: bfb4 023d 9eea 743e 8ebb 9e3a e5dd 9b3b
00000020: b7ee ae3b b4e1 c43d 61bc 713b 5c2c 0b3d
00000030: b6c4 013c b187 4c3d a888 973c d510 f63c
00000040: c92a 8c3d dc9e a53c 1508 36bd 2445 7d3d
00000050: d33b 8cbc 7af8 583d 612a b43c 38cd 423d
00000060: 9055 0f3d b21a 783c 2b50 8bbc 32d9 88ba
00000070: e445 a6bc bc76 553d 07a0 f83c 8d69 a53c
00000080: 67fd 49bd 36bd b5bc 69ff 003e a802 20bd
00000090: b844 353e e729 1abd 52ec 5ebb 4410 7d3c
000000a0: 8232 1abd d178 7c3c e95e 5c3d 86dc cd3b
000000b0: 8b2d 423d 20b2 40bc b1fa af3b 4592 463d
000000c0: 37b2 6c3c 45da 223d e0dc 003e ecfa 05bd
000000d0: 8af0 9e3d 2bf0 a43c c663 63ba 3ddf 01bb
000000e0: b42c 813c 16a3 debc 53b0 5b3c adf2 803c
000000f0: ee9c 8a3c 22e2 533d 0b2a c9bc ca2a b5ba
00000100: 97a2 b03c af2c f7bc c020 e63d 0e6b aebc
00000110: 43e2 853c 2348 9cbc fbe7 1cbd 1786 113c
00000120: 82a0 143d b1d7 3f3d 19b5 36bd 474c 36bc
00000130: 350e bc3c 49d1 b4bc 6b94 ce3c c76b b93c
00000140: 9ae1 29bd 9193 173d 66e9 c33c 3e40 ce3c
00000150: eb97 313d a8ff 033c d97f 11bb 3da5 333d
00000160: 3068 ab3d ac6c 2d3c 8993 a6bc 9424 d83c
00000170: c66a 10bd 4a69 993c 5391 913d 606a 7eba
00000180: d7da b3bb abd7 16bd 8bd7 d53c c641 39bc
00000190: 2360 84bc 1800 493d 6f0d 863c 1b22 853c
000001a0: ae5d e1bc a6ef 4abd 2391 3e3c 8a09 53bc
000001b0: 569f 16bd e649 933c 64e0 54bd f47c 193d
000001c0: 8d7b 023c ccde c23d 4fd5 043d ab5d 50bd
000001d0: bbca 23bc a7f4 e6bc 59a6 a53d 5274 013d
000001e0: ced5 1b3d 39bb 8fbc 6b71 0ebd e9a4 e13c
000001f0: be3b 243d ae4d d1bc 752d 54bd dd9d 9b3c
00000200: 00ec 0ebd d95e dd3c 49e0 283c 7619 b93d
00000210: 2658 6d3d 9650 23bd e551 7bbc 9648 74bc
00000220: 9733 483c e4c8 87bc 23f2 993d 7439 41bc
00000230: 4c99 fa3d 3a86 3a3c e474 153c 0968 47bc
00000240: 6820 f23c 9f6a a9bc e3ec 8e39 cdfc 6f3d
00000250: faf7 373c 2fa7 93bc 7889 6cbb cbe8 c4bc
00000260: 5b16 193d a2ae 63bc 7df1 0bbd d29c c33b
00000270: af44 e83d c220 30bd 2ed4 9c3d c0cb 2abc
00000280: 88c2 f73b a060 97bb 2fd2 e33c fe06 193d
00000290: ce02 51bd ae42 873d f091 6bbc 97ab 293d
000002a0: fd07 25bd c6db 973a 2057 4d3d b20d 46bd
000002b0: cd1c 863d dbc4 363d cb21 0a3d 026a e73b
000002c0: daf5 34bd 58e6 ca3c 46d7 9a3d d3c0 03bd
000002d0: 7ae6 33bd fe7a ba3c 1299 97ba 1efc 1b3b
000002e0: ad37 e0bc 3245 893c db0a 913e ddcb bebc
000002f0: 77b7 693e 3cd3 37bc 7164 7d3c 94f7 193d
00000300: 7c55 44bc a2cd 1e3d 723d 593d 722b cdbc
00000310: b6e0 e4bc a063 773d af41 48bc 55ef 0a3e
00000320: d2f6 17bd bd94 0a3d c929 cfbc 6baf 853c
00000330: 4f31 6fbc 0f16 c7bb a3aa f43c 7dd2 d53b
00000340: 802a 913b e317 ca3d 5ad4 7c3d d696 093c
00000350: 788c 25bc 06a0 78bc 1a60 88bc d85c 4f3d
00000360: aa41 1dbd e1f8 173d 90d2 35bc da18 0bbd
00000370: 1dd1 173d e8b1 94bc 4642 343d 9add ee3c
00000380: 2c6a 653c 9bb7 033c 5c96 cc3c bf70 d3bb
00000390: d298 32bd efa9 ed3c c2ea 73bb 2f6b 783d
000003a0: 804f e53c 0117 0dbc e290 efbb fdf4 10bd
000003b0: 794c dabc a445 703c 1f5b d63d 7922 a93c
000003c0: 598b 9a3c 9bd6 cc3c d882 483b 0692 96bc
000003d0: f19f e83c 4e5e a83c 7c34 f73a 82db 633c
000003e0: d79e 5e3e 64d5 803b 8740 3dbd 6753 763c
000003f0: 463f 843d f396 50bd 1412 4c3d 31db d23c

linear3.weight f4 [128, 256]
0.009726569 0.088852264 0.26150563 -0.012921262 -0.028445708 0.23645097 -0.054980665 -0.039022677
-0.020144189 0.15001169 0.11789562 0.02911456 -0.023979502 0.1766103 -0.005772263 0.029918648
0.13022289 -0.059380203 0.012472361 0.19715606 -0.04546338 0.012089401 -0.009389225 0.06498389
0.022894857 -0.061435603 -0.038209498 -0.07682743 0.06050944 -0.07058884 -0.02864963 -0.047323175
-0.024970576 -0.013739772 0.26637736 -0.036340386 0.13428445 0.05762268 -0.008956906 0.0709599
-0.14676416 -0.036141627 0.0077127465 0.115852356 -0.003107439 0.03495224 0.032560684 0.0149575975
0.057823785 -0.079013236 0.1811664 -0.008716242 0.09810197 0.07958847 -0.048806716 0.00052011566
-0.021145156 0.044692375 0.09005537 0.019781455 0.04159746 0.02732794 -0.11717804 0.07462042
-0.0424329 -0.0759716 0.026546538 0.037001047 -0.0012845679 -0.058523 0.026702374 0.18640254
0.1457837 0.088604175 0.0551901 -0.022570066 0.031090008 0.022735171 -0.03049612 0.02652438
0.053925887 -0.026849477 0.014043491 0.15031095 -0.012648541 -0.043728605 0.03737541 0.14953618
0.3301621 -0.10729665 0.002265985 0.17034978 -0.009650295 0.006204156 0.13306978 0.043757714
-0.0749891 0.055959202 -0.007834443 -0.057059705 -0.011987106 0.1083422 -0.042162668 0.00626803
0.02602755 -0.012720201 0.034498654 -0.0062671835 -0.0012010459 0.054477576 0.024650017 -0.05409032
-0.0027113408 0.16795653 0.0766829 -0.012466453 -0.044425458 0.013269039 0.17204382 -0.0119984
-0.09841147 0.15558755 -0.042152427 0.10290902 -0.11146025 -0.018059678 0.021299807 -0.05375614
-0.035612535 0.06375991 0.03875918 0.036040932 0.08205674 0.020108325 -0.018262496 -0.016097227
0.07101518 0.03825194 0.084664315 -0.05758718 0.14701246 0.09560727 -0.048944555 0.05607587
-0.0038302876 0.06374487 0.057987966 -0.05813833 -0.047869466 0.031211516 0.033536777 0.035206165
-0.04675225 0.13439105 -0.06747412 -0.02115427 0.17956276 -0.027807321 0.09078433 0.03355241
-0.1385485 -0.0028064572 0.30157417 0.1379624 -0.071176186 0.12232447 -0.028677054 0.09422416
-0.27125782 -0.014485643 0.115672916 -0.02773034 0.10118985 0.03225703 0.089746 -0.0327302
0.041064084 -0.060007196 0.18465981 0.03821916 0.017151676 0.040008888 0.14286202 0.05504193
0.008825172 0.045076344 0.23135684 -0.040769838 0.22526684 0.0492832 0.0048540994 0.084801085
0.010276105 -0.037332963 0.12510397 0.012418566 0.040847734 0.045216575 0.0027981924 0.26576477
-0.031983152 0.09787618 0.029909872 -0.0441793 0.052800674 -0.045252897 0.10100175 0.062154047
-0.06903348 0.17503446 0.031377338 -0.090417825 0.067572564 -0.051541675 0.025379956 0.10609039
0.05481988 0.01624678 0.015327762 -0.031956773 0.16597202 -0.036471933 -0.050563525 0.007796467
-0.03790743 0.018516006 -0.01938879 0.03415236 0.052790873 0.0140833715 0.06066703 0.12157123
0.030852135 0.08769484 0.08871213 0.1732674 0.17383388 -0.025536085 0.0776655 -0.070354745
0.03902595 0.15153328 0.2161062 0.0058586597 -0.009517387 0.008239104 0.0010979868 0.003418929
0.20460866 -0.02928823 -0.02605549 0.010788575 0.022812728 -0.026183087 0.048598137 -0.04997621
00000000: 305c 1f3c 2df8 b53d 11e4 853e b3b3 53bc
00000010: f906 e9bc 3420 723e 6833 61bd 3ed6 1fbd
00000020: 6d05 a5bc aa9c 193e 4273 f13d a881 ee3c
00000030: a970 c4bc 55d9 343e 4025 bdbb f417 f53c
00000040: 2659 053e a838 73bd e058 4c3c 47e3 493e
00000050: cf37 3abd 9f12 463c 44d5 19bc 4616 853d
00000060: ff8d bb3c e6a3 7bbd 9081 1cbd b357 9dbd
00000070: bfd8 773d e290 90bd a1b2 eabc f2d5 41bd
00000080: 188f ccbc c81c 61bc 9d62 883e a8d9 14bd
00000090: dd81 093e c205 6c3d fdbf 12bc 6d53 913d
000000a0: 5849 16be 3e09 14bd 35bb fc3b 0044 ed3d
000000b0: 2da6 4bbb 142a 0f3d 5a5e 053d b610 753c
000000c0: a2d8 6c3d b1d1 a1bd af83 393e 92ce 0ebc
000000d0: b0e9 c83d 48ff a23d 8de9 47bd 5f58 083a
000000e0: 9b38 adbc 5a0f 373d f36e b83d b80c a23c
000000f0: 1962 2a3d d8de df3c 0afb efbd 97d2 983d
00000100: 1fce 2dbd 0097 9bbd 2078 d93c 698e 173d
00000110: f25e a8ba d0b5 6fbd f0be da3c 4fe0 3e3e
00000120: 5248 153e 1b76 b53d 040f 623d dce4 b8bc
00000130: 79b0 fe3c 1c3f ba3c 00d3 f9bc a849 d93c
00000140: 64e1 5c3d 6ff3 dbbc ac16 663c 1deb 193e
00000150: d33b 4fbc c41c 33bd f516 193d 0320 193e
00000160: 020b a93e 59be dbbd eb80 143b 2c70 2e3e
00000170: 451c 1ebc 3c4c cb3b 7243 083e 4a3b 333d
00000180: e393 99bd 7a35 653d 095c 00bc 70b7 69bd
00000190: 9165 44bc 84e2 dd3d c3b2 2cbd 0c64 cd3b
000001a0: bb37 d53c 6468 50bc 764e 0d3d f25c cdbb
000001b0: 6a6c 9dba e123 5f3d d5ee c93c d08d 5dbd
000001c0: c0b0 31bb ccfc 2b3e ed0b 9d3d 1840 4cbc
000001d0: 78f7 35bd 6266 593c 412c 303e f094 44bc
000001e0: f48b c9bd 5852 1f3e 06a8 2cbd f7c1 d23d
000001f0: 4645 e4bd e4f1 93bc ef7c ae3c 662f 5cbd
00000200: 73de 11bd 8e94 823d f2c1 1e3d a89f 133d
00000210: 5d0d a83d 37ba a43c 3b9b 95bc 55de 83bc
00000220: 6870 913d 11ae 1c3d 7c64 ad3d 89e0 6bbd
00000230: 6f8a 163e bfcd c33d 167a 48bd d0af 653d
00000240: 9005 7bbb ac8c 823d ca84 6d3d 7522 6ebd
00000250: c612 44bd 4baf ff3c dc5d 093d 5734 103d
00000260: 4a7f 3fbd cf9d 093e df2f 8abd b84b adbc
00000270: 4ddf 373e 2ecc e3bc 23ed b93d 406e 093d
00000280: a8df 0dbe 8aec 37bb ee67 9a3e 0446 0d3e
00000290: d2c4 91bd 4085 fa3d 24ec eabc 99f8 c03d
000002a0: 4ee2 8abe 3155 6dbc ece5 ec3d bd2a e3bc
000002b0: a03c cf3d f31f 043d c0cc b73d 1a10 06bd
000002c0: d032 283d 1bca 75bd 7617 3d3e b28b 1c3d
000002d0: ac81 8c3c 5ce0 233d 6c4a 123e a673 613d
000002e0: 7497 103c f9a1 383d cfe8 6c3e 46fe 26bd
000002f0: 5aac 663e 2edd 493d 230f 9f3b 31ac ad3d
00000300: 1c5d 283c 73ea 18bd 411b 003e 3e77 4b3c
00000310: f44f 273d 0435 393d e161 373b 5212 883e
00000320: c400 03bd 4f73 c83d 8c05 f53c 5bf5 34bd
00000330: 8545 583d 1a5b 39bd 01da ce3d 3e95 7e3d
00000340: 6d61 8dbd 3c3c 333e 8685 003d fb2c b9bd
00000350: 7c63 8a3d 5d1d 53bd a0e9 cf3c eb45 d93d
00000360: cf8a 603d f817 853c 4b21 7b3c 1be5 02bd
00000370: 92f4 293e 9863 15bd b31b 4fbd 8179 ff3b
00000380: d244 1bbd e1ae 973c 3dd5 9ebc 58e3 0b3d
00000390: 3e3b 583d f1bd 663c fe7d 783d 56fa f83d
000003a0: 9ebd fc3c 5a99 b33d b5ae b53d 026d 313e
000003b0: 8201 323e 0d31 d1bc 170f 9f3d 2616 90bd
000003c0: add9 1f3d 8a2b 1b3e f24a 5d3e 00fa bf3b
000003d0: d0ee 1bbc 4ffd 063c 53ea 8f3a 1c10 603b
000003e0: ef84 513e dfed efbc 5372 d5bc 90c2 303c
000003f0: c2e1 ba3c ea7d d6bc d70e 473d dbb3 4cbd

linear3.bias f4 [128]
0.1682903 -0.043943413 -0.05367076 -0.023206692 -0.033429608 -0.018911643 -0.0030840638 -0.044222537
0.055068895 -0.020712718 -0.024293993 0.040210474 0.036973845 0.0441907 -0.05687474 0.0007752561
-0.059003618 0.029002251 -0.005474215 -0.008082217 0.33854058 0.02153648 0.06358574 0.04188124
-0.025696147 0.045166433 0.021575756 -0.0024332842 0.051890235 -0.0477663 0.1102156 0.014536179
0.035538357 -0.009293558 0.024724515 0.05282537 -0.087339915 0.21844275 0.079349935 -0.02973984
0.015539596 -0.014772963 0.039982755 0.057508785 -0.068833284 0.010141892 -0.025073541 -0.0034935006
-0.008316132 0.06267661 -0.053501476 -0.0063004964 0.092921205 0.0011142492 -0.048612468 -0.06659644
0.10618267 -0.044459097 0.006825733 0.00916545 0.0008354779 0.048925698 -0.045557622 -0.07707446
-0.02934964 0.01783192 0.018375177 -0.00901602 0.058050178 0.10480574 0.04774216 0.009019959
0.026931075 -0.015392717 -0.07210145 0.093363054 -0.017155752 0.011446596 0.07719456 0.05622975
-0.04039692 0.01796339 0.0031131469 0.041543987 0.062066585 0.021067385 0.027127676 -0.02591191
0.029264284 0.065255225 0.10615361 0.041883275 -0.0009162503 -0.065897815 -0.016908173 0.028946478
0.06004561 0.004643174 0.057982326 0.016189706 -0.00077979517 0.15772231 -0.018106151 -0.0014233555
-0.06560063 0.061726335 0.03314359 -0.023312002 0.031931713 0.09491968 0.065683916 -0.030576192
0.053482447 0.015571918 0.10400538 0.044910472 -0.029580574 -0.037607312 -0.008196205 0.027000759
-0.029361706 0.034895048 0.006171356 0.03501418 -0.0050869924 0.062060483 0.051511586 0.0039456626
00000000: 4b54 2c3e 02fe 33bd dfd5 5bbd f61b bebc
00000010: 7ced 08bd 97ec 9abc 011e 4abb b122 35bd
00000020: ec8f 613d b8ad a9bc 3204 c7bc bdb3 243d
00000030: e371 173d 4f01 353d 7df5 68bd 8e3a 4b3a
00000040: c7ad 71bd 2196 ed3c 0b61 b3bb 466b 04bc
00000050: 3155 ad3e 466d b03c 3e39 823d aa8b 2b3d
00000060: ba80 d2bc 7000 393d a4bf b03c bc77 1fbb
00000070: db8a 543d 99a6 43bd b7b8 e13d 2729 6e3c
00000080: ab90 113d 0244 18bc 118b ca3c 6a5f 583d
00000090: 45df b2bd 75af 5f3e 3882 a23d f7a0 f3bc
000000a0: ca99 7e3c 4c0a 72bc f5c4 233d 558e 6b3d
000000b0: 77f8 8cbd 2e2a 263c 0767 cdbc 37f3 64bb
000000c0: 6340 08bc 985c 803d 5d24 5bbd 6574 cebb
000000d0: 794d be3d 000c 923a de1d 47bd b763 88bd
000000e0: 4d76 d93d be1a 36bd 66aa df3b af2a 163c
000000f0: f903 5b3a 5066 483d a19a 3abd 37d9 9dbd
00000100: a86e f0bc 3f14 923c 8a87 963c eeb7 13bc
00000110: 06c6 6d3d 64a4 d63d 488d 433d 73c8 133c
00000120: 8f9e dc3c bc31 7cbc eda9 93bd 2135 bf3d
00000130: 388a 8cbc 818a 3b3c 2e18 9e3d 2b51 663d
00000140: 3e77 25bd f627 933c f005 4c3b 072a 2a3d
00000150: 8839 7e3d 8295 ac3c dc3a de3c 3745 d4bc
00000160: a7bb ef3c 88a4 853d 1067 d93d cc8d 2b3d
00000170: 8430 70ba 6ff5 86bd 0283 8abc 2a21 ed3c
00000180: 63f2 753d c425 983b e07e 6d3d 46a0 843c
00000190: 2b6b 4cba f581 213e 5a53 94bc e38f baba
000001a0: a059 86bd c1d4 7c3d 93c1 073d d0f8 bebc
000001b0: d4ca 023d 4065 c23d 4a85 863d ec7a fabc
000001c0: 6910 5b3d 5c21 7f3c c600 d53d 0bf4 373d
000001d0: f652 f2bc 200a 1abd 6049 06bc b230 dd3c
000001e0: f687 f0bc 1cee 0e3d 1639 ca3b 076b 0f3d
000001f0: c9b0 a6bb 2233 7e3d d0fd 523d 9e4a 813b

linear4.weight f4 [3, 128]
0.21067 0.051641338 0.01103613 -0.023828046 0.012947867 0.10355387 0.008983244 0.026883341
0.06404365 0.18293035 0.04613212 -0.024604492 0.04477153 -0.00905552 -0.061493546 0.045184862
0.06011032 0.068229996 -0.13806646 -0.18792745 0.16664766 -0.009313062 -0.009250732 -0.038735684
0.009314507 -0.064491704 -0.1290052 -0.048742503 0.050874643 -0.012056605 0.14489909 0.07471383
-0.15779811 -0.029945457 -0.030607896 0.06098763 -0.00926049 0.2013038 -0.15204018 0.0032882984
0.04636221 -0.08259221 -0.07554052 -0.038603548 0.060625825 -0.022447024 0.008747992 -0.09377149
-0.07512894 0.09083707 -0.002221498 0.018893195 0.18189879 0.05269454 0.03817297 -0.05445981
0.123080544 -0.066126615 0.035857797 0.04668718 0.04511451 0.13275461 0.022832677 -0.020795248
0.067226045 0.025695026 -0.07535209 -0.1515128 0.055734888 0.060622007 -0.1196477 -0.12174415
-0.072858535 -0.029174142 0.031034283 -0.06845753 0.007821345 -0.026737744 0.20600675 0.14752781
0.0849968 0.067319185 -0.059831344 -0.114431575 -0.0796025 -0.059668027 0.023209998 -0.06360662
0.0757088 -0.016218126 0.20142499 -0.0135060735 0.14744407 -0.050310176 -0.048467748 -0.12131425
-0.12111632 0.036643434 -0.13285482 -0.09653164 -0.09036358 0.22653092 0.009792584 -0.07618098
-0.035062842 0.026945058 0.006494786 -0.113637604 0.04677599 0.08291909 -0.055849362 0.0122044
0.07882585 0.22654317 0.24084933 0.13102809 0.030110804 -0.13390875 -0.002708698 -0.10670432
0.048890587 -0.04600719 -0.07663552 0.08764423 0.07928576 0.047668245 0.086281985 -0.090643
0.04441335 -0.05293703 0.054864757 0.12646022 -0.023499839 -0.012123962 0.059320264 0.020837963
0.07725047 0.10462657 -0.07530724 -0.06728369 -0.01243852 0.093771 -0.046697408 0.13799582
0.0049962555 0.18354292 -0.0036157523 0.14938001 0.16306823 -0.055618163 -0.10158748 0.1400212
0.08632604 0.034120914 -0.03140764 0.12157462 -0.04228015 -0.077058874 0.14734319 -0.06261656
0.0099616125 0.029021481 -0.09392316 0.07523379 0.0049905973 0.11449943 -0.011020994 0.058304973
0.026925739 -0.045743495 0.07317436 0.12156836 0.0353053 -0.10637476 -0.023166426 0.021595696
-0.075343505 0.12322688 0.09491645 0.027988577 0.14074804 0.11405842 -0.0056572333 0.08142901
0.008317244 0.022841841 -0.096542016 0.010659437 -0.00073990034 -0.05415859 0.0046404866 0.07855436
0.08121682 -0.029640498 -0.05332788 -0.036075532 0.14357056 -0.07004025 -0.04163509 0.0048634806
-0.050289873 0.10209188 -0.017546557 -0.045922358 0.0050388207 -0.040308274 0.0013902959 0.081105255
-0.03429137 0.07396019 0.07723094 0.02020429 -0.06466288 0.112223364 0.00909362 0.0034748707
-0.06845966 -0.076952174 -0.054915145 0.0151120685 0.09851264 0.018791096 -0.08624538 0.11191102
-0.09027144 -0.02395755 0.02910675 0.04975602 0.036325417 0.11854151 -0.056810427 -0.060416576
0.061813228 0.13332349 -0.048712738 -0.051885124 -0.029080689 0.11426182 -0.085505724 0.06388709
0.11871675 0.10978857 0.07178677 -0.08811739 0.07636775 -0.008448068 -0.004971043 -0.012498543
-0.028432267 0.131182 0.11456855 -0.021402135 -0.057109796 -0.054895148 0.116316125 0.10853032
00000000: e0b9 573e de85 533d e2d0 343c 0933 c3bc
00000010: 4a23 543c 0d14 d43d 752e 133c 743a dc3c
00000020: 5129 833d 1852 3b3e 09f5 3c3d 5c8f c9bc
00000030: 5a62 373d 9b5d 14bc a8e0 7bbd c313 393d
00000040: 3d36 763d 2bbc 8b3d 4b61 0dbe 0e70 40be
00000050: afa5 2a3e d095 18bc 6290 17bc 4fa9 1ebd
00000060: e09b 183c 3a14 84bd f019 04be 38a6 47bd
00000070: ee61 503d 1189 45bc 6d60 143e 9103 993d
00000080: d495 21be 2d50 f5bc 69bd fabc 2ace 793d
00000090: 4fb9 17bc 9522 4e3e 6cb0 1bbe 7e80 573b
000000a0: 4de6 3d3d 1b26 a9bd fdb4 9abd c11e 1ebd
000000b0: c952 783d d2e2 b7bc bd53 0f3c 440b c0bd
000000c0: 34dd 99bd c908 ba3d 8d96 11bb e7c5 9a3c
000000d0: ad43 3a3e 3bd6 573d 435b 1c3d 4011 5fbd
000000e0: a711 fc3d 646d 87bd a0df 123d 0e3b 3f3d
000000f0: fec9 383d d3f0 073e 980b bb3c cc5a aabc
00000100: cfad 893d 607e d23c 3252 9abd 2c26 1bbe
00000110: 444a 643d c84e 783d da09 f5bd ff54 f9bd
00000120: db36 95bd 9cfe eebc 9c3b fe3c 7633 8cbd
00000130: 1925 003c 1d09 dbbc 6ff3 523e 8811 173e
00000140: cd12 ae3d a4de 893d b611 75bd 1a5b eabd
00000150: a306 a3bd 7666 74bd e522 be3c 3044 82bd
00000160: 370d 9b3d e0db 84bc 5a42 4e3e 9448 5dbc
00000170: 94fb 163e 0b12 4ebd 1e86 46bd 9b73 f8bd
00000180: d50b f8bd 6d17 163d 180b 08be 61b2 c5bd
00000190: 8a10 b9bd b9f7 673e 1371 203c c604 9cbd
000001a0: 0e9e 0fbd e2bb dc3c 37d2 d43b d5ba e8bd
000001b0: 2e98 3f3d 7cd1 a93d 4dc2 64bd f7f4 473c
000001c0: 726f a13d effa 673e 35a1 763e 3a2c 063e
000001d0: efaa f63c 601f 09be 6984 31bb cb87 dabd
000001e0: 7f41 483d 0972 3cbd 15f3 9cbd d17e b33d
000001f0: 9360 a23d c73f 433d 9cb4 b03d 0aa3 b9bd
00000200: c6ea 353d 80d4 58bd deb9 603d ca7e 013e
00000210: bc82 c0bc 95a3 46bc cef9 723d 60b4 aa3c
00000220: 7f35 9e3d 7546 d63d af3a 9abd 08cc 89bd
00000230: efca 4bbc 030b c03d c845 3fbd c74e 0d3e
00000240: a1b7 a33b adf2 3b3e 42f6 6cbb 13f7 183e
00000250: 5cfb 263e dfcf 63bd 190d d0bd b861 0f3e
00000260: b5cb b03d 5fc2 0b3d 4ca5 00bd 1dfc f83d
00000270: f32d 2dbd 0bd1 9dbd 22e1 163e 1c3d 80bd
00000280: 0836 233c 75be ed3c c95a c0bd 2c14 9a3d
00000290: 2a88 a33b ad7e ea3d 6691 34bc 32d1 6e3d
000002a0: 5e93 dc3c 885d 3bbd 70dc 953d d5f8 f83d
000002b0: 4a9c 103d 03db d9bd 84c7 bdbc 75e9 b03c
000002c0: b24d 9abd 605e fc3d 8e63 c23d 4d48 e53c
000002d0: 4120 103e 7697 e93d 5060 b9bb 41c4 a63d
000002e0: 0d45 083c d01e bb3c d2b7 c5bd eba4 2e3c
000002f0: dff5 41ba 66d5 5dbd 390f 983b 1ce1 a03d
00000300: 0155 a63d a1d0 f2bc 566e 5abd f0c3 13bd
00000310: 2904 133e 4371 8fbd 8e89 2abd d55d 9f3b
00000320: c1fc 4dbd 8c15 d13d ccbd 8fbc 1519 3cbd
00000330: b11c a53b 4a1a 25bd 973a b63a 831a a63d
00000340: 1c75 0cbd 7178 973d 412b 9e3d 7883 a53c
00000350: f96d 84bd 5dd5 e53d 68fd 143c a8ba 633b
00000360: 9434 8cbd 1a99 9dbd b4ee 60bd 9c98 773c
00000370: ffc0 c93d c9ef 993c 6ba1 b0bd 9b31 e53d
00000380: 3ce0 b8bd a042 c4bc 4771 ee3c f8cc 4b3d
00000390: f6c9 143d e4c5 f23d 0db2 68bd 5f77 77bd
000003a0: de2f 7d3d f485 083e 0287 47bd 7f85 54bd
000003b0: a03a eebc 1a02 ea3d a01d afbd 3cd7 823d
000003c0: c421 f33d d4d8 e03d f104 933d e476 b4bd
000003d0: b266 9c3d c469 0abc 22e4 a2bb b0c6 4cbc
000003e0: c9ea e8bc 9354 063e eaa2 ea3d 8853 afbc
000003f0: f6eb 69bd bcd9 60bd 2637 ee3d 2545 de3d

linear4.bias f4 [3]
0.017605176 0.022196593 -0.01987009
00000000: bb38 903c a1d5 b53c 99c6 a2bc
