model/model.pth (torch, 687784 bytes, 8 tensors)

linear1.weight f4 [512, 12]
0	0x3e8f3748	0.27971864
1	0xbd1f0c0f	-0.03882986
2	0x3c744e19	0.014911198
3	0x3dc6a039	0.09698529
4	0xbe158ca3	-0.1460443
5	0xbe780c4b	-0.2422344
6	0xbdc2d90b	-0.09514054
7	0x3e118a0b	0.14212815
8	0xbdadf1b2	-0.08493365
9	0x3e28a00c	0.16467303
10	0x3e287493	0.1645072
11	0xbc31769f	-0.010831504
12	0xbd2299e5	-0.039697547
13	0x3db460f5	0.088075556
14	0x3e5d693c	0.21622175
15	0x3b138ab5	0.0022513096
16	0xbe07a951	-0.13248183
17	0xbdd24346	-0.10266738
18	0x3e98e03a	0.2985857
19	0x3dcf3f4f	0.10119497
20	0x3d65e5f1	0.056127492
21	0xbe8a92aa	-0.2706502
22	0x3dffd45b	0.124916755
23	0xbe2379ea	-0.15964475
24	0xbe81d7b2	-0.25359875
25	0xbea19929	-0.31562164
26	0xbd855ced	-0.06511865
27	0xbddaf896	-0.10691945
28	0x3e59f626	0.21285304
29	0x3e01867a	0.12648955
30	0xbe74f294	-0.23920661
31	0xbd160d04	-0.036633506
32	0xbd8fe2b6	-0.070256636
33	0xbe594c9e	-0.21220633
34	0xbe5b2299	-0.21399917
35	0x3e869d05	0.2629167
36	0x3e8fc6f8	0.2808149
37	0x3e52142b	0.20515506
38	0x3e1bf97c	0.1523189
39	0x3e64b0af	0.22333024
40	0xbe9703ed	-0.29495183
41	0xbe08ee6c	-0.133722
42	0x3e631333	0.22175293
43	0xbdc186c0	-0.0944953
44	0x3e6d4a37	0.23172842
45	0x3d995989	0.074877806
46	0xbe925bd1	-0.28585675
47	0x3dd884d5	0.10572211
48	0xbe6f0ccd	-0.23344727
49	0x3df2e215	0.11859528
50	0xbe2435f3	-0.16036205
51	0x3e55cfde	0.20880076
52	0xbd211946	-0.039330743
53	0x3d9a0a03	0.07521441
54	0xbe85d5cc	-0.26139677
55	0x3e341dcb	0.1758949
56	0xbe1a49d7	-0.1506723
57	0x3de119f0	0.10991275
58	0xbe87ea89	-0.26546124
59	0x3e0973f9	0.13423146
60	0x3e9c3ec6	0.30516642
61	0xbc804ae5	-0.015660712
62	0x3d54a286	0.051912807
63	0xbde1b757	-0.110212974
64	0x3e43d322	0.1912351
65	0x3cdd70c8	0.027031317
66	0xbe26807f	-0.16259955
67	0xbe86112d	-0.2618498
68	0xbe2f1385	-0.1709729
69	0xbe26eba9	-0.16300835
70	0xbdb5b4aa	-0.088723496
71	0x3d40196a	0.046899237
72	0xbe2c3e60	-0.16820669
73	0xbdb0edb4	-0.08639088
74	0xbe165518	-0.14680898
75	0xbceca170	-0.028885573
76	0xbe034c8c	-0.12822169
77	0xbe84cee7	-0.25939104
78	0xbe0fa192	-0.14026478
79	0x3da768fc	0.08174321
80	0xbd400710	-0.046881735
81	0x3c5a74c0	0.013333499
82	0xbe0a279c	-0.13491672
83	0x3e8f3ab4	0.27974474
84	0x3e387910	0.18014932
85	0xbe82da0c	-0.25556982
86	0xbe695a22	-0.22788289
87	0x3d3602ee	0.044436388
88	0x3cf12e38	0.029440984
89	0xbde3a8af	-0.11116158
90	0x3db1918e	0.086703405
91	0xbe14a8ed	-0.14517565
92	0xbe754432	-0.23951796
93	0x3e439f58	0.19103754
94	0x3e982ce7	0.29721758
95	0x3dbe0012	0.09277357
96	0x3d41b4cb	0.04729156
97	0xbd1a0234	-0.037599757
98	0xbd876e7d	-0.06612871
99	0x3c20e9a8	0.009821333
100	0xbe05c8ab	-0.1306483
101	0x3da0ac0e	0.07845317
102	0x3e95c344	0.29250538
103	0xbe7cb9bd	-0.24680229
104	0x3e8faeef	0.2806315
105	0x3d2ee700	0.042700768
106	0xbddf4156	-0.10901134
107	0xbd63abdb	-0.055583816
108	0xbc006cb6	-0.007838419
109	0xbdcd69da	-0.10029955
110	0xbe8af8c7	-0.27142927
111	0x3e894943	0.26813707
112	0x3e1e1376	0.15437111
113	0x3e9e2e4e	0.30894703
114	0xbe2fd393	-0.17170553
115	0x3e333679	0.17501248
116	0x3e87ee21	0.26548865
117	0x3e5f68ec	0.21817368
118	0x3e98d58b	0.2985042
119	0x3e5c0e0c	0.21489733
120	0x3c686e14	0.014186401
121	0xbd02b93c	-0.031914935
122	0xbd6c38fd	-0.057671536
123	0x3e27ca6b	0.1638581
124	0xbe8bfde1	-0.27342132
125	0xbc723ef9	-0.014785522
126	0x3e853dbf	0.2602367
127	0xbdd912b4	-0.105992705
128	0xbd59b0a5	-0.053146977
129	0xbdba1044	-0.09085134
130	0xbe51009a	-0.20410386
131	0x3e91a234	0.28444064
132	0xbe0080d5	-0.12549146
133	0x3df2f3e0	0.11862922
134	0x3d844560	0.06458545
135	0xbdc3f401	-0.095680244
136	0x3dcfe93a	0.10151906
137	0xbe8b62af	-0.27223727
138	0xbe9611d0	-0.29310465
139	0xbc99986b	-0.018749436
140	0x3e30758e	0.17232344
141	0x3e224bf6	0.1584929
142	0x3e7f0746	0.24905118
143	0xbc9b5a56	-0.018963974
144	0xbdf7b11a	-0.12094326
145	0xbe6a0570	-0.22853637
146	0x3e490806	0.19631967
147	0xbe02b1b9	-0.12763108
148	0xbd6ff608	-0.058584243
149	0x3db15099	0.08657951
150	0xb90658e1	-0.00012812346
151	0x3d897ed8	0.06713647
152	0xbccb0136	-0.02478085
153	0xbe331be0	-0.17491102
154	0xbe48403f	-0.19555758
155	0xbe841505	-0.25797287
156	0xbcbe6b99	-0.023244666
157	0xbe898604	-0.26860058
158	0x3e2f4125	0.17114694
159	0x3eaf63b0	0.34255743
160	0x3ea1a305	0.31569687
161	0xbe6675ab	-0.22505824
162	0xbc850d5b	-0.01624172
163	0x3ea93312	0.33046776
164	0xbe32f5e3	-0.17476611
165	0xbe351271	-0.17682816
166	0x3ea04af7	0.31307194
167	0xbe840398	-0.25783992
168	0xbd650fac	-0.05592315
169	0x3e45698c	0.19278544
170	0x3cb4ecb0	0.022085518
171	0xbe71b661	-0.23604728
172	0xbd94c5b1	-0.07264269
173	0xbe646b00	-0.22306442
174	0x3e92752f	0.2860503
175	0x3cadd860	0.02122134
176	0xbe819b08	-0.25313592
177	0xbd708758	-0.058722824
178	0xbc568cbd	-0.013095078
179	0x3d47eb08	0.048808128
180	0xbddc780a	-0.10765083
181	0x3daf0e93	0.08547702
182	0xbd8877f0	-0.06663501
183	0x3d970108	0.073732436
184	0x3e1a1614	0.15047485
185	0xbe62e02c	-0.22155827
186	0xbd4db8ae	-0.050224952
187	0x3df9c5a5	0.12195901
188	0xbe53e66a	-0.20693365
189	0x3e5a0cc2	0.21293929
190	0x3e6eae11	0.23308589
191	0x3c08f5e6	0.008359408
192	0xbdac6557	-0.084177665
193	0x3d302e9f	0.04301321
194	0xbd4d5012	-0.05012519
195	0xbc54218b	-0.01294745
196	0x3e395fdc	0.18102974
197	0x3e6d1d29	0.23155655
198	0xbc66bfb1	-0.014083789
199	0x3dfc6bd1	0.12325252
200	0x3dd9d25e	0.106358275
201	0x3c65ea91	0.014032976
202	0xbe2db3fb	-0.16963188
203	0xbe66fa85	-0.22556503
204	0x3e356ac7	0.17716514
205	0xbdccaec6	-0.09994273
206	0xbd9e450c	-0.077280134
207	0xbbeff88b	-0.00732333
208	0xbe63d37e	-0.22248647
209	0x3e6ddd4c	0.2322895
210	0xbe867eb6	-0.26268548
211	0xbe683a55	-0.22678502
212	0x3d30da30	0.04317683
213	0x3e867301	0.26259616
214	0x3c91a2d0	0.01777783
215	0x3e490829	0.19632019
216	0xbd94998a	-0.07255848
217	0xbd51276a	-0.05106298
218	0x3e213195	0.1574157
219	0xbdf67878	-0.12034696
220	0xbdeb353a	-0.114847615
221	0x3e82999d	0.25507823
222	0xbe2c0f91	-0.16802813
223	0xbe0099a3	-0.12558608
224	0xbe4edcc9	-0.2020141
225	0xbc1b8e4c	-0.009494375
226	0xbe5b7798	-0.2143234
227	0x3d0f4c7f	0.03498506
228	0xbc3f7e86	-0.01168788
229	0xbe6d20b8	-0.23157012
230	0x3e687882	0.2270222
231	0xbde55f18	-0.11199778
232	0xbdbeadf2	-0.09310521
233	0x3e277065	0.16351469
234	0xbdae1c46	-0.085014865
235	0xbe84c60f	-0.25932357
236	0x3e757718	0.23971212
237	0xbdb050e2	-0.08609177
238	0xbdec3a08	-0.11534506
239	0x3e93d50c	0.2887348
240	0x3e58d1b0	0.2117374
241	0xbe4f4b51	-0.20243575
242	0xbe6cbf89	-0.2311994
243	0xbc1c7349	-0.0095489705
244	0xbdd1f60d	-0.102520086
245	0x3e1991a1	0.1499696
246	0x3cff4082	0.03115869
247	0xbc3d7292	-0.01156296
248	0x3eab4518	0.33451152
249	0x3e1dcb9c	0.15409702
250	0xbe85c34d	-0.26125565
251	0x3e342eab	0.17595927
252	0xbcda7ff9	-0.02667235
253	0xbd65088a	-0.055916347
254	0x3d8c0b60	0.06838107
255	0xbe09d870	-0.1346147

linear1.bias f4 [512]
0	0x3d6f8c90	0.05848366
1	0x3d2c5ecd	0.042082597
2	0x3e6326bf	0.22182749
3	0x3d041018	0.03224191
4	0xbde0759f	-0.109599344
5	0xbd647579	-0.055776093
6	0xbe4f7390	-0.20258927
7	0xbe3b3775	-0.18282874
8	0x3d9f05b9	0.077647634
9	0x3e420fd3	0.18951349
10	0xbca56263	-0.020188516
11	0x3e481925	0.19540842
12	0xbdc816af	-0.097699516
13	0xbe52d813	-0.20590238
14	0xbe4be33a	-0.19910899
15	0x3d0de214	0.034639433
16	0xbdc4ddc0	-0.09612608
17	0xbce1080a	-0.027469654
18	0xbe0adb71	-0.13560273
19	0xbe22d782	-0.15902522
20	0x3e258fee	0.16168186
21	0x3d9ee3e8	0.077583134
22	0xbe503660	-0.20333242
23	0xbde9dee5	-0.11419467
24	0xbe04b307	-0.12958919
25	0xbe807082	-0.25085837
26	0x3d9082f8	0.0705623
27	0xbe79cdd9	-0.24394931
28	0x3e010739	0.12600411
29	0x3ea3c2ab	0.31984457
30	0xbe1c89d0	-0.15286946
31	0x3e84a7a0	0.25909138
32	0xbcf6bdf2	-0.03011987
33	0x3e93d517	0.28873512
34	0xbd503199	-0.05082855
35	0xbb352b6e	-0.0027644294
36	0x3d4b3ffb	0.049621563
37	0xbe2e0a77	-0.1699618
38	0xbda23e42	-0.07922031
39	0xbc03bea0	-0.008041054
40	0x3e5a3e29	0.21312775
41	0xbe407712	-0.18795422
42	0xbe5dde32	-0.21666792
43	0x3e417014	0.1889041
44	0x3e440d5d	0.19145723
45	0xbd7b1b84	-0.061305538
46	0x3d151fe7	0.036407378
47	0xbd8c9bb6	-0.06865637
48	0xbe8bd822	-0.27313334
49	0x3e90ab58	0.28255725
50	0x3d2de792	0.04245717
51	0xbc6b3f4e	-0.014358355
52	0x3e82bad9	0.25533178
53	0x3bd81bb9	0.0065951017
54	0xbc80db36	-0.015729528
55	0x3ddc665b	0.1076171
56	0x3e4a2e3c	0.197442
57	0x3e3e4280	0.18580055
58	0xbda9196f	-0.08256804
59	0x3e69ddad	0.22838469
60	0x3e72feb7	0.23729979
61	0x3e3d0138	0.18457496
62	0xbe20dca6	-0.1570917
63	0x3e245562	0.16048196
64	0xbe431cf5	-0.19054015
65	0x3e84b98d	0.25922814
66	0x3e96f17d	0.29481116
67	0xbb2d0298	-0.002639925
68	0xbe13603e	-0.14392182
69	0xbbdec44e	-0.0067983037
70	0xbd9157e1	-0.0709684
71	0x3e77b4e8	0.24190104
72	0x3e935fc6	0.28784007
73	0x3c928119	0.017883824
74	0x3e809db2	0.25120312
75	0xbe205aec	-0.15659684
76	0x3e9175ba	0.2841013
77	0xbc948040	-0.01812756
78	0x3e608671	0.21926285
79	0xbe880e78	-0.2657354
80	0xbe29bc4e	-0.16575739
81	0x3da07bc5	0.07836107
82	0x3d3c0c5f	0.045910235
83	0xbdebc226	-0.1151164
84	0xbe407593	-0.18794851
85	0x3e8b4134	0.27198184
86	0x3e6e320d	0.2326128
87	0x3caa48fb	0.020786753
88	0xbe3c404c	-0.18383902
89	0xbd19afbb	-0.037521105
90	0x3e40bf26	0.18822917
91	0x3d83af3f	0.0642991
92	0x3e99c8ef	0.30036113
93	0x3e21740b	0.15766923
94	0x3dc92ec0	0.0982337
95	0xbe7e06e2	-0.24807313
96	0x3e679c39	0.22618188
97	0x3e72743b	0.23677151
98	0xbddad9fc	-0.106861085
99	0xbe090cf7	-0.13383852
100	0x3e71e565	0.23622663
101	0xbe5cc31a	-0.215588
102	0x3e1c3e9a	0.15258256
103	0xbd339976	-0.043847524
104	0xbe458350	-0.19288373
105	0xbdc9b350	-0.09848654
106	0xbe7df591	-0.24800707
107	0xbe0811d2	-0.13288048
108	0x3e91b955	0.2846171
109	0xbe6be74f	-0.23037456
110	0x3e861330	0.26186514
111	0x3e887e00	0.2665863
112	0x3c7c20ae	0.015388651
113	0x3e33d119	0.17560233
114	0x3e490b32	0.19633177
115	0x3e1b5db4	0.15172464
116	0xbd4ac583	-0.049504768
117	0xbcd7579f	-0.026286898
118	0xbe12b9fa	-0.14328757
119	0x3e462292	0.19349125
120	0xbddc207e	-0.10748385
121	0x3e8c24fe	0.27371973
122	0x3d6412db	0.055682044
123	0xbd0d93fa	-0.03456495
124	0x3e82b86e	0.25531334
125	0x3e93d422	0.28872782
126	0x3e61b3cc	0.22041243
127	0x3d990d32	0.0747322
128	0xbdcd6e0e	-0.10030757
129	0x3d46834e	0.048465066
130	0x3e34b103	0.1764565
131	0xbe8fd53f	-0.2809238
132	0x3e697d76	0.22801766
133	0x3e1bfb95	0.1523269
134	0x3e8e3fb4	0.27782977
135	0xbe4e5961	-0.20151283
136	0xbe446fda	-0.19183293
137	0xbe39b3d7	-0.1813501
138	0x3e1dbf26	0.15404949
139	0x3e8642c9	0.26222828
140	0xbd4e8120	-0.050416112
141	0x3e82d002	0.25549322
142	0x3e3d312f	0.18475793
143	0xbe758e54	-0.23980075
144	0x3d7ae9a0	0.06125796
145	0xbd219dae	-0.039457016
146	0x3d960ab4	0.0732626
147	0x3d0bde25	0.0341474
148	0x3ddaa5c7	0.10676151
149	0x3debd29a	0.115147784
150	0x3cbcf735	0.023067096
151	0xbe17a319	-0.1480831
152	0x3e3d1c5d	0.18467851
153	0x3e46fdbc	0.1943273
154	0x3e94a21c	0.2902993
155	0xbca897a0	-0.020580113
156	0xbe288cc4	-0.16459948
157	0x3d5b615b	0.053559642
158	0xbd42b7be	-0.04753851
159	0x3d95e6d8	0.073194206
160	0xbc56ab11	-0.013102309
161	0x3ead7a46	0.3388235
162	0xbe137b59	-0.14402522
163	0xbe74efef	-0.23919652
164	0xbca9ad59	-0.020712541
165	0xbd99bfb0	-0.075072646
166	0x3e6fb76e	0.23409817
167	0x3e867392	0.26260048
168	0x3e4c9c59	0.19981517
169	0x3e81f61c	0.2538308
170	0x3e91b421	0.2845774
171	0x3e4c1549	0.19929995
172	0x3d5e7a4f	0.05431586
173	0x3debeb28	0.11519462
174	0xbdda45b9	-0.1065783
175	0xbe84efe5	-0.25964275
176	0xbdb60d6f	-0.08889281
177	0xbdab3323	-0.08359363
178	0x3e400a11	0.1875384
179	0xbe38106a	-0.17975011
180	0x3e8f648f	0.28006408
181	0x3e1002a8	0.14063513
182	0xba8f45d1	-0.0010930841
183	0xbe7e0cce	-0.24809572
184	0xbe61993a	-0.22031108
185	0x3c1c602a	0.009544412
186	0x3d2df0ce	0.042465977
187	0xbdb325c0	-0.087474346
188	0x3de6e71b	0.112745486
189	0x3db1cf76	0.08682148
190	0x3dc0dd98	0.09417266
191	0x3e93a9df	0.2884054
192	0xbe82d7a1	-0.25555137
193	0xbe85e923	-0.26154432
194	0xbe879a98	-0.26485133
195	0x3e820b7b	0.25399384
196	0x3e1c9cea	0.15294233
197	0xbdea2d8c	-0.114344686
198	0x3c096315	0.008385439
199	0x3e534ecb	0.20635526
200	0xbe882f7d	-0.2659873
201	0x3ddff5c3	0.10935547
202	0x3de8b37f	0.11362361
203	0xbdf208ae	-0.11818062
204	0x3e9eb474	0.3099705
205	0x3e53dbc4	0.20689303
206	0xbd63538b	-0.055499595
207	0xbe8694fe	-0.26285547
208	0xbe5a5cad	-0.21324416
209	0xbdd6b7e3	-0.10484292
210	0x3de5cb2b	0.11220392
211	0x3e57d75e	0.2107825
212	0xbe828c96	-0.25497884
213	0xbe388dec	-0.18022889
214	0x3de52bd0	0.11189997
215	0xbe816078	-0.25268912
216	0xbe590e2b	-0.21196811
217	0xbe12d788	-0.14340031
218	0xbe420570	-0.18947387
219	0x3e566d4c	0.20940131
220	0xbdc7ff37	-0.09765475
221	0x3e817dc1	0.25291255
222	0x3e8c83f7	0.2744443
223	0x3d01b42f	0.031665977
224	0x39b29e43	0.0003406872
225	0x3e555c97	0.20836101
226	0xbca8bc32	-0.020597551
227	0x3e6d8df2	0.23198679
228	0xbd90445d	-0.07044289
229	0x3e64c72e	0.22341606
230	0xbe4d99c6	-0.20078191
231	0x3d9ae6b7	0.075635366
232	0xbe0a0f8b	-0.13482492
233	0xbe0856ab	-0.13314311
234	0x3d2f1468	0.04274407
235	0x3e155e34	0.14586717
236	0xbdd9c0e8	-0.10632497
237	0xbe55782d	-0.20846625
238	0x3cc60b7e	0.024175402
239	0x3e87db54	0.26534522
240	0x3df7630c	0.120794386
241	0xbe4a91e4	-0.19782215
242	0xbd0ff66b	-0.035147112
243	0xbc02c7c5	-0.007982199
244	0xbdb80241	-0.08984805
245	0x3e910f57	0.28332016
246	0xbe480080	-0.1953144
247	0xbd54131a	-0.05177603
248	0x3db4140c	0.08792886
249	0xbe8e558d	-0.27799645
250	0x3e820296	0.25392598
251	0x3e821109	0.25403622
252	0xbdc0ec95	-0.094201244
253	0x3ddf3442	0.10898639
254	0x3e69f4b3	0.22847252
255	0xbe345280	-0.17609596

linear2.weight f4 [256, 512]
0	0xbcab8eab	-0.020942053
1	0xbcf08f7b	-0.029365292
2	0xbd2df79a	-0.04247246
3	0x3d0f638e	0.035007052
4	0x3bee82c0	0.00727877
5	0x3cff6726	0.031177115
6	0xba0db440	-0.00054055825
7	0x3c7c0350	0.015381649
8	0x3cca4b48	0.0246941
9	0xbb50786a	-0.0031810054
10	0xbceb4ca6	-0.028723072
11	0xbcf0efa7	-0.02941115
12	0xbcdd4d6d	-0.027014459
13	0x3d2b4283	0.041811477
14	0xbc6d716a	-0.014492372
15	0x3c5bdd38	0.013419442
16	0x3d16ddf1	0.036832754
17	0x3bbe1270	0.0058005378
18	0xbce0b4e7	-0.027430011
19	0x3c877330	0.016534418
20	0x3d0b0f52	0.033950157
21	0xbcc92639	-0.024554359
22	0xbca7b6c2	-0.020472888
23	0x3c508860	0.012727827
24	0x3ccc3a06	0.024930011
25	0x3d011c8f	0.031521376
26	0xbd22fc0c	-0.039791152
27	0x3cbf3462	0.023340408
28	0x3d34348f	0.043995436
29	0xbd1724f6	-0.036900483
30	0x3ce37202	0.027764324
31	0x3c1ef7b3	0.009702611
32	0x3cc9a01e	0.024612483
33	0x3cd80288	0.026368394
34	0x3d240acb	0.040049355
35	0xbceb785a	-0.028743912
36	0x3cb7506c	0.022377215
37	0xbd0c230c	-0.03421311
38	0xbce024ad	-0.027361238
39	0x3c5abc02	0.013350489
40	0x3d322719	0.043494318
41	0x3cda4cca	0.026647944
42	0x3d2a2929	0.04154316
43	0xbd20d945	-0.039269704
44	0x3c689937	0.0141966855
45	0xbd2ee7f3	-0.042701673
46	0x3d233a0b	0.039850276
47	0xbd285e8e	-0.0411058
48	0x3d091319	0.03346548
49	0xbcbb17a1	-0.022838416
50	0xbbd58f1b	-0.0065173036
51	0x3cd5c62f	0.026095478
52	0x38550529	5.0787963e-05
53	0xbc1af0bc	-0.00945681
54	0x3c9820b2	0.018570278
55	0xbbac6ad8	-0.00526176
56	0xbc8c2d3a	-0.01711141
57	0x3c59bc24	0.013289485
58	0x3d1379d1	0.036004845
59	0xbd024766	-0.031806372
60	0x3bbf3f52	0.005836406
61	0x3c830bb8	0.015996799
62	0xbcff269a	-0.031146336
63	0x3c181808	0.009283073
64	0x3d279583	0.04091407
65	0xbd3093d1	-0.04310972
66	0xbc97391a	-0.018459845
67	0x3c9c294e	0.019062664
68	0xbd34bbc5	-0.044124383
69	0xbd24c6e0	-0.040228724
70	0x3caaa410	0.020830184
71	0xbc70e64c	-0.014703345
72	0x3c8e31ff	0.017357824
73	0xbb0bca80	-0.0021330416
74	0x3cba504e	0.02274337
75	0x3d162d06	0.03666403
76	0x3c7b1aee	0.015326245
77	0xbb704c40	-0.0036666542
78	0xbd3bfcf6	-0.04589554
79	0xbbe3e278	-0.0069544874
80	0xbd1de20c	-0.038545653
81	0xbd3ec9ee	-0.046579294
82	0xbbd86ee1	-0.0066050147
83	0x3c1c62ec	0.009545069
84	0xbcce00d0	-0.025146872
85	0xbcafd126	-0.021462034
86	0x3ca7e732	0.020495985
87	0xbd028001	-0.031860355
88	0xbd2388e4	-0.03992547
89	0x3d30e211	0.043184344
90	0xbd1cd209	-0.038286243
91	0xbc7bdd82	-0.015372636
92	0x3d17610e	0.036957793
93	0x3d064dc5	0.03278901
94	0x3d21aa88	0.039469272
95	0xbc07c724	-0.008287225
96	0xbc863846	-0.016384255
97	0x3cbb2aa7	0.022847487
98	0x3ce1191a	0.02747779
99	0x3b358b80	0.0027701557
100	0xbcbb3a29	-0.022854881
101	0x3cf197aa	0.029491264
102	0xbb6a913e	-0.0035792137
103	0x3d0c13e3	0.034198653
104	0x3b0c0910	0.0021367706
105	0x3caffdee	0.021483388
106	0x3d199633	0.037496757
107	0xbcd1c1c1	-0.025605084
108	0xbcad4604	-0.02115155
109	0xbcd02fdc	-0.025413446
110	0xbc988b44	-0.018621095
111	0x3c70089a	0.014650488
112	0x3c53ebdf	0.012934654
113	0xbc918563	-0.017763799
114	0xbc964a64	-0.01834602
115	0x3d0c2827	0.03421798
116	0xbd2416d6	-0.04006084
117	0xbc5ddd50	-0.013541535
118	0xbc6d7ffa	-0.014495844
119	0xbce4695e	-0.027882274
120	0x3b1ea360	0.0024206266
121	0xbc3bbdaa	-0.011458794
122	0xba5f3280	-0.00085143
123	0x3c4a950c	0.012364637
124	0x3c04a29c	0.00809541
125	0x3c75ed88	0.015010245
126	0xbd3b3ba4	-0.045711175
127	0x3d27a890	0.040932238
128	0x3d19eff6	0.03758236
129	0xbd1cc76b	-0.038276117
130	0x3d045bd1	0.032314125
131	0x3cdf18e6	0.027233552
132	0xbc824911	-0.015903981
133	0x3ce7c80b	0.02829363
134	0xbd22839f	-0.039676305
135	0x3d010a2d	0.031503845
136	0xbc318aec	-0.010836344
137	0xbd1db3a3	-0.038501393
138	0xbd22374c	-0.039603516
139	0x3cf7257d	0.030169243
140	0xbd0939b4	-0.033502296
141	0xbd337cec	-0.043820307
142	0x3ca9f7f6	0.02074812
143	0x3c3245b0	0.010880873
144	0xbc1ef842	-0.009702744
145	0xbd05eeb5	-0.032698352
146	0xbd2de4e5	-0.04245462
147	0xbd341bb5	-0.043971736
148	0xbd1f2f17	-0.038863268
149	0x3cde7c35	0.027158836
150	0x3ccaff42	0.02477992
151	0xbcf35878	-0.029705271
152	0xbcde3ea9	-0.027129488
153	0x3a4b9d30	0.0007767258
154	0xbd056a54	-0.032572106
155	0x3cfe2ea6	0.031028103
156	0x3ca5b16e	0.020226207
157	0xbc434a70	-0.011919603
158	0xbd254329	-0.040347252
159	0xbc93e05c	-0.018051319
160	0xbcb17cde	-0.021665987
161	0x3d26223d	0.040559996
162	0xbd08c280	-0.033388615
163	0xbd26a0a3	-0.04068054
164	0xbc9894cf	-0.018625645
165	0x3c9f1562	0.019419376
166	0x3d1f97dc	0.038963184
167	0xbc5f1ace	-0.013617231
168	0xbcdf3735	-0.027248004
169	0x3cc0a1aa	0.023514587
170	0x3c8e4588	0.01736714
171	0xbd25e6b8	-0.040503234
172	0xbd0fefba	-0.03514073
173	0x397e9664	0.00024279353
174	0xbd22cda8	-0.03974691
175	0xbc17ce5c	-0.0092655085
176	0xbc099b00	-0.008398771
177	0xbc629518	-0.013829492
178	0xbd1e4ca8	-0.038647324
179	0xbcc8cfcc	-0.024513148
180	0xbcf56210	-0.029953986
181	0x3d044ef9	0.032301877
182	0x3d2cf355	0.042224247
183	0x3d310d21	0.04322541
184	0x3cced12a	0.025246222
185	0xbcbc0632	-0.022952173
186	0x3d2362a8	0.039889008
187	0x3c301c70	0.0107489675
188	0xbcf5ede5	-0.030020664
189	0x3cdd95fe	0.02704906
190	0xbd26621d	-0.040620912
191	0x3d2370af	0.039902385
192	0x3cd56e3e	0.026053544
193	0x3d2a31af	0.04155129
194	0x3c74d338	0.014942937
195	0xbab747ea	-0.0013983224
196	0x3bece768	0.007229734
197	0x3d22c529	0.039738808
198	0x3ae2ff18	0.0017318456
199	0xbcfda908	-0.03096439
200	0x3cec645e	0.028856453
201	0xbd04c1ca	-0.032411374
202	0x3d006d5b	0.03135429
203	0xbd2bf1ea	-0.041978754
204	0xbcda45d9	-0.026644634
205	0xbc0fd2b4	-0.008778263
206	0xbd0be9d0	-0.034158528
207	0xbc9ddd0d	-0.019270444
208	0x3c886b66	0.016652774
209	0xbcfa68e8	-0.030567601
210	0x3c86cd23	0.016455239
211	0x3cf32582	0.029680971
212	0xbb40e3d0	-0.0029432662
213	0x3cb2a012	0.021804843
214	0xbc609f9a	-0.013709927
215	0x3c927f7c	0.017883055
216	0xbc751c5e	-0.014960377
217	0x3d239e6f	0.039946016
218	0xbc742246	-0.01490075
219	0xbd10ab2d	-0.035319496
220	0x3afa06ba	0.0019075491
221	0x3cede5c6	0.029040229
222	0xbd014ff5	-0.031570394
223	0x3c10328c	0.008801114
224	0xbafec560	-0.0019437484
225	0x3c58aecd	0.0132252695
226	0xbd250c41	-0.04029489
227	0x3d09b178	0.033616513
228	0xbcba440b	-0.022737524
229	0x3cfaf68b	0.030635139
230	0xbb173a60	-0.0023075566
231	0xbd398d1c	-0.045300588
232	0xbc8546ad	-0.016269052
233	0x3cb984ba	0.022646297
234	0xbc5d7eb2	-0.013518976
235	0xbb666684	-0.003515632
236	0xbd369f31	-0.04458541
237	0xbd1191f9	-0.0355396
238	0x3ce52a93	0.027974403
239	0x3c190fd0	0.009342149
240	0xbcf5b6d5	-0.029994408
241	0xbccc0aa7	-0.024907423
242	0xbcd1bb3a	-0.025601972
243	0xbca0f5b5	-0.019648412
244	0xbc22b7a8	-0.009931482
245	0x3cf91563	0.030405706
246	0xbcb7b6be	-0.022426005
247	0xbc62ea42	-0.013849797
248	0x3c84a8c0	0.016193748
249	0x3c8db1ba	0.01729666
250	0x3d0ee815	0.0348893
251	0xbccf1d73	-0.025282597
252	0x3c128184	0.008942012
253	0xbd3bbfea	-0.04583732
254	0x3cfcc91d	0.030857617
255	0xbd070add	-0.032969344

linear2.bias f4 [256]
0	0xbc0fafb5	-0.008769919
1	0x3b8acc31	0.0042357673
2	0x3d8460b3	0.064637564
3	0xbcc7ad91	-0.024374755
4	0x3c9dd13a	0.019264806
5	0x3a9cd22b	0.001196449
6	0xbd2b5614	-0.041830137
7	0x3d635b52	0.05550701
8	0x3d03a1a0	0.03213656
9	0x3c365500	0.011128664
10	0x3d248de3	0.040174376
11	0x3ca7f4bd	0.020502442
12	0xbc90e9b8	-0.01768957
13	0x3d1825e8	0.037145525
14	0xbb582678	-0.0032981914
15	0xbca09930	-0.019604295
16	0xbc7249bd	-0.014788088
17	0xbc81eb82	-0.01585937
18	0x3d846a14	0.06465545
19	0x3cf790e1	0.03022045
20	0xbbb6d478	-0.0055795275
21	0x3d763486	0.060108684
22	0xbc9121be	-0.017716285
23	0x3b5f40ed	0.0034065798
24	0xbce17b75	-0.02752469
25	0xbc0c8ca3	-0.008578452
26	0x3c893a89	0.016751545
27	0xbcf29655	-0.0296127
28	0x3d15c560	0.036565185
29	0x3d69a56e	0.05704253
30	0xbc0a8498	-0.008454464
31	0xbc92333d	-0.017846698
32	0xbb365d58	-0.0027826633
33	0xbcd68e79	-0.026190983
34	0xbce76d72	-0.02825043
35	0xbc4a0af7	-0.012331716
36	0x3cd992d1	0.026559265
37	0x3c8e10c9	0.017341988
38	0x3d85f0d6	0.065400764
39	0xbcd09645	-0.02546228
40	0xbc85734a	-0.016290326
41	0x3d803f5b	0.06262084
42	0x3d73c0aa	0.05950991
43	0x3d4ef95b	0.050530773
44	0x3ae132ce	0.0017181279
45	0x3b4bbda6	0.003108838
46	0x3cb2ff1e	0.021850165
47	0xbc82b2d4	-0.015954413
48	0x3c75e462	0.015008064
49	0x3d7b760a	0.061391868
50	0x3c8301fb	0.015992155
51	0xbb6cc635	-0.0036128883
52	0xbca0f2d6	-0.019647043
53	0x3d4268a6	0.04746308
54	0x3b72264b	0.0036949094
55	0x3d29e3d7	0.04147705
56	0xbb86aa86	-0.0041096834
57	0xbd3ff455	-0.046863873
58	0xbd3e2ec5	-0.04643132
59	0x3d44b960	0.04802835
60	0x3b18814f	0.0023270433
61	0xbd1186d7	-0.035528984
62	0x3d235774	0.039878324
63	0x3d0f5ec0	0.03500247
64	0xbc710044	-0.014709536
65	0xbbe39703	-0.0069454922
66	0x3ce7ab67	0.028279973
67	0x3c9c5016	0.019081157
68	0x3d12e1cd	0.03585987
69	0x3c72bb16	0.014815113
70	0x3ce69710	0.028148204
71	0x3d0233fb	0.031787854
72	0x3c062d13	0.0081894575
73	0xbd163c3a	-0.03667853
74	0xbcd60c6b	-0.026128968
75	0x3a813c40	0.0009859875
76	0xbd03b4ae	-0.03215473
77	0x3d10f5cd	0.035390664
78	0x3b6cba2d	0.0036121712
79	0xbd03686c	-0.032082006
80	0xbd1a564e	-0.037679963
81	0xbcc256a8	-0.023722962
82	0xbc253b9f	-0.010085016
83	0xbc59f999	-0.013304138
84	0x3ce34178	0.027741179
85	0x3d8f3b3c	0.0699372
86	0x3bf11513	0.0073572486
87	0xbbf31c88	-0.0074191727
88	0x3c465f67	0.012107707
89	0x3b777907	0.0037761347
90	0x3d045892	0.03231103
91	0x3c198df0	0.009372219
92	0x3c18f29d	0.009335187
93	0xbc880ebc	-0.016608588
94	0x3c9749fa	0.018467892
95	0x3d1eaaea	0.038737215
96	0x3cf71b5b	0.030164411
97	0xbc908ec8	-0.017646208
98	0xbb89a524	-0.0042005945
99	0xbadab739	-0.0016686685
100	0xbcab567b	-0.02091526
101	0x3cb8fb21	0.022580685
102	0xbc5934ea	-0.013257245
103	0x3d6fa297	0.058504667
104	0x3c43171a	0.011907363
105	0xbc960d14	-0.018316783
106	0x3d30e2bf	0.043184992
107	0x3d1520a5	0.036408085
108	0x3d0694e7	0.032856848
109	0xbd20372b	-0.039115112
110	0x3d2784ec	0.04089825
111	0x3bab6c49	0.0052314145
112	0x3d3c0ff8	0.045913666
113	0x3cd20b21	0.025640072
114	0xbc54ad9f	-0.012980848
115	0x3d183bb0	0.037166297
116	0x3d89fb28	0.067373574
117	0xbd24d182	-0.040238865
118	0x3d8dfe71	0.069332965
119	0x3d7c01c9	0.06152514
120	0xbc818ec6	-0.01581515
121	0x3c8c0695	0.017092982
122	0x3d8ca800	0.06867981
123	0x3d00fea9	0.031492863
124	0x3c812763	0.015765851
125	0x3d13edc4	0.036115423
126	0x3da7d026	0.08193998
127	0x3dba4ecf	0.09097063
128	0x3cbfc7de	0.023410734
129	0x3b50eb9c	0.0031878715
130	0xbc6aaf88	-0.0143240765
131	0x3d20e0f4	0.039277032
132	0xbcafe7a0	-0.021472752
133	0x3d0894b6	0.033344947
134	0x3afa338e	0.0019088851
135	0x3d1b6779	0.037940476
136	0xbcaac7eb	-0.020847281
137	0x3d15f9d4	0.036615208
138	0xbae2d51f	-0.0017305947
139	0x3d9f1d03	0.077692054
140	0xbd01845e	-0.031620376
141	0xbc8c0275	-0.017091015
142	0x3d62688b	0.05527548
143	0xbd323ff8	-0.043518037
144	0x3cf0dae3	0.029401248
145	0xbbf2c5b8	-0.007408824
146	0x3d0daded	0.034589697
147	0x3d07106e	0.032974653
148	0x3d3918cc	0.045189664
149	0x3cdc6f5a	0.026908565
150	0x3d0aa1f3	0.033845853
151	0x3c63c473	0.013901818
152	0x3d81738d	0.06320868
153	0x3bd3db50	0.006465353
154	0x3cafc8d6	0.02145807
155	0x3ce3508e	0.027748372
156	0x3cd6b165	0.026207635
157	0x3c87a0a8	0.016556099
158	0xbc6b615c	-0.014366474
159	0x3be1969a	0.006884408
160	0xbd090543	-0.033452284
161	0xbc225a98	-0.009909295
162	0xbca2ae80	-0.019858599
163	0x3d0c88ab	0.034310024
164	0x3c26ba5e	0.010176269
165	0xbbefd769	-0.00731938
166	0xbcf7cb8e	-0.03024843
167	0x3c9e50b7	0.019325597
168	0x3d0b056e	0.033940725
169	0x3b810b76	0.003938134
170	0xbd07ef36	-0.033187114
171	0x3d2422c9	0.040072236
172	0x3beddb0e	0.0072587794
173	0xbc86d38a	-0.016458292
174	0x3a8b60b2	0.0010633676
175	0x3c0f24c6	0.008736795
176	0xbd3a9b01	-0.04555798
177	0x3bf6adff	0.007528066
178	0x3cc18c94	0.023626603
179	0xbbdaf9cc	-0.00668261
180	0x3d1885c3	0.03723694
181	0xbd20ab27	-0.039225724
182	0x3cc0f481	0.023554089
183	0x3d6b89fc	0.05750464
184	0xbcbb0fbd	-0.022834653
185	0x3d3e9b9b	0.046535116
186	0xbc792f32	-0.015209006
187	0x3c9ea9da	0.0193681
188	0x3c533768	0.012891628
189	0xbd04e7c2	-0.032447584
190	0xbcc7ad66	-0.024374675
191	0xbd00d9c4	-0.031457677
192	0x3cb002a7	0.02148564
193	0xbbbd2769	-0.0057725203
194	0x3d358033	0.044311713
195	0x3cf135d4	0.029444613
196	0x3d8308a3	0.06398132
197	0x3b6f2be9	0.0036494678
198	0xbc6b5b41	-0.014365018
199	0x3c93bbb3	0.018033838
200	0x3d4bb5cd	0.049733926
201	0x3d357ef4	0.044310525
202	0x3cbb7d81	0.022886993
203	0x3d509c68	0.05093041
204	0x3d52d7eb	0.051475447
205	0xbd161e0e	-0.036649756
206	0x3d5f3143	0.05449034
207	0x3ce50d62	0.027960483
208	0x3d1a38c6	0.0376518
209	0x3d1915d8	0.037374347
210	0x3d8f1d7e	0.06988047
211	0x3d28cf06	0.041213058
212	0x3cd371fa	0.025811184
213	0xbba6f9af	-0.0050956826
214	0x3cd4ce47	0.025977267
215	0x3d124f78	0.03572032
216	0x3c868e72	0.016425345
217	0x3d125041	0.035721067
218	0x3c1f71bb	0.009731705
219	0x3c2e2db8	0.010631017
220	0xbcbc11b7	-0.022957666
221	0xbb089c1e	-0.0020845006
222	0xbcdc7340	-0.026910424
223	0xbcdd50ab	-0.027016005
224	0x3b0adf34	0.0021190168
225	0xbbfe44c6	-0.0077596633
226	0xbc0da908	-0.008646257
227	0x3cd46e9f	0.025931654
228	0xbcbe6ed2	-0.023246203
229	0xbd219aec	-0.039454386
230	0x3d7e3841	0.062065367
231	0x3d6b1a09	0.057397876
232	0xbd2023ec	-0.039096758
233	0xbc175cdd	-0.009238449
234	0xbc3e0eb0	-0.011600181
235	0xbca1f55a	-0.019770313
236	0x3d1df3f3	0.038562726
237	0x3cd1c936	0.02560864
238	0x3c58c17a	0.013229722
239	0x3cbee7d2	0.0233039
240	0x3c9413af	0.018075792
241	0xbd4577fb	-0.048210125
242	0x3d0a42e6	0.033755206
243	0x3c51572e	0.012777133
244	0x3d3aca72	0.045603223
245	0xbd378f79	-0.04481456
246	0xbd1cfca1	-0.038326863
247	0x3ce41e2a	0.027846415
248	0x3cd6354c	0.02614846
249	0xbab48b29	-0.0013774383
250	0x3dac957c	0.084269494
251	0x3c417f38	0.0118101165
252	0x3d23973c	0.03993915
253	0x3bc3bb2d	0.005973241
254	0x3c489208	0.012241848
255	0xbcca00ac	-0.024658523

linear3.weight f4 [128, 256]
0	0x3c9526c7	0.018206967
1	0x3d66f783	0.05638839
2	0x3d0035b9	0.031301234
3	0x3d3c42d9	0.04596219
4	0xbc952f4d	-0.018211031
5	0x3d46818c	0.04846339
6	0x3c066cbb	0.008204634
7	0x3d6807d5	0.056648094
8	0xbd348196	-0.044068895
9	0xbd7ace6c	-0.061232015
10	0x3d1dffa5	0.03857388
11	0x3c9be62f	0.019030659
12	0x3da65782	0.081221595
13	0xbd61bdb9	-0.055112574
14	0x3d885b9b	0.06658097
15	0xbd51d660	-0.051229835
16	0xbcf17730	-0.029475778
17	0x3c734db2	0.014850067
18	0x3dbac964	0.091204435
19	0xbd2fb20c	-0.042894408
20	0xbd78791d	-0.060662378
21	0xba133813	-0.00056159607
22	0x3c897aac	0.016782127
23	0x3ca9b7d5	0.02071754
24	0x3be60ca0	0.007020548
25	0xbd667564	-0.056264296
26	0x3d700868	0.058601767
27	0xbcd18e31	-0.025580497
28	0x3c3e75b9	0.011624747
29	0xbcba361b	-0.022730878
30	0x3d753eea	0.059874453
31	0xbd71d898	-0.05904445
32	0xbd169ee8	-0.03677264
33	0x3d3f2e40	0.046674967
34	0xbcecc7cd	-0.028903866
35	0x3d4e27de	0.05033099
36	0xbcd6d15d	-0.026222879
37	0xbc28e8fa	-0.010309452
38	0xb72dce70	-1.03596685e-05
39	0xbd815454	-0.063149124
40	0xbb44f1a5	-0.0030051258
41	0xbc3274b2	-0.01089208
42	0x3d2543b1	0.04034776
43	0xbb61e4a8	-0.0034468565
44	0x3d104bc9	0.035228524
45	0x3c71f69c	0.014768269
46	0x3d1986ac	0.03748195
47	0x3d7ef1d3	0.06224234
48	0xbd6f648a	-0.05844549
49	0x3c6cfc33	0.014464426
50	0x3d26abb7	0.040691104
51	0xbc2432a1	-0.0100218365
52	0x3cab73e7	0.02092929
53	0x3ade3b8a	0.0016955
54	0x3d52ffe6	0.051513575
55	0x3d3a4460	0.045475364
56	0x3d1f7d0d	0.038937617
57	0x3c500e15	0.01269867
58	0x3d115f22	0.035491116
59	0x3c2c78e2	0.010526868
60	0x3d9089c0	0.07057524
61	0x3d0b76b5	0.034048755
62	0x3871a4d8	5.76124e-05
63	0xba96af20	-0.0011496283
64	0xbce5b916	-0.028042357
65	0xbd24afc2	-0.04020668
66	0x3d3adc2a	0.04562012
67	0xbc0d5a82	-0.008627536
68	0x3d3d633c	0.046237215
69	0x3d392d14	0.045209005
70	0x3d04a264	0.03238143
71	0xbd00a7d1	-0.031410042
72	0x3c5d78e6	0.013517594
73	0xbd72825f	-0.059206363
74	0x3cdfdc66	0.027326774
75	0xbc062df8	-0.008189671
76	0x3ca4309a	0.020042706
77	0x3cf2832e	0.029603567
78	0x3c3de29d	0.011589673
79	0x3d72fd0b	0.05932335
80	0x3ac8319e	0.0015273576
81	0x3d60b2db	0.05485807
82	0x3a87e7e2	0.0010368789
83	0x3c4b65eb	0.012414436
84	0xbbafbd82	-0.0053631673
85	0xbb9ee5db	-0.0048491783
86	0x39acfee3	0.00032996302
87	0xbb7ff120	-0.0039053634
88	0x3d817833	0.06321754
89	0xbc8ba12b	-0.017044624
90	0xbd4f5cf4	-0.050625756
91	0x3da1406d	0.07873616
92	0x3a59c104	0.00083066546
93	0x3d95b95b	0.073107444
94	0x3c56512b	0.013080875
95	0x3da8bfda	0.08239718
96	0x3bfb9f00	0.0076788664
97	0xbbfcdd40	-0.0077168047
98	0x3d5c6bab	0.053813618
99	0x3d872992	0.06599726
100	0x3d04eb53	0.032450985
101	0x3d180526	0.037114285
102	0x3d3ca642	0.046056993
103	0xbc69b117	-0.014263413
104	0x3d143e8a	0.036192454
105	0x3d03a29c	0.0321375
106	0x3dc3fb76	0.09569447
107	0x3d1bf199	0.038072202
108	0x3cf1f479	0.029535519
109	0x3d3027a6	0.04300656
110	0x3d5ba116	0.05362042
111	0x3cd793e3	0.026315635
112	0xbbedb59c	-0.0072543155
113	0x3db4fed2	0.088376656
114	0x3d2bd014	0.041946486
115	0x3d92b7f0	0.071639895
116	0x3b9a585f	0.0047102417
117	0xbb1e812c	-0.002418588
118	0x3d66295e	0.056191795
119	0x3d12d8e2	0.035851367
120	0xbcd16042	-0.025558595
121	0x3d684b87	0.056712653
122	0xbd5f2a98	-0.05448398
123	0xbd84e9d1	-0.064899094
124	0xbcc455e7	-0.023966743
125	0x3cebddac	0.028792225
126	0xbcfbcdd9	-0.030737804
127	0x3c021612	0.007939832
128	0x3db36ced	0.0876101
129	0x3c5a4a35	0.013323356
130	0xbb41171c	-0.0029463237
131	0xbc0f72d7	-0.008755407
132	0x3d6581d5	0.05603202
133	0xbc209dbe	-0.009803234
134	0x3c827cc8	0.015928641
135	0x3d1f9dfe	0.038969032
136	0x3ca33fd5	0.019927898
137	0xbb77a3c0	-0.0037786812
138	0x3d0df4fd	0.034657467
139	0xbc78c9af	-0.015184804
140	0x3c3d8498	0.011567257
141	0xbd3d5d02	-0.046231277
142	0x3dab849a	0.08374901
143	0x3cc73a65	0.024319837
144	0x3d515f70	0.051116407
145	0x3c65f104	0.014034513
146	0xbd68576c	-0.056723997
147	0x3da10464	0.078621656
148	0xbcbaa995	-0.022785941
149	0xbc96a8b6	-0.018390995
150	0xbd1eb61e	-0.0387479
151	0x3cce37e3	0.025173133
152	0x3c535881	0.012899519
153	0x3d33cce6	0.04389658
154	0x3db2bc5b	0.08727332
155	0xbc339cff	-0.010962724
156	0x3d85ec0d	0.06539164
157	0x3cdca243	0.026932841
158	0x3b8403a0	0.0040287524
159	0xbd0f8c8b	-0.03504614
160	0x3c015218	0.007893108
161	0x3d005db5	0.031339366
162	0xbd4c3ebc	-0.049864516
163	0xbcab44e4	-0.020906873
164	0x3d5a7a0c	0.05333905
165	0x3cac28a3	0.02101547
166	0x3ce592dc	0.02802413
167	0xbd12a4aa	-0.035801567
168	0xbc556399	-0.013024234
169	0xbc81829d	-0.015809352
170	0x3d4e94f0	0.050435007
171	0x3d39f0a4	0.04539551
172	0x3d63881d	0.05554973
173	0xbcb86d68	-0.022513106
174	0xbc582b70	-0.01319395
175	0x3d1738fa	0.03691957
176	0xbd20f6eb	-0.03929798
177	0xbcfe1e71	-0.031020375
178	0x3b2bfaaf	0.0026241948
179	0x3d7dc706	0.06195738
180	0x3c4d4f2b	0.012531082
181	0xbc9fc722	-0.019504134
182	0xbd2a7061	-0.04161108
183	0xbd053fb4	-0.032531455
184	0xbbc65229	-0.0060522747
185	0xbc564a15	-0.013079186
186	0x3d0cdcc9	0.034390245
187	0xbcb00244	-0.021485455
188	0x3d1e44f9	0.038639996
189	0xbd2a7668	-0.041616827
190	0x3d4249a5	0.047433514
191	0x3d22d555	0.03975423
192	0xbcb58c68	-0.022161677
193	0x3d50f162	0.05101145
194	0x3c112776	0.008859506
195	0x3d98b6f6	0.07456772
196	0x3d9e0c72	0.077172175
197	0xbd38aae5	-0.045084853
198	0xbd537840	-0.05162835
199	0xbcfc0a8a	-0.030766744
200	0x3d93453d	0.071909405
201	0x3db50956	0.08839671
202	0xbcd0993f	-0.025463698
203	0x3d8d2010	0.06890881
204	0x3da41e0c	0.080135435
205	0xbd3ef17a	-0.04661701
206	0x3c2bf8d5	0.010496338
207	0x3bdca90a	0.006734018
208	0x3ce3cf87	0.027808918
209	0x3d243e9b	0.040098768
210	0x3cf5a49a	0.029985715
211	0xbb633c07	-0.003467323
212	0xbb277be0	-0.0025556013
213	0x3d78fa1a	0.06078539
214	0x3d82e541	0.06391383
215	0x3c75d109	0.015003451
216	0x3d85ed80	0.0653944
217	0x3d8977e2	0.06712319
218	0x3c964c24	0.018346854
219	0x3d25ff63	0.04052676
220	0x3d791ec7	0.060820367
221	0x3dc75b52	0.09734215
222	0xbcc549d7	-0.024083061
223	0x3d021278	0.031755894
224	0xbd5c7ad5	-0.05382808
225	0xbd7d230e	-0.06180101
226	0xbce0f760	-0.027461708
227	0x3b8e4525	0.0043417388
228	0xbd720366	-0.059085272
229	0xbd3f22a9	-0.046663914
230	0x3d5e4bfa	0.054271676
231	0xbd08a734	-0.033362582
232	0x3d49c2a2	0.049257882
233	0x3c8697e6	0.016429853
234	0x3d920408	0.07129675
235	0x3d67712e	0.05650442
236	0x3d339d19	0.043850992
237	0xbd223f3d	-0.03961109
238	0xbc9c9ae9	-0.019116836
239	0xbd0df8df	-0.03466117
240	0x3d6e57cd	0.058189202
241	0x3d6f0fb5	0.05836459
242	0xbbb75b34	-0.005595589
243	0xb8058738	-3.1835603e-05
244	0x3cdd8718	0.027041957
245	0x3c9d7d11	0.019224675
246	0xbbe1e0b0	-0.00689324
247	0x3cb7fa5c	0.022458248
248	0xbc5ff873	-0.013670075
249	0x3c942f9f	0.018089114
250	0x3d2819df	0.041040298
251	0x3c3427d2	0.010995822
252	0x3da95da4	0.08269814
253	0x3d93b72d	0.072126724
254	0x3c3e2c68	0.011607267
255	0xbc06adf0	-0.008220181

linear3.bias f4 [128]
0	0x3d8c6fdb	0.06857272
1	0xbd2c2faa	-0.042037643
2	0x3d0e8b96	0.03480109
3	0x3c555b31	0.01302223
4	0x3d50b6ae	0.050955467
5	0x3d02f619	0.03197298
6	0x3cd0bfa8	0.025482014
7	0xbd06db95	-0.032924253
8	0x3d166c0d	0.03672414
9	0x3c3f331e	0.011669902
10	0x3cf8085e	0.030277427
11	0x3ca9783b	0.020687213
12	0x3d8b8db5	0.06814138
13	0x3d55399d	0.052056897
14	0x3d0e59d0	0.03475362
15	0xbd6914dd	-0.056904662
16	0xbd5b8c05	-0.05360033
17	0x3c9452d2	0.018105898
18	0x3cf20a91	0.029546054
19	0x3d1dae97	0.03849658
20	0x3d2ce836	0.04221364
21	0x3cb89f35	0.022536853
22	0x3d46a89c	0.048500642
23	0xbd1ad9c5	-0.037805337
24	0x3d22c656	0.03973993
25	0x3d1c07fb	0.03809355
26	0xbc96006a	-0.018310744
27	0xbcb57472	-0.022150252
28	0x3c8e6ed8	0.017386839
29	0x3a224300	0.00061897933
30	0xbd8b8858	-0.06813115
31	0xb99c6a00	-0.00029833615
32	0xbc7fb27f	-0.015606522
33	0xbcdbeb66	-0.026845645
34	0x3bce3166	0.00629251
35	0x3d23e830	0.040016353
36	0xbd71e234	-0.059053615
37	0xbd401cfc	-0.04690264
38	0x3cd7dbbd	0.026349897
39	0xbb950ab5	-0.0045483955
40	0x3d4c263e	0.049841158
41	0xbd3cc0d6	-0.04608234
42	0xbcd4fc44	-0.025999196
43	0xbd1e5338	-0.038653582
44	0xbd7f2bcb	-0.062297624
45	0x3b7708d2	0.0037694466
46	0x3cfc6f76	0.030814867
47	0x3d05a8fe	0.032631867
48	0xbcc39616	-0.023875277
49	0x39f3f178	0.0004652848
50	0x3cb0cf0e	0.021583106
51	0xbd349baf	-0.044093784
52	0x3d07d647	0.033163335
53	0xbcf8e220	-0.030381262
54	0xbd3df0c4	-0.04637219
55	0x3d65f392	0.05614049
56	0xbd4ef9d8	-0.05053124
57	0xbc2d2c78	-0.010569684
58	0x3c78052d	0.015137953
59	0x3d68895e	0.05677163
60	0x3c9fcb2c	0.01950606
61	0x3d3aff74	0.045653775
62	0x3ce668b3	0.028126096
63	0x3cd56087	0.026047004
64	0xbd70b4f9	-0.05876634
65	0x3cebbdee	0.028777089
66	0x3d39fd90	0.04540783
67	0xbcb11334	-0.021615602
68	0x3c62035a	0.013794744
69	0x3d0ee503	0.03488637
70	0xbccb9ef9	-0.024856078
71	0x3d90b3fa	0.07065578
72	0x3d9e5ebe	0.077329144
73	0xbd619f3c	-0.0550835
74	0x3ce6b93c	0.028164499
75	0x3da49a7c	0.08037278
76	0xbca47c5a	-0.020078827
77	0x3d6a9b0e	0.057276778
78	0x3de7b033	0.11312904
79	0x3d4e5875	0.050377328
80	0xbcdb88cb	-0.026798626
81	0xbd47da55	-0.048792202
82	0xbc04e218	-0.008110546
83	0xbcd86dee	-0.026419606
84	0x3b0e9c65	0.00217607
85	0xbc02f98f	-0.00799407
86	0xbd53b140	-0.05168271
87	0xbd54f56b	-0.05199186
88	0x3d897378	0.06711477
89	0xbca55f9e	-0.020187195
90	0xbd6785b5	-0.056523997
91	0xbbb2a384	-0.0054516215
92	0xbb590316	-0.0033113412
93	0xbd39a43c	-0.04532264
94	0xbb99234a	-0.0046733962
95	0xbd50c458	-0.050968498
96	0xbd828ad5	-0.06374136
97	0x3b16258e	0.0022910568
98	0xbd3219dc	-0.043481693
99	0xbc4b6130	-0.012413308
100	0x3cd7181b	0.026256612
101	0x3bd8ccb0	0.0066161975
102	0xbb232fe4	-0.0024900371
103	0x3b226127	0.0024777146
104	0x3db09932	0.0862297
105	0x3cb54d2e	0.022131529
106	0xbd0252cf	-0.031817254
107	0x3c8d52e0	0.017251432
108	0xbc246957	-0.010034881
109	0x3cdcb642	0.026942376
110	0x3d939fa5	0.07208184
111	0xbc7a18db	-0.015264715
112	0xbd4bb690	-0.049734652
113	0x3c826b41	0.015920283
114	0xbb5ac1c0	-0.0033379644
115	0xbd5954d4	-0.053059414
116	0x3d4826d4	0.048865154
117	0xbd119cb7	-0.035549846
118	0xbd06824e	-0.032839112
119	0x3d342f36	0.043990336
120	0x3d53df90	0.051726878
121	0x3d761c8d	0.060085822
122	0x3cb4396e	0.02200004
123	0x3d23f812	0.0400315
124	0x3d67068e	0.056402735
125	0x3c8a22db	0.016862324
126	0xbce3e6af	-0.02781996
127	0x3ca133b8	0.019677982

linear4.weight f4 [3, 128]
0	0xbd50e343	-0.050997984
1	0xbca4b32b	-0.020104965
2	0x3dc100ae	0.09423958
3	0xbc93c4bd	-0.018038148
4	0xbd88cc57	-0.066796
5	0xbd5756b8	-0.052572936
6	0x3cb91012	0.02259067
7	0x3d511876	0.05104872
8	0x3d8ca5ea	0.06867583
9	0x3d61c91c	0.055123433
10	0xbd23936e	-0.03993552
11	0xbdab5951	-0.08366645
12	0xbdd87404	-0.10569003
13	0xbcacd5e2	-0.021098081
14	0x3da972b4	0.08273831
15	0xbdb49675	-0.0881776
16	0x3dafdd7d	0.085871674
17	0xbca5c975	-0.020237664
18	0xbd7da24b	-0.061922353
19	0xbd409f34	-0.047026828
20	0xbd97d3e7	-0.07413464
21	0xbd383221	-0.04496968
22	0x3dc1dbde	0.094657645
23	0xbceddafb	-0.029035082
24	0x3c5a4273	0.013321507
25	0xbd230854	-0.039802864
26	0x3daa914b	0.08328494
27	0xbd61ddc4	-0.055143133
28	0x3c9e5034	0.019325353
29	0x3c8a0488	0.016847864
30	0x3d6444bb	0.05572961
31	0x3ca48280	0.020081758
32	0x3d78d96b	0.06075422
33	0x3d4e92ae	0.050432853
34	0x3d603eaa	0.05474726
35	0x3dadddbe	0.084895596
36	0xbc9aff78	-0.018920645
37	0xbd73a57c	-0.05948399
38	0x3c7f88b9	0.015596562
39	0x3d8e31c0	0.06943083
40	0xbd9a1123	-0.075228
41	0xbc355b08	-0.011069067
42	0xbd53428f	-0.051577147
43	0xbddec68e	-0.10877715
44	0x3d36f864	0.044670478
45	0xbcac239d	-0.021013075
46	0xbabaffc8	-0.0014266903
47	0xbda4c479	-0.08045287
48	0x3c5d7f62	0.01351914
49	0xbd346f96	-0.04405173
50	0xbd931fea	-0.071838215
51	0xbd83b880	-0.06431675
52	0xbcc1268e	-0.023577955
53	0x3d6fca86	0.05854275
54	0x3cd3cb2c	0.025853716
55	0xbddf1cbe	-0.10894154
56	0x3d1378ac	0.036003754
57	0x3c50487f	0.012712597
58	0x3cbed2f6	0.023293953
59	0xbdf9d718	-0.12199229
60	0xbc064a48	-0.008196421
61	0x3d55f4ec	0.05223553
62	0xbd78c2c2	-0.06073261
63	0x3d87d151	0.06631721
64	0xbda1256e	-0.07868467
65	0x3db7dbce	0.08977471
66	0x3c4e6004	0.012596134
67	0xbbcba921	-0.00621523
68	0xbd15332f	-0.036425766
69	0x3dbbdece	0.09173356
70	0x3da21f42	0.07916118
71	0x3caba30a	0.020951767
72	0xbdd1b3a7	-0.10239344
73	0xbd9e5469	-0.07730944
74	0x3d4119ba	0.047143675
75	0x3cc358ee	0.023846116
76	0xbd9f3349	-0.07773454
77	0x3daeef03	0.085416816
78	0xbd257d3f	-0.040402647
79	0xbd64942d	-0.055805374
80	0x3d7e5af5	0.062098462
81	0x3d8ce9f2	0.06880559
82	0xbdb16d37	-0.08663409
83	0xbd8f89f6	-0.07008736
84	0x3c9f761b	0.019465497
85	0x3db1b6d4	0.0867745
86	0xbd04806c	-0.032349035
87	0x3d9e0510	0.07715809
88	0xbd94be41	-0.072628506
89	0x3d4956fe	0.049155228
90	0x3dab58a6	0.08366518
91	0x3ca0438b	0.019563457
92	0x3cbe42e9	0.023225265
93	0x3adc1900	0.0016792119
94	0xbd593e5e	-0.053037994
95	0xbda2a108	-0.079408705
96	0x3d3d7fa9	0.046264324
97	0xbcca182e	-0.024669733
98	0x3c2377a0	0.009977251
99	0xbd2ab1eb	-0.041673582
100	0xbd107b95	-0.035274107
101	0xbcb693e8	-0.022287324
102	0xbc663a59	-0.014051997
103	0xbd8288eb	-0.06373771
104	0xbd0ce428	-0.034397274
105	0xbd609eb1	-0.05483884
106	0xbd163fa6	-0.036681794
107	0xbdc4e08e	-0.09613143
108	0xbd97e564	-0.074168
109	0xbd70a655	-0.058752377
110	0x3d93e37f	0.07221126
111	0xbd7b2a33	-0.06131954
112	0xbd8e6504	-0.06952861
113	0x3da1fc04	0.07909396
114	0xbd60d719	-0.054892633
115	0x3d18a77e	0.037269108
116	0xbd4699e4	-0.048486605
117	0xbce194a8	-0.027536705
118	0x3db3d76d	0.087813236
119	0xbdbe8f2a	-0.0930465
120	0x3db71d56	0.08941142
121	0x3d890cdf	0.06691908
122	0x3c341a52	0.010992603
123	0x3cb3baf9	0.021939741
124	0xbc4ea255	-0.012611945
125	0x3ca76987	0.020436062
126	0xbda4df0a	-0.08050354
127	0x3d2d7657	0.042349186
128	0xbba5390d	-0.0050422014
129	0x3d56cdd0	0.05244237
130	0x3d83f8e3	0.06443956
131	0x3d8a91c2	0.06766082
132	0xbc8afbee	-0.016965833
133	0x3cf1b92f	0.029507248
134	0xbd728318	-0.059207052
135	0xbe15a724	-0.1461454
136	0x3d5154e0	0.051106334
137	0x3d92b2b5	0.07162992
138	0x3d43fabe	0.04784655
139	0x3cbd5654	0.023112454
140	0xbd76b27e	-0.060228817
141	0xbe0dadbe	-0.13835809
142	0xbca57799	-0.02019863
143	0xbca742c3	-0.020417577
144	0x3b86fc2d	0.004119417
145	0xbdb2c462	-0.08728863
146	0xbd85afed	-0.06527696
147	0x3bb15c64	0.005412625
148	0x3da65c75	0.081231035
149	0x3bcefdd6	0.0063168807
150	0x3d889cb6	0.06670515
151	0xbc7c4490	-0.015397206
152	0x3d8c7af0	0.06859386
153	0x3ad9ce4d	0.0016617269
154	0x3bd4e6a0	0.006497219
155	0x3d686c96	0.05674418
156	0x3d841c51	0.064507134
157	0x3d5a8dc6	0.053357862
158	0x3cd4c051	0.02597061
159	0x3da5418d	0.080691434
160	0x3dd3ac6a	0.1033562
161	0xbaf4a18c	-0.0018663867
162	0xbc9e1ae9	-0.019299941
163	0xbd486955	-0.048928577
164	0x3db16add	0.08662961
165	0x3d9fd126	0.07803564
166	0x3cd41bff	0.025892256
167	0xbcee10c8	-0.029060736
168	0x39c36fdc	0.0003727664
169	0xbd679e60	-0.056547523
170	0x3c2a6a9f	0.010401397
171	0xbd1b96d6	-0.037985645
172	0x3b3af56f	0.0028527637
173	0x3d6da50e	0.058018737
174	0xbd21e86f	-0.039528307
175	0x3d5b28e2	0.053505786
176	0xbd0cd732	-0.034384914
177	0xbdce5aab	-0.10075887
178	0x3d09647e	0.033543102
179	0x3d5e1841	0.05422235
180	0x3ca8edd0	0.02062121
181	0x3cd8f5f0	0.02648446
182	0x3d06e175	0.032929856
183	0x3d9e94fc	0.0774326
184	0x3d940bc5	0.07228807
185	0x3d9a5f8e	0.07537757
186	0x3d669ba9	0.056300793
187	0xba24d748	-0.0006288183
188	0xbd99629e	-0.07489513
189	0xbd62b64e	-0.05534964
190	0xbe1b5f50	-0.15173078
191	0xbd74f664	-0.05980529
192	0x3d4a990f	0.049462374
193	0x3dcf3978	0.10118383
194	0xbdb027ef	-0.08601367
195	0xbc07a85f	-0.008279889
196	0x3da3fc3a	0.08007093
197	0xbd559021	-0.052139405
198	0x3dae3566	0.08506279
199	0xbe05505f	-0.1301894
200	0xbe1568d4	-0.1459077
201	0x3da88a7b	0.08229538
202	0xbcf165dc	-0.029467516
203	0xbd551660	-0.05202329
204	0xbd986f2a	-0.07443078
205	0xba75041e	-0.0009346622
206	0xbdd87bce	-0.10570489
207	0x3d5cf191	0.053941313
208	0xbdc1032e	-0.094244346
209	0x3d3077b6	0.043082915
210	0x3d89edd1	0.06734813
211	0x3d73126f	0.05934375
212	0x3d3f427e	0.04669427
213	0x3d84d599	0.06486053
214	0x3da4407f	0.08020114
215	0xbd6ca6e6	-0.057776354
216	0xbe149c08	-0.14512646
217	0xbb6e2a9a	-0.003634131
218	0xbdd1d98c	-0.10246572
219	0x3d3257de	0.043540828
220	0xbd29d275	-0.041460473
221	0x3d5be6c4	0.053686872
222	0xbd8bd9af	-0.06828629
223	0xbcc662e8	-0.024217084
224	0x3b09abc7	0.0021006928
225	0xba83b01d	-0.0010046993
226	0xbd18b214	-0.037279204
227	0xbd1a87f8	-0.037727326
228	0x3c12a618	0.008950733
229	0x3c478690	0.012178078
230	0x3da625d7	0.08112686
231	0xbd37923a	-0.044817187
232	0xbde236d4	-0.11045614
233	0xbd776dc0	-0.0604074
234	0x397751bf	0.00023586208
235	0xbd661f7c	-0.05618237
236	0x3b9fa84e	0.0048723584
237	0x3c8b9941	0.01704085
238	0xbdf008ad	-0.11720405
239	0x3ccd8c30	0.02509126
240	0xba138280	-0.0005627051
241	0xbd38e5fa	-0.045141198
242	0x3d61e63a	0.0551512
243	0x3d9ea8d1	0.07747043
244	0x3da17467	0.0788353
245	0x3d2a9c22	0.041652806
246	0xb7f5d771	-2.9306599e-05
247	0xbd0e780a	-0.034782447
248	0xbd916eeb	-0.07101234
249	0xbdc5d069	-0.09658892
250	0xbd68f2f1	-0.056872312
251	0xbe02015b	-0.1269583
252	0x3d433655	0.047659237
253	0x3d80b819	0.06285114
254	0x3dba03c0	0.090827465
255	0xbcff3a1c	-0.031155638

linear4.bias f4 [3]
0	0x3daf2621	0.085521944
1	0xbd37dc9c	-0.044888124
2	0xbd834807	-0.064102225
